Eunho/pytorch_stacking/saved_models/classification-21_epoch=8-valid_loss=0.49.ckpt (torch, 317359 bytes, 56 tensors)

_backbone.linear_layers.0.weight f4 [128, 84]
00000000: f55f fa3b 12ff d6bd 9bb2 133d 6367 d83c
00000010: 3566 d5bc 1079 d7bd 2f1e cfbd c8d7 323d
00000020: c11f 14bd f57d 5e3c 0878 843d 98aa f0bd
00000030: ca33 2a3d 3942 d23d 4dc0 33bd c2df 43bd
00000040: 54d8 febb 5010 57bd 05dd af3d ec0c 653d
00000050: a0c3 c03d 6f91 393d 1f66 f6bd f6c1 c63b
00000060: 1397 98bc f77d 93bd ffd7 46bd 3cdb 273d
00000070: 4c48 20bc 3f3e e7bd eaa2 373d 4259 b6bd
00000080: 77ed 10be 95df 83bd 10c3 30be 466b b3bc
00000090: 8128 ad3d d184 ca3d 25d4 0c3c 5f76 4fbd
000000a0: 0af1 01bd a97e b83d c689 1cbd bf8f 343d
000000b0: 986e 433d dc78 e13c f581 743d edc5 ddbb
000000c0: 33ef 553d 3988 bdbd 3bd4 453d 2d77 393d
000000d0: 050e 4a3d 41f3 cabd ef19 ddbd da3d a1bc
000000e0: 8dfc d7bc b72e 25be 05cc 4ebd f273 993d
000000f0: 9384 363e 4b5f bc3d 534b 973d 241b cbbc
00000100: b0f8 69bd efbe cabd d072 9dbd 7043 0c3c
00000110: f536 eb3d bcca 7dbd 2194 133e 9e8c ecbd
00000120: 8fdf b7bd 8f54 e6bb 923b 9d3c e810 173c
00000130: 20b0 d0bc 5de6 fe3c 47b9 d4bd 79ef 773d
00000140: 29ba 90bd dafe c4bd 60d7 b03c 113f 6ebd
00000150: 0699 b1bd 2ae8 413d da13 cabd 37ac 143d
00000160: 8b25 db3c dbd0 09be 3555 bc3d 8399 fb3c
00000170: 568b b8bd 4794 b8bc ee26 a83d 4e51 8abd
00000180: 4e76 6a3c d200 773d 02e9 313d 66da 22bd
00000190: 08d1 31bd 6261 fcbb 07cd 283d 5da8 d23b
000001a0: 331a 253d 0681 a33c a427 23bd 8de0 a2bd
000001b0: bfd4 a7bd fb28 4dbd 8b03 5d3d ea26 08bd
000001c0: 039d 023d 04b1 65bd 9080 4eb9 577f e93c
000001d0: 4560 f1bd d5d9 a5bd d335 94bd 93d3 28bc
000001e0: 68ea 043c bfdb 1ebb 42e9 e2bd 12cd 393c
000001f0: 4707 d0bd cc50 acbd 07ac 48bd 2f32 66bd
00000200: b01e d2bc dc7c df3c 6843 4fbc b11d 823c
00000210: 49f2 86bd d56b b5bd e372 ffbc ddf5 a5bd
00000220: ca8b 513c 9416 05bc ef5f a63d ffe8 553b
00000230: 388e adb9 a545 e1bd 43af a33d 75ce c03d
00000240: 921a 8a3d 32e0 d2bd bdc7 3ebd c6ce 9abc
00000250: 6f34 89bc 5604 96bc 8241 143a c457 6fbd
00000260: 8033 133d a9bd 943d 9c85 a53b 7b8f f0bd
00000270: 53b8 cabd 8742 c83d 3d8a b33d 00c6 ac3d
00000280: 9b19 33bd 72f5 91bd 750b 883c 59c9 d03c
00000290: 185d 523c b31e bdbd 9d6c 953b fd71 c2bc
000002a0: 277a d83c 90d1 b9bd e6ba da3c e6f0 50bd
000002b0: acb5 e03c 3942 da3b 1cb8 103b 7e5e 133d
000002c0: a879 afbd a616 48bc c24d f2bd 5149 813d
000002d0: ffa0 87bc 4c6a 8f3d 48db d13d d54c 523c
000002e0: 6f5b 00bc 9ef6 24bc 9809 8a3c dbeb 64bd
000002f0: 2eed 76bd 9ff3 ab3d 7561 263d 7945 a7bb
00000300: 80a5 c03b c351 f3bd 6730 5c3d bc42 01bd
00000310: 789a 8e3d bda3 733d e2d2 943d 1423 9ebd
00000320: 7d0c babd ada1 ccba fe65 44be 07af 89bd
00000330: bc90 213d 808a 29bc 4dd0 8abd 9603 4c3d
00000340: 3942 55bd a177 ecbd 3360 4f3c 08a5 8e3d
00000350: d59d 7a3c 4d92 093d cf05 e83b 4beb 94bd
00000360: ed32 07bd ae93 44bc 4c51 8b3d 9d9a 573d
00000370: 7074 83bd e5c3 b3bc d93e 33bd 53b3 ca3d
00000380: 7cc3 e6bc e4c5 993d 683f 853d dc8e b7bd
00000390: 8191 4bbb 2e2f 263d 2878 b63d 62d5 51bd
000003a0: 5532 d3bd 7453 7e3d 9338 d1bd ea12 903d
000003b0: e63b 5ebd 75cb ac3d 5e0c 993d e1e0 8a3d
000003c0: b570 be3c 746d 963b 1b94 3dbb cef5 b43d
000003d0: 0c9a acbc 65ce f9bc 15bc 863d 478d 3abc
000003e0: a276 08bc 8cb8 e1bc d7fc fc3d 784d 523c
000003f0: 48d4 a8bc 6434 87bd 3354 6cba d60d ecbd
0.0076408335 -0.104978696 0.036059003 0.026416486 -0.026049713 -0.10521138 -0.10113179 0.043662816
-0.036163095 0.013579835 0.06468207 -0.11751288 0.041553296 0.10266537 -0.043884564 -0.047820814
-0.007777253 -0.05250579 0.08587078 0.055920526 0.094123125 0.045304712 -0.12031197 0.0060656024
-0.018626725 -0.0720176 -0.048545834 0.040980563 -0.009782862 -0.112911694 0.0448331 -0.08903743
-0.14153086 -0.06439129 -0.1726191 -0.021901738 0.08454991 0.09888614 0.008595501 -0.050649997
-0.031724013 0.090085335 -0.03821733 0.0440824 0.047712892 0.02752345 0.05969425 -0.0067679794
0.05223007 -0.09254498 0.048298102 0.04527967 0.049329776 -0.09909678 -0.10795962 -0.019682813
-0.026365543 -0.16131102 -0.050487537 0.07492818 0.1782401 0.09197863 0.07387414 -0.024793215
-0.057121933 -0.09899699 -0.07687914 0.008561 0.114850916 -0.06196092 0.14411975 -0.11550258
-0.08978187 -0.007029123 0.019193444 0.009220339 -0.025474608 0.031115705 -0.10386901 0.060531113
-0.07066757 -0.096189216 0.021587074 -0.058165614 -0.08671765 0.04734055 -0.09867068 0.03629705
0.0267513 -0.13458578 0.091959395 0.030712849 -0.09010951 -0.022531642 0.0821055 -0.06753789
0.014310433 0.060303517 0.043435104 -0.039759062 -0.04341224 -0.0077020386 0.041211154 0.006428762
0.04030819 0.019958984 -0.039832726 -0.07952986 -0.08194875 -0.05008791 0.053958457 -0.033240236
0.03188802 -0.05607702 -0.00019693584 0.028503103 -0.1178594 -0.08098189 -0.07236829 -0.0103043495
0.008112527 -0.0024239866 -0.11079647 0.0113403965 -0.10157638 -0.08413848 -0.048992183 -0.056200203
-0.025649399 0.027281217 -0.012650348 0.015883299 -0.06589181 -0.08858458 -0.031182712 -0.08103535
0.012789676 -0.008123059 0.08123767 0.0032640097 -0.00033103093 -0.10999612 0.07992413 0.094143786
0.06743349 -0.10296668 -0.046577204 -0.018897425 -0.016748635 -0.018312614 0.00056555134 -0.05843331
0.035937786 0.07262737 0.005051328 -0.11746117 -0.09898438 0.09778314 0.08766601 0.08436203
-0.04372559 -0.07126893 0.016607026 0.025486635 0.012839578 -0.09234371 0.004560067 -0.023735994
0.026425434 -0.09073174 0.026700448 -0.05101099 0.027430378 0.0066607264 0.0022082394 0.035978787
-0.08568126 -0.012212431 -0.118312374 0.06312812 -0.016556261 0.070026964 0.10246903 0.012835701
-0.0078342995 -0.010068564 0.016850278 -0.05588899 -0.060284786 0.083960764 0.040620286 -0.0051047173
0.005879104 -0.11880829 0.053757098 -0.031557783 0.06963056 0.059482325 0.07266785 -0.07721534
-0.09084413 -0.0015612148 -0.19179532 -0.06722837 0.03944467 -0.010347962 -0.067780115 0.049808107
-0.052065108 -0.11546255 0.012657213 0.06965071 0.015296419 0.03358679 0.0070807706 -0.07271441
-0.03300755 -0.0119981 0.068026155 0.052637685 -0.06418693 -0.021943996 -0.043761108 0.09897485
-0.028169386 0.07508448 0.065062344 -0.08962795 -0.003106207 0.040572338 0.08909637 -0.05122889
-0.103123344 0.062091306 -0.10215869 0.070348576 -0.054256342 0.08437244 0.07473062 0.067811735
0.023247102 0.0045906845 -0.002892739 0.08835946 -0.021069549 -0.030493924 0.065788426 -0.011386222
-0.0083290655 -0.02755382 0.12352913 0.012835853 -0.020609036 -0.066017896 -0.0009015232 -0.115260765

_backbone.linear_layers.0.bias f4 [128]
00000000: 9313 763b e855 7a3d bac6 a93c 4823 283b
00000010: 78cd ccbc 05cf 8cbd 7a00 373d 5515 05bd
00000020: 07f8 6abc 2291 a63d 6c9d 51bc f072 6fbc
00000030: 135b 853d 17e9 153d 9e8d c53c d403 8b3d
00000040: d603 33bb 9b70 293d 5485 2fbd e183 43bd
00000050: 923e 623d bd26 463d 7f01 06bd 1627 65bd
00000060: 9676 7fbd d157 7e3d 4a17 9c3c 03e3 81bd
00000070: a671 973d 6bab c6bc ffb4 963d 1d27 3fbc
00000080: 4035 b63d 373f 2e3d 1330 de3d c0fd ad3d
00000090: a985 ad3d 1471 013d 0c39 293d e7de 17bd
000000a0: a11e fb3b a722 38bd 3474 a0bd 9bbe 313d
000000b0: 9cbc 9c3d 08c4 c2bd c411 db3c 4a79 a93d
000000c0: 9bf2 dc3c 6560 ac3d edc1 ffbc ee6f eebc
000000d0: f546 b5bc 6aba 0c3d 9b19 9c3d 0af0 ddbc
000000e0: 143d b83d 0008 cf3c a16e 61bd 33d2 b1bd
000000f0: 311d 653d 210e 613d 2de8 243d 24a1 aabd
00000100: 494d d73d f539 b43b 12fe 7dbd c4d1 923d
00000110: 5181 f3bb cf9b 853d 47b8 663d 58a3 46bd
00000120: 7c28 023d 37e3 cfbd 5cb6 49bd 3155 71bd
00000130: 80c4 d0bd 0078 67bd a0cc b7bd 4ef3 a23d
00000140: 9c5f 183d 62e4 c13c c6a2 02be 0064 ee3d
00000150: 051a ee3d 8b3b 753d de06 83bb 57f0 1fbc
00000160: ef67 31bd c29b 993c 5cd4 9bbd 5d56 9bbd
00000170: b938 f43c ad80 90bc 3a49 8ebb 7433 a3bd
00000180: 3ce8 b93d 28b7 aebd da77 113c 7cd8 50bd
00000190: e5e9 c8bd 22eb f1bc fb1b 143d 18c3 fb3c
000001a0: 3e57 253c 6178 ebbd 91f8 b53d 4fd9 f13c
000001b0: 535d 6bbc 52d4 5e3c e3fe 56bd fdec 9abd
000001c0: d0fe 8f3d c5d8 aebd cc4d db3d c345 273d
000001d0: bcb0 cb3d ab42 353c 17bb 0bbd 3414 f3bd
000001e0: 2d6b 4b3c 2a56 47bd adee c23d 6f9c 3a3d
000001f0: fd9d 7b3c 1f86 823d 422b d4bd 0b84 a0bd
0.0037548288 0.061117083 0.020724643 0.0025655795 -0.025000319 -0.06875423 0.04467819 -0.032491047
-0.014341361 0.08133151 -0.01279388 -0.014614806 0.06511512 0.036599245 0.02411538 0.067878395
-0.0027315519 0.041367155 -0.04285176 -0.04773319 0.055235453 0.048376787 -0.03271627 -0.05594548
-0.06236895 0.062095467 0.019054074 -0.06342127 0.073947236 -0.02425166 0.07358741 -0.01166704
0.088968754 0.042540755 0.10849013 0.084956646 0.08472759 0.03160198 0.04131417 -0.03707781
0.0076635634 -0.044954922 -0.07834664 0.043394666 0.07653162 -0.09510046 0.02674187 0.08275087
0.026971152 0.08416823 -0.0312204 -0.029106107 -0.022128562 0.034357466 0.07622071 -0.027091999
0.08996025 0.02527237 -0.055037145 -0.086826704 0.055936042 0.054945115 0.040260483 -0.083315164
0.10512788 0.005500073 -0.06200988 0.07168916 -0.007431187 0.06523859 0.056328084 -0.04849562
0.03177689 -0.1015076 -0.049246177 -0.058919135 -0.101937294 -0.056510925 -0.08974576 0.07956563
0.037200555 0.023668472 -0.12757406 0.11640167 0.116260566 0.059871238 -0.0039986214 -0.009761891
-0.04331201 0.018751029 -0.07608864 -0.07584832 0.029812204 -0.017639482 -0.0043422254 -0.07968798
0.09077498 -0.08531028 0.0088786725 -0.050987706 -0.09810237 -0.029531065 0.036159497 0.030732676
0.010091601 -0.1149757 0.08885301 0.029522566 -0.014365512 0.013600426 -0.052489173 -0.07564733
0.070310235 -0.08537439 0.10708198 0.040838014 0.09945819 0.011063258 -0.03411397 -0.11869088
0.012415689 -0.048666157 0.0951818 0.045559343 0.015357492 0.06373238 -0.10359813 -0.07837685

_backbone.linear_layers.2.weight f4 [64, 128]
00000000: 2814 a13c d619 b23c 2757 27bd 8e4c c8bd
00000010: 6058 913d cd93 433d 0067 4cbd bc8c c73c
00000020: 8708 f03d 7303 8a3d 36de 9bbb 0c8c 8e3d
00000030: d5e6 efbb 0a77 abbd 1abb c43d 87f7 f83d
00000040: eb7f 63bd 8060 08bb b320 4bbd 8eae f53d
00000050: c1a9 683d ee7c 1d3d 7f27 223d de7a 9f3d
00000060: 4183 cc3d 70b2 80bd 64e4 de3b 1689 4dbd
00000070: 70fb 723d 820e 3d3d 4985 403d 63d2 c23d
00000080: 55ca 2d3d bea0 8a3d cd36 613d 4cee e8bc
00000090: b7ac 0dbc b9d8 9d3d 2ec6 f7bb 3c23 cb3d
000000a0: 4770 613d 145d eebc 7b56 953d 4c66 df3d
000000b0: a239 95bc 7b9f 74bd a0b5 ef3b 839d babd
000000c0: e306 0c3c d605 713d 3a8a 323d 7377 cd3c
000000d0: a217 08bc 1748 95bd b001 6d3d 589f 9cbc
000000e0: e1bb 5ebd 6978 ba3d ee28 313d 727f 91bc
000000f0: 4f73 413d fb1b 143d 833c c73d 8ecc 753c
00000100: 8ee9 923b edc3 ae3d e478 1dbc 1140 94bd
00000110: 80f8 403d f33b 89bd 54cd 8b3d 7af9 843d
00000120: 42ba fc3c 9384 873d 6e4e 0cbd 489f 883d
00000130: f201 b33c c86a c9bd 310d 8e3d 0f5b 613d
00000140: d52b 2dbc 3e9b b3bd 32af 8d3d e1a7 bcbc
00000150: 7d12 d4bc 0869 953d 4274 533b b8b8 5cbc
00000160: 7597 823d fc59 4b3d 9e03 133e d83a 903c
00000170: 3e1e 993c dab7 25bc 2886 3b3c 8554 ab3d
00000180: dbe7 fcbc e5a0 a6bc fa85 59bd 3bb4 573d
00000190: 59c9 253d 7600 54bd 7f90 21bd c869 ea3d
000001a0: a1b9 e93d 45a6 8e3c 2ac8 6e3c 62a5 d3bc
000001b0: c695 a93d d657 59bd 1367 b33d 63ec 0d3d
000001c0: 5d54 d73d 18dd bd3d f864 3e3c bae9 fdbb
000001d0: aa2a 933d 3e2e f43c e187 753d 1af5 843d
000001e0: d518 ef3d aed5 79bd 7e87 34bd 3b22 32bd
000001f0: 2084 92bc 512a fa3c 829b d4bc 4ad5 81bd
00000200: 9604 333d d18a bdbd 1b88 06bd dbf1 623c
00000210: 3923 a9bd a72b be3c 3160 553d 5b1c 1abd
00000220: adc9 0dbd 0595 1cbd 19ae 83bd 9be3 82bd
00000230: 27ed c6bd 03dd 373d f371 1fbd 34dd e9bb
00000240: 40c9 e03b e210 deb8 9c58 593d 38f3 4d3c
00000250: c957 8d3d 77b0 883d f182 8a3d 306c f2bc
00000260: 8d58 9a3d 2d4a 3fbd ab0b b3bb 7ef0 7fbd
00000270: 66cd 23bd 4d59 87bd 1221 8c3d cde1 c8bd
00000280: 8340 1d3d 7af9 09bc 1bb5 7d3d b44c 8b3d
00000290: 8f12 4d3d 10e9 dabc c9f1 8bbd 38d5 503d
000002a0: 52df 8bbd b4db bbbd 96f5 4b3d f071 613c
000002b0: d69b 4abd 094a 813d 8575 6cbd e13b b2bd
000002c0: 8a9b 83bd 48d3 583c f531 92bd cf5e 5fbd
000002d0: 5e40 f1bc c805 903b 40fd 01bd 3f47 223c
000002e0: 3e25 003d 7d90 98bd 5dbd cbbd 4c6b bebd
000002f0: 5704 493d 89bc 81bd 639a d13c 29ce b5bd
00000300: 9b4f 2cbb 8841 16bc b462 22bd b55e 7b3d
00000310: 0c21 143d d44a d8bb c263 8dbd 9457 7f3b
00000320: a1a7 83bd cc7e a63c 341b 99bd 8797 acbd
00000330: 3a58 1a3d 10d5 9b3c bdd4 333d 9d74 7ebd
00000340: 96ff 92bd 7035 493c ddd6 9abd 3fc3 053d
00000350: 231e 813d 3732 483d 17b8 893d 76ed eb3b
00000360: fb6d 2f3c 1e5f 333d 0308 a5bd 253d 9abd
00000370: c8ae 993b 9790 77bd b719 67bd ee07 c33c
00000380: 6111 2b3c 2cdc 09bd 75f1 8cbd a804 26bd
00000390: 02e5 97bd 47aa c4bc 82c7 3ebd 5bc6 ea3a
000003a0: 1ae1 c4bb c95d 873d f44d 9dbd f6bf 68bd
000003b0: d837 9cbd 6721 65bd c0da 2cbd 5d46 bcbb
000003c0: 9c82 063d d011 da3c 6ca7 933d bf78 813d
000003d0: 90ba 96bc 9ffa 8ebd 456a 5dbd 9e14 d2bc
000003e0: ec69 643d dcbb 953d 2063 183d 87fb 2cbc
000003f0: 9481 2fbc a1f4 88bd 8415 6d3d 67e3 183d
0.019662932 0.021740835 -0.0408546 -0.09780227 0.07096934 0.047748376 -0.049902916 0.0243591
0.117203765 0.06738939 -0.004756714 0.069603056 -0.0073212185 -0.08372314 0.09605999 0.12156587
-0.055541914 -0.0020809472 -0.04959173 0.11996184 0.056802515 0.03844922 0.039588448 0.07787107
0.09985972 -0.06284034 0.0068021286 -0.050179563 0.05932182 0.046156414 0.04700211 0.09512784
0.042429287 0.067689404 0.054983903 -0.028433941 -0.008647135 0.07707352 -0.0075614667 0.0991883
0.055038717 -0.029097117 0.072918855 0.109081835 -0.018215958 -0.059722405 0.0073153526 -0.09112074
0.008546564 0.058843456 0.043588854 0.025081372 -0.008306416 -0.07289141 0.057862937 -0.01911895
-0.054378394 0.09104998 0.043251924 -0.017760966 0.047229107 0.036159497 0.097283386 0.015002383
0.0044834083 0.085334636 -0.009611342 -0.07238782 0.047111988 -0.067008875 0.068262726 0.064928964
0.030850533 0.066170834 -0.034254484 0.066710055 0.021851514 -0.0983482 0.0693611 0.05501848
-0.010569532 -0.087698445 0.069181815 -0.02302927 -0.025887722 0.07295424 0.003226534 -0.013471775
0.063765444 0.049646363 0.14356849 0.017606184 0.018691178 -0.010114634 0.01144556 0.0836573
-0.030872276 -0.020340392 -0.053106286 0.052662116 0.040475223 -0.051758252 -0.039444443 0.114459574
0.11412359 0.017413268 0.01457409 -0.025835697 0.0828052 -0.053062283 0.08759894 0.034649264
0.10514138 0.09270686 0.0116207525 -0.0077488096 0.07185872 0.029807206 0.059944037 0.06492062
0.11674658 -0.060994796 -0.044074528 -0.043489676 -0.017885268 0.030537756 -0.025953058 -0.0633951
0.043705545 -0.09254993 -0.032844644 0.013851608 -0.08258671 0.023214174 0.05209369 -0.037624698
-0.03461616 -0.038228054 -0.06429691 -0.063910685 -0.09713202 0.044888508 -0.03892703 -0.007136965
0.0068599284 -0.000105889296 0.05306302 0.012570195 0.06901509 0.06674283 0.06763256 -0.029592603
0.07536421 -0.0467016 -0.0054640374 -0.06248521 -0.039990805 -0.0660883 0.06842245 -0.09808693
0.0383916 -0.008421296 0.061940294 0.06801739 0.050066527 -0.026722461 -0.06833226 0.05098459
-0.06829704 -0.091727644 0.049794756 0.013760075 -0.049465023 0.06312949 -0.057729263 -0.08702827
-0.06426151 0.013233967 -0.07138435 -0.054533776 -0.029449638 0.0043952204 -0.03173566 0.009904682
0.031285517 -0.07449434 -0.099482276 -0.09297809 0.049076404 -0.06334788 0.025586313 -0.088772126
-0.0026292566 -0.009170897 -0.039644912 0.061369617 0.03616433 -0.006600717 -0.06903793 0.0038962113
-0.06428457 0.020324133 -0.07475892 -0.08427339 0.037681796 0.019022495 0.043904055 -0.06212293
-0.071776554 0.012280807 -0.07560513 0.032656904 0.06304576 0.048876014 0.067245655 0.0071999384
0.010707374 0.043791883 -0.08058169 -0.07531194 0.004690025 -0.060440626 -0.056421008 0.023807492
0.010441155 -0.033657238 -0.06881992 -0.040531784 -0.07416727 -0.024006976 -0.046576984 0.0017911898
-0.0060082795 0.06609685 -0.07680884 -0.056823693 -0.07627839 -0.055940058 -0.042200804 -0.0057456926
0.032839403 0.026619822 0.072096676 0.063218586 -0.018399507 -0.06981396 -0.054056425 -0.025644597
0.055765077 0.07311222 0.037203908 -0.010558016 -0.010712046 -0.06687284 0.057881847 0.037326243

_backbone.linear_layers.2.bias f4 [64]
00000000: b09c 7d3d fcc1 7c3a 32c1 0b3d eaed aa3d
00000010: c195 413d 6622 85bc 4227 f43c 4b51 913d
00000020: 116c 3d3d bbb4 a33d fb62 873b 094d 993d
00000030: 8f84 8b3d 4921 8abb 3b77 29bd 01a2 b83c
00000040: a638 a13d 5d7e 91bd 0c3f 7e3d 3b1d 463d
00000050: fd0d 99bb c151 aa3d c707 463c a965 b7bd
00000060: 393e c4bd b641 f93c d19d 2f3d 7a8f 8cbb
00000070: e9cb a8bb 854a e33c 5977 39bd f04f 953c
00000080: 0903 6d3d 1e2b 4b3d 7623 223d b2e6 933d
00000090: 649b 7e3d 3187 bdbd a6ed 073d 36ab 3abd
000000a0: 4a6a ccbd f847 1cbd 8aba 193c 40ee 5d3d
000000b0: ebfc 463d bb68 a7bc de2e 063d a826 acbc
000000c0: df50 79bd 263b 80bd 4d49 9dbd df32 f4bc
000000d0: a091 f23b e2ac 813d 5876 44bd f302 b93b
000000e0: a0a3 95bd eb67 83bd 1f5e d13c d884 ac3d
000000f0: 7f96 903d 91fe 4d3d 7b82 e13b e679 52bd
0.061917007 0.0009641943 0.034119792 0.0834616 0.047261957 -0.016251754 0.029803876 0.070955835
0.04624564 0.07993456 0.0041316724 0.074853964 0.06812393 -0.0042153937 -0.041373473 0.022538187
0.07872133 -0.0710418 0.062071845 0.04836772 -0.004670857 0.083163746 0.012086815 -0.08954937
-0.095821805 0.030426841 0.042875115 -0.0042895647 -0.005151261 0.027745495 -0.045279834 0.018226594
0.057864223 0.049601667 0.0395846 0.07221736 0.06215991 -0.09254301 0.033185624 -0.045573436
-0.099812105 -0.038154572 0.009382853 0.05418229 0.048581045 -0.020435682 0.03275954 -0.021014526
-0.06086814 -0.06261282 -0.07679997 -0.029809413 0.0074026138 0.06331803 -0.047964424 0.0056461035
-0.073065996 -0.06416305 0.025557576 0.084237754 0.07059955 0.0502916 0.0068820096 -0.051385783

_backbone.linear_layers.4.weight f4 [32, 64]
00000000: ef47 e93c 1250 d53c 5f5d 903c fc73 5f3d
00000010: 5cd2 d5bd d756 b63d 80c5 dcbd 4eaa ea3c
00000020: 343f 5d3e 215f 07bd 5801 53bd a7e2 abbc
00000030: 11c8 8bbd 9466 7b3c dbdd ccbd 1cc1 5dbd
00000040: d650 babd 7dbe ddbd faaa 02be 7653 1b3e
00000050: ba7e 5dbd 7213 3e3d 4b59 c5bd 1a09 3a3d
00000060: 9644 1dbd 255b dbbd 10ed a63d 3863 94bd
00000070: e117 c53d 790b d3bd 61c3 bc3d 31f4 743d
00000080: 17b5 21be 2891 ca3d 089f ba3c 94b4 5e3d
00000090: 0fca 9d3d 0fd9 9ebd cb93 c83d bdc6 edbd
000000a0: d329 56bd 21aa 64bd d278 973d ea1c a7bd
000000b0: f073 be3d d976 7cbd 87e1 de3c 048b dbbc
000000c0: 9d33 d6bd 07d8 8d3d 7c79 3b3e 98ce f5bd
000000d0: 357d 383d 5157 743d c8db 36bd 87e5 94bd
000000e0: 0bb8 31bd 6e23 af3d f8f0 a2bd d640 bdbd
000000f0: a721 ef3c 6fb0 a0bd 9ae5 e93c 0695 263d
00000100: 060b 6e3d 311c acbd d16f 693d a5ef d0bd
00000110: 5aa4 8bbc 4814 60bd e336 883d 860b bdbc
00000120: 3f50 99bd d77a b1bd 2054 01bc c2a0 d23d
00000130: d0b5 f0bd da01 4cbc f757 833d 671d 973c
00000140: 4442 27bc 487b 61bd 14da 9f3a 2f2a 07bd
00000150: c11d 37bd a266 eebd 137c f0bc 789c 5dbd
00000160: aa2a b3bd ee6f 0b3d 9c06 80bc bd1c b2bd
00000170: efe5 bdbd effa b7bc 9c73 213d 50a8 8ebd
00000180: 8df8 8b3d 67f6 b43d 4ee0 ce3c f9d8 abbd
00000190: 3206 9b3d 026f ae3d 5a9a 56bc b2c3 c83d
000001a0: c838 52bd 6f5b 98bd 6a6e c03d 0d9d bcbd
000001b0: ddb2 1b3d 71d1 a53d 3807 0abe 5d50 e83c
000001c0: 1f6f da3c a9cb db3c 36d0 6b3d 1945 ac3c
000001d0: bca5 393d b8d5 51bd 142e f3bd 58ba 5abd
000001e0: 14a3 09be ccb0 9cbd d6a8 403d 1a01 b2bd
000001f0: b3f5 a4bd fd17 bfbd 3686 19bc c0c6 bebc
00000200: d05e ca3d c3c3 d1bc cd28 0bbd d934 123e
00000210: 5c5a 123e 7412 153e b10b e4bd 7b7b ed3d
00000220: d089 bdbd 0e35 023e fb9c 963d ff60 e73d
00000230: 4a06 72bd f745 773e 447e d3bd 86cd 893c
00000240: 2c0a 143e 548b b6bd 4bef 62bd 144e e1bd
00000250: a94d fc3d 6940 69ba 1e77 8dbd 503a b1bc
00000260: e690 2a3e 387a ddba 81cc a7bd 697a 003e
00000270: 4e46 953d 7ea3 4abc 43db 85bd 766a f93c
00000280: 3f2f f13c 8667 223e 3437 e3bb 6959 063e
00000290: b0fb 91bd fd6b cc3d d1ea 9c3d d2a5 113c
000002a0: dc39 943d 2475 0d3e e28a 97bd ea86 90bd
000002b0: f62e b3bd 6ce6 9cbd ff2c 103e c3e4 1a3d
000002c0: aad2 65bd 1d68 aabc 7a58 ac3d 369d 28bd
000002d0: 8993 84bc 8ee8 cebd 856b 2d3e c86e 6cbd
000002e0: c95b 3bbc 7fdd c23d 145c 853d 0f51 13bc
000002f0: 0fc5 a7bd 60c7 8c3d 1546 9fbd 57fd 2a3d
00000300: 2e4b dcbc 03ba 3fbd 3f66 92bd 0c80 613d
00000310: a030 f0bc 4b40 b2bc bc98 433c 83c0 a13d
00000320: a5fa b33d 134e 6d3d 40a7 01be ff8f 4abd
00000330: cf44 d4bd 0860 2bbd 3840 ac3d efe1 d73d
00000340: b7f2 05be 32b4 a03c afc5 f4bd 7626 073d
00000350: 4791 95bd 0938 22be a7ce 05be c4cc 4fbd
00000360: a77f 05be 2580 babd 9130 ce3d 3c67 933d
00000370: b34b 9a3d aa08 b3bd a95f a6bb b201 e43a
00000380: 4ec4 07be c5fd 03be e4e3 423d f963 1bbd
00000390: a027 1bbc e1d1 93bd c128 853d 0ea6 a7bd
000003a0: 243c a7bd 119a 25bd bf49 dc3d 1107 5f3c
000003b0: 6dde ecbc e7da babd f485 a2bd 8e63 533d
000003c0: d7d8 f0bd 4613 00bd 6e5d 63bd d05f c7bc
000003d0: 03e9 ecbd 29dc dc3d 71b0 84bd a800 9c3d
000003e0: 7ebb e7bd 90f3 0a3c 0a48 cb3d b11c a7bd
000003f0: 4eec 2b3c cafe 3abd 4478 febd e1ad 303d
0.028476683 0.026039157 0.017622648 0.05455397 -0.104405135 0.08903282 -0.10779858 0.02864566
0.21606141 -0.033049706 -0.051514953 -0.0209821 -0.06825269 0.015344281 -0.10003253 -0.05413924
-0.090974495 -0.108273484 -0.12760535 0.15168557 -0.054075934 0.046405263 -0.09636172 0.045418836
-0.038395487 -0.10710744 0.08150685 -0.07245487 0.09623695 -0.103049226 0.09216953 0.05980319
-0.15791737 0.098909676 0.02278091 0.05437143 0.07704555 -0.077562444 0.09793814 -0.11610172
-0.05228598 -0.05582631 0.073960915 -0.08159812 0.09299457 -0.06163678 0.02720715 -0.026799686
-0.10459063 0.069259696 0.18308061 -0.12002295 0.04504128 0.059653584 -0.044643193 -0.07270341
-0.043388408 0.085516796 -0.079561174 -0.09240882 0.029190851 -0.07846152 0.028551865 0.040669464
0.05811598 -0.084038146 0.056991402 -0.102019586 -0.017046142 -0.05470684 0.06651094 -0.023076784
-0.07486009 -0.08666008 -0.007893592 0.10284568 -0.11753428 -0.012451613 0.06413262 0.018446637
-0.01020867 -0.05504921 0.001219573 -0.032999214 -0.04470611 -0.116406694 -0.029356038 -0.0541043
-0.08748372 0.03404229 -0.015628152 -0.08696888 -0.09272372 -0.022458522 0.039416894 -0.06965697
0.06834517 0.0883606 0.025253441 -0.083909936 0.07569541 0.08517267 -0.013098324 0.09802951
-0.051323682 -0.074393146 0.0939606 -0.092096426 0.038012374 0.080965884 -0.13479316 0.028358633
0.026664315 0.026830511 0.057571612 0.021029042 0.045324072 -0.05122921 -0.11874023 -0.053400367
-0.13441116 -0.07650909 0.047036014 -0.08691616 -0.08054676 -0.09330747 -0.009370377 -0.02328813
0.09881365 -0.025606042 -0.033974458 0.14277972 0.14292282 0.1455782 -0.111350425 0.11595818
-0.09254801 0.12715551 0.073541604 0.112977974 -0.05908803 0.24147783 -0.10326818 0.016821634
0.14457005 -0.089132935 -0.05540399 -0.1100122 0.123195 -0.00088978425 -0.069074854 -0.02163425
0.16656837 -0.0016897386 -0.08193303 0.12546696 0.072888 -0.012368081 -0.065359615 0.030446272
0.029441474 0.15859804 -0.006934071 0.13120045 -0.07128084 0.09981535 0.07661975 0.008889632
0.07237598 0.13814217 -0.07399537 -0.07056983 -0.087491915 -0.07661137 0.14079665 0.03781582
-0.056109108 -0.020801598 0.08415313 -0.041165553 -0.016183631 -0.1010295 0.16935547 -0.057722837
-0.0114354575 0.09514903 0.06511703 -0.008991494 -0.08191883 0.06873965 -0.07777039 0.04174551
-0.026891317 -0.046808254 -0.07148408 0.055053756 -0.029320061 -0.021759173 0.01193827 0.07898047
0.08788041 0.057935786 -0.12661457 -0.04945373 -0.10364687 -0.04183963 0.08410686 0.1054114
-0.1308087 0.019617174 -0.11951768 0.032995664 -0.073031 -0.15841688 -0.13067113 -0.05073239
-0.13036977 -0.09106473 0.10067857 0.07197425 0.0753397 -0.08741887 -0.0050773215 0.0017395525
-0.13258478 -0.12889774 0.047580615 -0.03793714 -0.009469897 -0.072177656 0.06501914 -0.08185969
-0.08165768 -0.040430132 0.107562535 0.013612525 -0.028914655 -0.091237836 -0.07935706 0.051608615
-0.11760109 -0.03126838 -0.055509023 -0.02433768 -0.11567881 0.1078418 -0.06478966 0.07617313
-0.11315058 0.008480921 0.0992585 -0.08159769 0.010493351 -0.045653142 -0.124252826 0.043134574

_backbone.linear_layers.4.bias f4 [32]
00000000: 976d 023d b996 143d 3034 b53d e526 0cbe
00000010: 34a5 913c 14ac 673c 0009 56bc dbe9 f93c
00000020: 6b39 8cbd a62b f6bd c81d 853d 8240 f13c
00000030: ec7a 673d b757 6c3c 673b cabd 9f46 a73c
00000040: 9787 553d f317 3fbd a9e4 cb3d c844 e0bd
00000050: 0c6d 2c3d 3031 6abd 8bc7 32bc 4e82 8c3c
00000060: 8199 a53d 0f56 16bd af9b 213d 3c6b b4bd
00000070: 1020 b73d 49f2 54bd 9649 be3c 2873 153d
0.031842794 0.036276553 0.088478446 -0.13686712 0.01777897 0.014140148 -0.013063669 0.030507019
-0.06846889 -0.12020044 0.06499821 0.029449705 0.05651371 0.01442521 -0.09874611 0.020419417
0.05213126 -0.0466537 0.09955723 -0.10950619 0.042096183 -0.057175815 -0.010911833 0.017151978
0.08085919 -0.036703166 0.039455112 -0.08809516 0.08941662 -0.051988874 0.023228448 0.036486775

_embedding_layer.cat_embedding_layers.0.weight f4 [8, 4]
00000000: d18f 0dc0 e66a afbf 8a66 803e 6a0f 0940
00000010: c03e ac3f d5ea 563f 5f8b 6cbf 1132 40be
00000020: 6b1c b1be e15a c6be de4c 9d3f bdaf ecbe
00000030: 9790 79bd 1f5d 23bf 561d 8a3f d2c7 173f
00000040: 52d5 3d3e fe6f 713f d353 d3be bbc6 31bf
00000050: 6866 38be 2208 9fbf 1184 da3f d653 1ebf
00000060: 0903 d13e 1624 2d3e fdba 83bd 08a6 c23f
00000070: 7347 df3f d78b 9c3f b5d2 1f3f 7132 773f
-2.2119029 -1.3704498 0.2507823 2.1415658 1.345665 0.83952075 -0.92400163 -0.18769099
-0.34591994 -0.3874121 1.2289083 -0.46227828 -0.060928907 -0.63813967 1.0790203 0.59289277
0.18538406 0.9431151 -0.4127489 -0.69443864 -0.18007815 -1.2424357 1.7071553 -0.61846673
0.40822628 0.16908297 -0.064321496 1.5206919 1.744368 1.2230176 0.6243089 0.9656134

_embedding_layer.cat_embedding_layers.1.weight f4 [8, 4]
00000000: cd87 e8be 851d 373f bc94 3dbf 52b5 7dbd
00000010: 0798 8fbe 0280 cebe 3b2a bfbe 7946 633f
00000020: c8f3 013e 17af e03f 75ac c4bf 46b0 2d3f
00000030: 8d5e 163f 5399 203f 982a 85bf d1c0 13be
00000040: bf15 b7bd ba9d 0e3f 26a2 f6bd bfb9 ed3e
00000050: b795 98bf eb9d 213f 41d5 b33f 09a1 963e
00000060: 209c 69bf d268 0e3f bfec 92bf a0ee b43f
00000070: f94d 65bf c241 b5be a6d3 813e e0f7 dabe
-0.45416108 0.7152942 -0.74055076 -0.0619405 -0.28045675 -0.40332037 -0.37336907 0.8877941
0.12690651 1.7553433 -1.536513 0.67847097 0.58738023 0.62733954 -1.0403624 -0.14429022
-0.089396946 0.5570942 -0.12042646 0.46430776 -1.1920689 0.6313159 1.4049455 0.29419735
-0.9125385 0.55628693 -1.1478499 1.4135323 -0.895721 -0.35401732 0.25356787 -0.4276724

_embedding_layer.cat_embedding_layers.2.weight f4 [3, 2]
00000000: 4678 443f 3b4a ce3e 12f8 483f b8bc d5bf
00000010: 95c1 833f 381a 003f
0.7674602 0.40291008 0.78503525 -1.6698217 1.0293452 0.50040007

_embedding_layer.cat_embedding_layers.3.weight f4 [4, 2]
00000000: e499 713f 16ee 3c3f 4968 833f 184f 55bf
00000010: ade1 89bf 6a43 f8bd d6fa 2b3d d29f 50bf
0.94375443 0.7380079 1.02662 -0.8332381 -1.0771996 -0.12122233 0.041987263 -0.81493866

_embedding_layer.cat_embedding_layers.4.weight f4 [5, 3]
00000000: 4801 1a3f 6a8c 413f 9731 84be 2efb 8b3e
00000010: d620 a03c e13c e4be c408 41be b787 1dbf
00000020: 9c55 243f d6cb e7be 2da8 b13e 7362 83be
00000030: 1268 cebf 9f32 703f 6645 0040
0.60158205 0.7560488 -0.25819084 0.27340072 0.019546907 -0.44577697 -0.18851 -0.6153521
0.6419313 -0.45272702 0.3469862 -0.25661048 -1.612551 0.9382724 2.0042357

_embedding_layer.cat_embedding_layers.5.weight f4 [6, 3]
00000000: 823f 4dbf 8241 b63e 1a40 1e3e 8908 a3bf
00000010: 432b a1bf c8f2 793e f7c2 313e 615c 27bf
00000020: ff49 9d3f fdd0 31be e360 f2bf 359d 823d
00000030: f4ad f03f 86a1 98bf f5a9 683f 42d7 4b3f
00000040: 79ae 27bf 4212 2a3f
-0.8017503 0.35596853 0.1545414 -1.273698 -1.2591327 0.2440902 0.1735953 -0.65375334
1.2288207 -0.17364879 -1.8935817 0.06377641 1.8803086 -1.1924293 0.90884334 0.7962533
-0.655006 0.6643411

_embedding_layer.cat_embedding_layers.6.weight f4 [8, 4]
00000000: f835 543f 967b 4dbe 4c86 a43e 8f36 d8bf
00000010: 0ac3 443f db0c 5bbe e66c 223f fd38 5c3e
00000020: 37bf debe a1f3 f5be 068b 1abd 3c59 293e
00000030: 5487 663f 4ff0 1f3f 8f08 763f 9a08 f6bd
00000040: db78 bd3e 9adc 23bf 3082 28be 3330 563f
00000050: f14a 483f 9655 0a3f 27f7 9abf 938b 693e
00000060: 1507 8d3f 3124 943f 633f 65bf 47c0 1540
00000070: 0c2e 0bbd 3efe 513f 0de3 5dbe d521 23be
0.8289485 -0.20066676 0.3213371 -1.689165 0.76860106 -0.21391623 0.63447416 0.21506114
-0.4350526 -0.48037437 -0.03773024 0.16537946 0.90050244 0.62476057 0.9610681 -0.12013359
0.37006268 -0.64008486 -0.16455913 0.83667296 0.7823935 0.54036844 -1.2106675 0.2280715
1.1017786 1.1573545 -0.89549845 2.3398607 -0.03397946 0.8202857 -0.21668644 -0.15930875

_embedding_layer.cat_embedding_layers.7.weight f4 [10, 5]
00000000: 66b4 573f b90f edbf eeb7 613f 0d33 463f
00000010: b500 953f 099f 83bf 09d6 64be 5361 573f
00000020: 7f80 803e 9b7d d83f 2de7 7dbf 3abb 17bf
00000030: 7bbb d83f a1eb a5be f7dc 4b3f ac13 8cbf
00000040: de74 5c3f 97c3 55be 405a 553f 686b 60be
00000050: 0a03 87be daf6 5c3c 70ac 453f 3c90 943d
00000060: d6e6 963e bf3b 97be 2152 113f d7fa bd3e
00000070: da71 603d 9c51 05bc 8da0 a83f e4d8 25bf
00000080: 7d3b aabe 978f f9be ed6c 0dbf a300 ea3f
00000090: d2b3 89be 0adb 5abf 98dd 403f 4771 903f
000000a0: eede c03e b6a1 1c3d 3525 5e3e 6abc d13f
000000b0: 2b90 9f3f 29a7 80bf 4c22 1bbe 635f ac3e
000000c0: aab4 953f dcb6 163f
0.8425964 -1.8520423 0.8817128 0.7742165 1.1640841 -1.0282909 -0.22347273 0.8413288
0.25098035 1.6913332 -0.9918087 -0.5927006 1.6932214 -0.32406333 0.7963404 -1.0943503
0.86115825 -0.20875393 0.83340836 -0.21915972 -0.26369506 0.013486588 0.77216244 0.07254073
0.2947299 -0.2953777 0.56765944 0.37105438 0.054796077 -0.008137133 1.3173996 -0.64784074
-0.3324851 -0.48742363 -0.5524433 1.8281444 -0.26895005 -0.8549048 0.75338125 1.128457
0.37670082 0.038240157 0.21693881 1.6385624 1.2465872 -1.0051013 -0.15149802 0.33666524
1.1695759 0.5887277

_embedding_layer.normalizing_batch_norm.bn.weight f4 [57]
00000000: 0574 713f 6d88 7b3f 167b 853f 0892 733f
00000010: 2d1b 7b3f cb46 783f 1f73 773f cad4 793f
00000020: 92ce 783f 27fc 753f 1e0b 773f 52d1 793f
00000030: b489 7c3f 78c8 783f ed51 763f b40f 803f
00000040: 7a6b 793f 8ea9 713f 05c5 773f 7534 713f
00000050: ef8e 7b3f 5ac9 7b3f 6702 793f d230 7d3f
00000060: 17b4 713f 95e0 763f d4bf 763f c4d5 713f
00000070: 063b 763f 4f40 883f 4ecc 7d3f f163 7a3f
00000080: 1712 983f a5d8 8a3f 0b7f 903f 0bd0 7e3f
00000090: 1c94 823f 1fb8 763f c3a9 7c3f 77a4 7d3f
000000a0: ac8c 833f f376 6d3f 938d 763f 9b0c 7f3f
000000b0: df48 833f 88b9 773f 9fe8 773f a060 763f
000000c0: 81ca 743f c6b4 793f fd3d 893f e31e 743f
000000d0: 724d 7b3f ea57 743f 519f 823f f466 833f
000000e0: 9e63 823f
0.94317657 0.98255044 1.0428188 0.951447 0.9808834 0.9698302 0.96660036 0.97590315
0.971902 0.9608788 0.9650134 0.9758502 0.9864762 0.9718089 0.9621876 1.0004792
0.9742962 0.94399345 0.96785 0.9422067 0.98264974 0.98354113 0.9726929 0.9890262
0.9441542 0.96436435 0.96386456 0.94466805 0.9618381 1.0644625 0.9913987 0.9780875
1.188052 1.0847365 1.128877 0.995362 1.0201449 0.96374696 0.98696536 0.9907908
1.0277305 0.9275963 0.96309775 0.9962861 1.0256613 0.96767473 0.96839327 0.9624119
0.95621496 0.97541463 1.0722042 0.9535963 0.9816505 0.95446646 1.020487 1.0265794
1.0186651

_embedding_layer.normalizing_batch_norm.bn.bias f4 [57]
00000000: fb0e bcbc 2cff f9bc ebe4 813c 5a00 f63b
00000010: f5e6 d6bc 1a19 833c c67a 88bb 7d14 e9bb
00000020: e4e0 083c 3697 123c 62a3 3d3c 02b6 083b
00000030: ed80 0a3d 0585 62bc 88c6 f63c 927f 74bc
00000040: 7eb7 553d 3362 8c3c 437e 9d3c fc58 363d
00000050: 04db 45ba d03d 60ba 3d73 1a3d 1cf9 4bbc
00000060: b6a8 c43c d50f 3b3d 0818 3d3c a9f1 9b3c
00000070: 2e95 ea3c e2c3 203c ac7a 8cbc 5397 1a3c
00000080: 0257 4e3c 997a 8e3d dba6 b73c ee01 29bb
00000090: 1695 8a3c dcbb 453c 2e88 b9ba 9b1f 533b
000000a0: db7a 263b e7fb 1d3c e785 ac3c 3bb5 e43b
000000b0: 2a15 13bd ee6b aa3b 7d31 c63c 9654 673c
000000c0: 73aa 963c debd 433c 266b ac3c bf51 abbb
000000d0: bc5d b139 f11a 413c 8802 71bc 9780 bfbb
000000e0: 2633 ec3a
-0.022956362 -0.030517183 0.015856227 0.007507366 -0.026233176 0.01600318 -0.0041650264 -0.007113038
0.008354399 0.008947184 0.011574598 0.0020860438 0.03381436 -0.01382566 0.030123964 -0.014922993
0.052176945 0.017136669 0.019225245 0.044518456 -0.00075475895 -0.00085541327 0.037707556 -0.012449529
0.024006229 0.045669395 0.011541374 0.019036131 0.028635588 0.009812327 -0.017148338 0.009435493
0.0125939865 0.069569774 0.02241843 -0.0025788504 0.016916793 0.012068715 -0.0014154965 0.0032214883
0.0025402817 0.009642578 0.021059943 0.006979612 -0.035908855 0.0052008545 0.02419352 0.014119288
0.018391823 0.011947123 0.021047186 -0.0052282508 0.00033829908 0.0117862085 -0.014710076 -0.0058441865
0.0018020615

_embedding_layer.normalizing_batch_norm.bn.running_mean f4 [57]
00000000: 349e bcb9 4c96 28bd 7d0f 5b3d 82c2 8f3c
00000010: 5bf2 933c a161 053d 7ca2 953c f7c4 d03c
00000020: 5921 873c 253c 0d3d 2d36 633c d63e 393d
00000030: 2996 773d 9430 eb3c 81e8 273d d013 b23b
00000040: 41ef 4e3d 81c5 bbb9 c3ee dab9 465a 8a3b
00000050: 14cb 7b3d d60f 5a3d a329 2c3d c6ac 8b3d
00000060: e711 873d 22d0 313c deb5 883d bf33 773d
00000070: 78df 3c3c 6083 f63c d314 9e3d b4fa a13d
00000080: fcab 97bb 48a8 6f3d 2bff 8d3d 8e55 a13d
00000090: ce4c 843d c3b7 233c 9ea2 dd3c 7ac3 743c
000000a0: 7577 bb3c 5a8c 033d 5659 493d 87f8 3f3d
000000b0: 7865 2bbd 72ba 813c 6a04 d63b 740a 543c
000000c0: c781 473c 2484 533c 5fd4 543c 0aa7 ec3b
000000d0: 505a 6dbd ac6f cb3c c383 b53b b17e 003d
000000e0: 583d 5dbd
-0.00035976025 -0.04115896 0.053481568 0.017548803 0.0180599 0.03256381 0.018265955 0.025484545
0.016495394 0.034481186 0.013867897 0.04522594 0.06044594 0.028709687 0.040993217 0.0054344907
0.05052114 -0.0003581457 -0.00041758092 0.004222187 0.061472967 0.05323776 0.042031895 0.06820063
0.065952115 0.010852845 0.066753134 0.060352083 0.0115278885 0.030091941 0.07718816 0.07909146
-0.0046286564 0.058510095 0.06933435 0.078776464 0.06459962 0.009992543 0.027055081 0.014939183
0.02288411 0.03211627 0.049157463 0.046867874 -0.041844815 0.015835974 0.006531288 0.012941945
0.012176937 0.012909923 0.012990086 0.007222061 -0.057947457 0.024833523 0.005539389 0.031370822
-0.05401358

_embedding_layer.normalizing_batch_norm.bn.running_var f4 [57]
00000000: ed25 6c3e c6f6 c73e 7bd1 c83e 95e4 993d
00000010: 160f a53d ec12 133e 4d4a 9f3d f6f6 183e
00000020: 0f9e 993d b266 213e b5e1 6d3d 8b6d cf3e
00000030: 4826 a93e e600 e33e 6b77 9f3e 49d6 5b3a
00000040: b119 783e 1b68 413c ac66 0e3c 42d8 633c
00000050: ee61 363f 076f 403f 0377 6b3e 49e9 dd3e
00000060: eec1 d83e af5d a33d 441b bc3e 3f74 b63e
00000070: dd52 823d f8ae 5b3f c3a8 343f 86bc 323f
00000080: 4821 383f b61c 1b3f 6c7c 163f e86d e63e
00000090: 697a d13e 3722 413d 4702 5b3f 8ee9 943d
000000a0: c85a 5f3f 39f7 563f 9679 7f3e 0da4 ab3e
000000b0: c575 b73e cd5f 803d 0185 223d 8fd8 683d
000000c0: c540 693d 5e17 013d 6d0d 3a3f 085d b13c
000000d0: bafd 3d3f 1e19 e03d d216 683d 618d 2e3e
000000e0: d8b6 8f3e
0.23061343 0.3905546 0.3922232 0.07514302 0.08059518 0.14362687 0.077778436 0.14937958
0.075008504 0.15761831 0.05807658 0.40513262 0.3303702 0.44336623 0.31145796 0.0008386118
0.2422855 0.011804606 0.008691471 0.01390654 0.7124318 0.75169414 0.22994618 0.43342045
0.42335457 0.07976853 0.36739552 0.35635564 0.06363461 0.85813856 0.7057001 0.69818914
0.71925783 0.60590684 0.587836 0.45005727 0.40913704 0.04715177 0.8555035 0.072711095
0.87247896 0.8397098 0.24948725 0.33523598 0.3583204 0.062682725 0.039677624 0.05684715
0.056946535 0.031516425 0.72676736 0.021650806 0.7421528 0.10942291 0.05666239 0.1704612
0.28069186

head.layers.0.weight f4 [2, 32]
00000000: dbe4 e3bd 50ee d8bc 6e19 963d c304 14be
00000010: 472b aa3c 8e40 d037 b7c3 453e a6ad 8ebd
00000020: 72cb c43d 2311 f3bd ecf4 38be b8d6 2dbd
00000030: d141 9a3d d6e3 293e 58db 073e 9cbf cbbd
00000040: 575c 3cbd 2817 d1bc 761c 2c3e fa67 ecbd
00000050: e68b 103e b9af 493e ed73 f13c 33a9 e23c
00000060: 9011 e4bd 6ad1 c73d da94 9e3a 930e 813e
00000070: 8c1a 093d b0a4 a13d 1f17 673d fca5 7cbc
00000080: b3a5 823b 4bae 023e ba4b d2bd ae05 b23d
00000090: 53df fabd a250 863e a9d0 b83d 8369 34bd
000000a0: 5876 1dbe 8fb2 283e 7eb4 58bd bc6f 223e
000000b0: 8091 f63d c704 43bd 37f5 f6bc 5ccd d2bc
000000c0: e274 603e 4b7b 223e 6dac 203e e0dc 1ebe
000000d0: f760 bc3c d300 56bc a9ad 013e 23a5 05be
000000e0: c637 22bd 2e3c f03a f4dd 36be 086c aebd
000000f0: 10a4 debd 8f77 c1bc e252 863d f619 63be
-0.11127635 -0.026480824 0.07329069 -0.14454941 0.02077259 2.4825593e-05 0.1931294 -0.069667146
0.096091166 -0.11868503 -0.1806218 -0.0424411 0.07532085 0.16590819 0.13267267 -0.09948656
-0.0459865 -0.025523737 0.16807732 -0.115432695 0.14115867 0.19695939 0.029474223 0.027668571
-0.11136162 0.097567394 0.0012098805 0.25206432 0.033472583 0.0789274 0.056418534 -0.015420433
0.003987038 0.127618 -0.1026835 0.086924896 -0.12249627 0.26233393 0.09024174 -0.044045936
-0.15377176 0.16474365 -0.052906506 0.15862936 0.12039471 -0.047611978 -0.030146224 -0.025732689
0.21919587 0.15867345 0.15690775 -0.15513945 0.022995455 -0.01306172 0.12663902 -0.13051276
-0.03960397 0.0018328482 -0.17858106 -0.08516699 -0.10871136 -0.02361658 0.065587774 -0.22177872

head.layers.0.bias f4 [2]
00000000: 4f77 1a3e 1ed3 dd3b
0.15084575 0.006769552

exp_avg f4 [128, 84]
00000000: 4701 8c38 ca40 eeb6 6a42 9739 8463 83b7
00000010: be05 b5b8 ea12 5bb8 4aed 19b6 8fe1 97b8
00000020: 915f e337 e736 68b8 019a d237 d994 28b9
00000030: 093b bd39 a8b2 9db8 db82 cc38 c2bc d6b5
00000040: 906a 17b9 eb9e 92b4 a280 2fb8 d19e 1135
00000050: 5232 0ab9 4d3e 8a38 99ec 22b7 5b63 a538
00000060: 7e90 a838 5f37 3e36 c7e9 2639 823a 2939
00000070: 3e3a 2fb6 773a 8038 330d 7d38 0f12 2c38
00000080: b664 32b9 b2c1 acb8 05f1 0739 6b75 7638
00000090: d7e1 6bb8 6950 2739 92e5 8538 48b5 1bb7
000000a0: fa62 d838 a2bd b938 c170 01b6 8d19 92b7
000000b0: d753 3234 5a5d 6cb8 7031 bcb8 a93c 12b9
000000c0: f813 eeb7 c7e0 bcb6 3613 2f38 7299 87b7
000000d0: 2912 76b8 3a29 09b8 98bf 37b7 5521 82b7
000000e0: becb fb36 49f3 db38 055b 0838 ca6d bd38
000000f0: 4920 4f38 f251 09b8 cb91 4e39 d0d9 4bb9
00000100: 9c00 3639 e340 ce38 89a1 1cb7 023d 0739
00000110: 561a c9b8 cdc3 0538 c1fb cd36 2a2b 60b8
00000120: d98e 06b9 25c6 10b9 1be1 ee37 3a4b ae38
00000130: 37c7 94b7 a729 9f38 c574 f337 fd68 80b8
00000140: 627a ecb6 73ab 8b38 eaad df37 b1b9 e638
00000150: 5315 4038 11a0 88b8 66db 1238 180d 5ab7
00000160: bdd1 5bb8 0965 63b8 e59f 0e39 f145 c6b8
00000170: d4e9 0a39 f220 8ab8 92ff 2239 5925 adb8
00000180: 10af ec38 f074 24b9 d401 0a39 cc3d feb4
00000190: 7734 a6b7 9d9e d5b7 a11f 28b8 65ac dcb6
000001a0: 9a38 05b7 c3af 5036 ef5c 1739 a7dd 9238
000001b0: 81f3 bf38 2f4c edb8 c0c5 2e39 d2a3 4439
000001c0: a202 b1b8 ec29 8bb8 5a6a bfb8 fdec b9b8
000001d0: a4ce feb8 3c73 15b9 3b14 b9b7 19e8 dab7
000001e0: dfc6 5d38 b139 a036 a42b d3b8 0f37 da36
000001f0: 5351 8eb8 ea44 8db8 969e 0c38 b48a dc38
00000200: 0000 5ab9 241b 1ab8 1ad3 13b8 ed24 e1b8
00000210: acc8 fcb7 0360 9235 e8c8 cbb8 3b3c 8ab6
00000220: 3048 81b8 356a afb7 47b4 d2b5 403f e536
00000230: e6ca 1ab9 5600 ed37 8dee 3038 b6b3 78b8
00000240: a26d 1fb8 492a b637 8884 f336 a217 a6b8
00000250: eae8 1938 ac27 afb6 141d 30b9 5e11 04b8
00000260: 6a03 1fb7 f2af 6db7 9254 d2b7 c089 1a38
00000270: 930d aeb6 4f90 a3b7 a86c 3737 3502 2538
00000280: 0939 7838 2119 f437 71d0 5537 0523 74b8
00000290: 9e59 b437 ea5e 26b7 e14c da37 4777 89b6
000002a0: 9688 82b8 7b7a 9038 a8a5 12b9 3b5a 3d38
000002b0: e227 b6b7 db53 ac37 fde6 14b3 fc50 da37
000002c0: 5215 57b7 4f22 ff37 ab91 cdb7 d46b 1339
000002d0: 08eb 1a39 6d29 07b9 664f 5938 2162 48b6
000002e0: 0f8d 79b8 532e b8b7 e8ac 96b7 99fb 0237
000002f0: 3ba1 d838 8ec5 0b39 64a7 3e38 5f45 9b38
00000300: 53d3 af38 feb3 a3b7 799e 9438 5558 b138
00000310: d20e 34b8 22a6 9838 cd7c 49b7 caf0 8ab7
00000320: 4c91 0739 26aa 0b38 f149 08b9 28d8 8cb8
00000330: 20a8 9c35 6107 e338 4461 1439 bb3b c735
00000340: b8fb c938 a432 3739 0f5b 44b9 e42e 6937
00000350: bfa1 f2b7 37de ebb8 8377 05b9 dce3 80b7
00000360: 734a 5a38 a20a 9bb6 fe75 7638 c4d1 42b7
00000370: ae2b 17b9 7954 9637 fe55 b3b7 2412 2eb8
00000380: 922f 9337 54fd ba38 ddd4 29b8 2b28 3a39
00000390: 4719 cd38 1716 b237 61bd 1c39 70cd 33b9
000003a0: 493e 8338 1c11 4939 833b 2b38 1b60 7b39
000003b0: 1c70 3ab9 037f 8a38 39a7 b837 cfe6 f5b8
000003c0: ae8a 82b9 1c2e 88b9 09c8 0838 a593 2839
000003d0: 1a99 57b8 44ce 4d39 7c62 da37 a088 07b9
000003e0: f5e0 9cb7 00b3 3139 3ac1 0e37 75c9 3639
000003f0: 7a6e 2f39 de17 47b9 1ff8 9339 54c5 87b7
6.675958e-05 -7.100495e-06 0.00028850447 -1.5662758e-05 -8.631822e-05 -5.2231284e-05 -2.2936897e-06 -7.242255e-05
2.710501e-05 -5.5364242e-05 2.5105664e-05 -0.00016077179 0.00036092874 -7.519621e-05 9.751852e-05 -1.5999178e-06
-0.0001444018 -2.7310247e-07 -4.184305e-05 5.424782e-07 -0.00013179451 6.591957e-05 -9.71104e-06 7.8863195e-05
8.037778e-05 2.8344436e-06 0.00015918082 0.00016138892 -2.6110934e-06 6.1144056e-05 6.0332193e-05 4.1024814e-05
-0.0001701292 -8.237678e-05 0.0001296439 5.8760324e-05 -5.6238696e-05 0.00015956316 6.384695e-05 -9.280928e-06
0.000103181184 8.856809e-05 -1.928813e-06 -1.7416454e-05 1.6608043e-07 -5.6353725e-05 -8.973747e-05 -0.00013946243
-2.838111e-05 -5.629004e-06 4.1741143e-05 -1.6164708e-05 -5.8667883e-05 -3.270174e-05 -1.0952259e-05 -1.5512729e-05
7.5041016e-06 0.00010488049 3.2509695e-05 9.032672e-05 4.9382714e-05 -3.2739663e-05 0.00019700003 -0.0001944073
0.000173571 9.8349316e-05 -9.335935e-06 0.0001289733 -9.589332e-05 3.1892025e-05 6.138784e-06 -5.344596e-05
-0.00012832451 -0.00013806725 2.8476634e-05 8.3109786e-05 -1.7735741e-05 7.589469e-05 2.9022232e-05 -6.123071e-05
-7.0475953e-06 6.6599714e-05 2.6664657e-05 0.00011001842 4.5796227e-05 -6.5148e-05 3.5013443e-05 -1.2996861e-05
-5.2409003e-05 -5.4215114e-05 0.0001360174 -9.454403e-05 0.00013247813 -6.586489e-05 0.00015544731 -8.2562394e-05
0.00011285965 -0.00015683821 0.00013161387 -4.735615e-07 -1.9813173e-05 -2.5465439e-05 -4.0083778e-05 -6.5765803e-06
-7.940596e-06 3.1096722e-06 0.00014435103 7.0031085e-05 9.152946e-05 -0.00011315231 0.000166676 0.00018753044
-8.440508e-05 -6.635845e-05 -9.127399e-05 -8.86563e-05 -0.000121501536 -0.00014252675 -2.206314e-05 -2.6095704e-05
5.287572e-05 4.7750877e-06 -0.00010069393 6.503316e-06 -6.7862355e-05 -6.73624e-05 3.3526296e-05 0.00010516253
-0.000207901 -3.6741738e-05 -3.5244135e-05 -0.00010735714 -3.0134186e-05 1.0905791e-06 -9.717216e-05 -4.1197322e-06
-6.164645e-05 -2.0911082e-05 -1.5698687e-06 6.832095e-06 -0.0001476217 2.8252758e-05 4.2183838e-05 -5.9295176e-05
-3.8010658e-05 2.1715781e-05 7.257393e-06 -7.919899e-05 3.669496e-05 -5.220025e-06 -0.000167955 -3.1487427e-05
-9.477933e-06 -1.4167266e-05 -2.5073332e-05 3.684475e-05 -5.1871843e-06 -1.9498313e-05 1.09329485e-05 3.934112e-05
5.9180926e-05 2.9098768e-05 1.2744321e-05 -5.8206748e-05 2.1499403e-05 -9.91647e-06 2.6023425e-05 -4.096804e-06
-6.224324e-05 6.889269e-05 -0.00013985357 4.5145145e-05 -2.1714663e-05 2.0543046e-05 -3.4669018e-08 2.6025336e-05
-1.2819963e-05 3.0414345e-05 -2.4505736e-05 0.00014059182 0.0001477414 -0.00012890036 5.1810777e-05 -2.985944e-06
-5.9497597e-05 -2.195608e-05 -1.796191e-05 7.8071835e-06 0.00010329714 0.00013329668 4.5455425e-05 7.403897e-05
8.3840125e-05 -1.951493e-05 7.086708e-05 8.456471e-05 -4.2929147e-05 7.2788695e-05 -1.2009591e-05 -1.6563008e-05
0.0001292873 3.3298646e-05 -0.00012997516 -6.7159825e-05 1.1671837e-06 0.00010825578 0.00014150614 1.4844039e-06
9.631313e-05 0.00017471105 -0.00018725939 1.38988e-05 -2.8923967e-05 -0.00011247064 -0.0001272839 -1.5364894e-05
5.2044586e-05 -4.620598e-06 5.876086e-05 -1.1612141e-05 -0.00014416754 1.7920729e-05 -2.1378506e-05 -4.1501728e-05
1.7545917e-05 8.916357e-05 -4.0490984e-05 0.00017753306 9.77987e-05 2.122954e-05 0.00014947868 -0.00017147302
6.258168e-05 0.00019175227 4.0825e-05 0.00023973027 -0.00017780106 6.6040106e-05 2.2012378e-05 -0.00011725502
-0.00024898857 -0.00025974296 3.2611224e-05 0.0001607673 -5.140258e-05 0.00019627163 2.6033485e-05 -0.000129255
-1.8701403e-05 0.00016946718 8.508849e-06 0.00017431921 0.00016730456 -0.0001898701 0.0002822289 -1.6185142e-05

exp_avg_sq f4 [128, 84]
00000000: c266 2d33 896d 4c33 2b35 f632 4d85 9832
00000010: 7434 7c31 7fbc 1833 49ec 9b32 3a4d 1c33
00000020: 6a9a 1632 fa46 1133 a72f 2332 e077 2232
00000030: 53cb f132 eba6 6732 e906 8432 b72e 322d
00000040: 64f6 8732 c087 8d31 60ee 1533 d777 0333
00000050: 234d d532 118d b032 19d5 1632 ba38 c332
00000060: 83d5 c132 e858 1632 29de cc32 b653 ce32
00000070: 5cf0 1f32 8386 fb32 695c 8232 51ab 6b32
00000080: 6c38 6c32 5b60 6032 2ef2 7a32 c747 0332
00000090: 6fa2 a033 f571 8232 5911 dc32 d499 972f
000000a0: 5d0f fb32 ee5c af32 bd38 4a31 4cf5 9333
000000b0: ad3a 8c33 ccd7 b932 8cc9 2333 26cc ba31
000000c0: f183 b132 befe a82e 702a e532 bcfd 4932
000000d0: 4c16 bc32 d187 d030 849e a22f c02a fc30
000000e0: 03d3 cf31 7a20 7f32 6543 5e32 b29c e132
000000f0: 4a18 5c32 8dbb de31 e878 fa32 d992 f332
00000100: c4bd ee31 26b8 d132 0ad5 2d33 5270 c632
00000110: e26b 9332 afd7 0d31 a2e9 1430 364a c331
00000120: 61ae 2133 3dbc 4433 24b8 9f31 733f 9a32
00000130: 0006 0a31 76ca 5c32 68d7 6f31 9ae3 ba32
00000140: 6626 7d31 963f 3433 0c40 7c30 e018 fd32
00000150: f78d c532 2f33 8c33 d513 3733 1716 9833
00000160: af5f 0333 c0d5 6132 ca4c 7f33 c421 e732
00000170: c3c6 eb32 9d47 c632 7eed 3433 b85c a032
00000180: fd57 e132 193e 1d33 9fe8 1d33 6239 ef2d
00000190: 9e80 6d32 ebde 5032 1845 a732 66fa 9332
000001a0: 3142 1233 478c c732 0cbc 8833 0930 0c33
000001b0: f037 cd32 2410 f833 a207 2533 172a f332
000001c0: 7a8e 0734 74f6 8133 1585 e332 258f cc32
000001d0: 95ab e633 fdb0 1e33 c612 d332 5727 7932
000001e0: 8b43 9833 5e90 ae32 341f 4033 f8bb 9a31
000001f0: 82aa 6d33 4197 2233 4997 5e32 8c14 9d33
00000200: 6f6c de33 1674 5733 9e0c 1e33 6f65 3533
00000210: 3b0e a033 0a23 662f 33e0 f833 21a2 962f
00000220: e112 0033 fe5a c332 4676 7431 df53 8132
00000230: 5a07 6b33 6afa fa32 267a ba32 a929 4433
00000240: a386 c332 ab0e e732 557b 8533 17e5 a633
00000250: 6bf2 8a32 6c10 8333 04a4 8d33 ec17 4a33
00000260: f75f 3533 df74 6331 979b 1031 6448 1c32
00000270: 05dd c033 0ea1 e633 808f 1832 1417 2933
00000280: f4fc a031 d643 c332 30cf 4632 d5a7 3c33
00000290: 3652 b231 7336 8533 8e08 9131 2f5c 5033
000002a0: 0aab 5532 1f3c 8232 08e0 d232 e768 3d31
000002b0: 5f49 1831 99bc 5532 4ea6 d631 7a09 5632
000002c0: 5edd 0c31 6395 5332 6ed7 6830 ad10 1d32
000002d0: b4a7 0c32 0374 1f32 5a1d 3432 2d17 ae2d
000002e0: f4d2 1332 e106 7431 dfc7 0431 343e 6a30
000002f0: 9ce9 2432 f16f 2632 b148 3632 d08b 3632
00000300: 6419 1c32 107d a132 c87c 7232 98c2 3732
00000310: 1792 c532 7508 d832 aa62 2c32 6514 3032
00000320: fd9b c232 ecc7 4232 257f 8732 7748 b931
00000330: 2b60 a332 7269 ac31 adc0 8a32 dca1 0e30
00000340: 72c0 a632 e38c 9432 7196 6d32 e073 8d32
00000350: f578 9332 fec1 8532 4b02 2132 ed1e 4531
00000360: 580f 7f31 add0 0832 45dd 3233 7885 4e31
00000370: 03c0 2a32 8b0c e631 84d7 db2f 36ef fe31
00000380: 6a5c 3332 9532 9f32 9467 2432 c202 5d32
00000390: 1e81 0532 0771 d231 3560 0433 b348 1d33
000003a0: ccf8 cc31 a6b0 1633 4fb0 6632 adb0 0233
000003b0: deab cb32 e8db 0031 b870 2c30 47d4 ae31
000003c0: f88c 5833 2d7c 8033 7d6f 8131 32ee b832
000003d0: 97ab df30 748c 5632 b6ab be31 394d c332
000003e0: 08c0 f730 c556 1033 d10d 8630 16e3 2433
000003f0: b65a e732 5b5d a932 3c33 0233 e9c9 ba30
4.037316e-08 4.7597073e-08 2.8662347e-08 1.7755747e-08 3.6700643e-09 3.5561694e-08 1.8151825e-08 3.6391818e-08
8.766259e-09 3.3824996e-08 9.498684e-09 9.4568975e-09 2.8148554e-08 1.3483922e-08 1.5369965e-08 1.0128501e-11
1.5828114e-08 4.119073e-09 3.4908567e-08 3.0609808e-08 2.4831541e-08 2.0553246e-08 8.779602e-09 2.2726784e-08
2.2565251e-08 8.751364e-09 2.3849752e-08 2.4019624e-08 9.3096695e-09 2.9281415e-08 1.5176015e-08 1.3717753e-08
1.3749837e-08 1.3060425e-08 1.46069805e-08 7.641524e-09 7.480127e-08 1.5185813e-08 2.561926e-08 2.7576041e-10
2.9227232e-08 2.041494e-08 2.942712e-09 6.88984e-08 6.529931e-08 2.1634968e-08 3.81347e-08 5.4365215e-09
2.0665512e-08 7.685007e-11 2.6678407e-08 1.1757432e-08 2.189622e-08 1.5172593e-09 2.958026e-10 1.8347563e-09
6.048482e-09 1.4850338e-08 1.29374245e-08 2.6264704e-08 1.2811208e-08 6.4823724e-09 2.9158812e-08 2.8355702e-08
6.9482855e-09 2.4414543e-08 4.047346e-08 2.3101311e-08 1.7162112e-08 2.0640802e-09 5.41741e-10 5.6836837e-09
3.764433e-08 4.5806008e-08 4.6484434e-09 1.7956813e-08 2.0085054e-09 1.285172e-08 3.4901522e-09 2.1756751e-08
3.6838173e-09 4.1967347e-08 9.176808e-10 2.9464388e-08 2.2998377e-08 6.528568e-08 4.2626045e-08 7.08207e-08
3.0587838e-08 1.3145325e-08 5.9441653e-08 2.6907294e-08 2.7447987e-08 2.30828e-08 4.2125514e-08 1.8668615e-08
2.623346e-08 3.661089e-08 3.676598e-08 2.7196637e-11 1.382446e-08 1.2157879e-08 1.9472779e-08 1.722692e-08
3.4053475e-08 2.323044e-08 6.367199e-08 3.2639978e-08 2.3890578e-08 1.1551336e-07 3.8423998e-08 2.8308063e-08
1.2624687e-07 6.05186e-08 2.6486797e-08 2.381382e-08 1.074142e-07 3.694821e-08 2.457217e-08 1.4502652e-08
7.0903376e-08 2.0321917e-08 4.4731863e-08 4.5033595e-09 5.533594e-08 3.785613e-08 1.2956499e-08 7.31462e-08
1.03574045e-07 5.0164168e-08 3.6798717e-08 4.22346e-08 7.453169e-08 2.0930827e-10 1.15891815e-07 2.740004e-10
2.9819493e-08 2.2742366e-08 3.5573904e-09 1.5055717e-08 5.4721887e-08 2.9217706e-08 2.1708797e-08 4.5672696e-08
2.2762213e-08 2.689861e-08 6.215729e-08 7.7716486e-08 1.6175553e-08 6.10315e-08 6.5956584e-08 4.7053547e-08
4.2229626e-08 3.309928e-09 2.10432e-09 9.096855e-09 8.9809e-08 1.0739505e-07 8.880193e-09 3.9369368e-08
4.6853703e-09 2.2731836e-08 1.1572226e-08 4.3924803e-08 5.189828e-09 6.2031994e-08 4.221028e-09 4.8512614e-08
1.24371216e-08 1.5161332e-08 2.4549095e-08 2.756275e-09 2.2160618e-09 1.2441114e-08 6.2471264e-09 1.2458594e-08
2.0498514e-09 1.2315783e-08 8.470725e-10 9.142394e-09 8.187204e-09 9.281396e-09 1.0484053e-08 1.9791802e-11
8.604491e-09 3.5510583e-09 1.9322142e-09 8.52171e-10 9.599173e-09 9.687924e-09 1.0610322e-08 1.0625584e-08
9.086168e-09 1.8799739e-08 1.4114626e-08 1.0696247e-08 2.3000252e-08 2.5149555e-08 1.0034151e-08 1.02491855e-08
2.2655508e-08 1.1337743e-08 1.5773887e-08 5.392447e-09 1.901943e-08 5.0178466e-09 1.6152933e-08 5.1889315e-10
1.9412457e-08 1.7293535e-08 1.3829422e-08 1.6467254e-08 1.7168057e-08 1.5571455e-08 9.371955e-09 2.8684852e-09
3.7116106e-09 7.963689e-09 4.1645098e-08 3.0052814e-09 9.938961e-09 6.695307e-09 3.9989e-10 7.419568e-09
1.0440184e-08 1.8533038e-08 9.569607e-09 1.286452e-08 7.770977e-09 6.124654e-09 3.0821145e-08 3.662053e-08
5.9654663e-09 3.5085257e-08 1.342785e-08 3.042867e-08 2.3710466e-08 1.8751454e-09 6.273342e-10 5.0881996e-09
5.041963e-08 5.983052e-08 3.767069e-09 2.1528738e-08 1.6274154e-09 1.2488375e-08 5.549249e-09 2.2736105e-08
1.8026194e-09 3.360653e-08 9.75371e-10 3.839076e-08 2.693319e-08 1.9716643e-08 3.031458e-08 1.3590667e-09
