Eunho/pytorch_stacking/saved_models/classification-22_epoch=12-valid_loss=0.49.ckpt (torch, 858814 bytes, 138 tensors)

_backbone.add_cls.weight f4 [32]
0.3192204 0.019927207 -0.15102373 0.09829433 -0.19014193 0.18984903 0.07434102 0.19474238
0.03929862 0.09332354 0.056581654 -0.008355216 0.08656208 0.057816945 -0.118251964 -0.15166315
0.16247302 0.17454855 0.21111944 -0.0664773 0.09038451 -0.10024936 0.01421777 0.26847455
0.08958181 -0.20911047 -0.16246986 -0.09402163 -0.10497343 0.24824585 0.00806497 -0.19706373
00000000: db70 a33e 623e a33c f7a5 1abe 8a4e c93d
00000010: 91b4 42be c967 423e 1b40 983d 8c6a 473e
00000020: 97f7 203d 6a20 bf3d 2ac2 673d 51e4 08bc
00000030: 7647 b13d 76d1 6c3d 162e f2bd 964d 1bbe
00000040: 545f 263e dbbc 323e b22f 583e 4025 88bd
00000050: 841b b93d 894f cdbd a6f1 683c 7f75 893e
00000060: ab76 b73d 0e21 56be 805e 26be 6a8e c0bd
00000070: 4ffc d6bd 2934 7e3e f022 043c 13cb 49be

_backbone.transformer_blocks.mha_block_0.mha.to_qkv.weight f4 [384, 32]
0.070845135 -0.20742755 -0.0056126663 0.04816273 -0.04132485 0.026516585 -0.13766019 -0.06132414
-0.064903446 -0.15880832 -0.07146885 0.14606912 -0.16122696 0.15471806 0.19654578 0.13193008
0.08097732 0.0019274905 0.17215866 -0.04461118 0.036808673 0.1287517 0.18566208 0.13625123
0.0012358159 0.03697837 0.014867415 0.103999466 0.048238695 -0.1152087 -0.07825309 0.11300108
0.16360234 0.050573 -0.15118188 -0.08954573 -0.17033194 0.07333351 -0.12401384 -0.073477395
0.036836267 -0.11828433 -0.14651668 -0.14190733 0.031532895 0.13484974 -0.05095697 -0.0014832916
0.07723804 -0.17433 0.02880482 -0.06919768 0.11892164 0.08241232 0.12009486 0.02494257
-0.040901303 0.07321963 -0.12762396 -0.06681556 0.07022783 -0.054602418 0.20812185 -0.050700348
-0.08113857 -0.16877353 -0.08368639 0.06583003 0.07880665 -0.06614486 0.120208174 0.011544138
-0.027630482 -0.06273363 0.033132922 -0.10806315 -0.038346294 0.13280122 -0.08413847 0.09243142
-0.091649495 0.13053535 -0.08911307 0.14147069 -0.15239514 -0.048042186 -0.12753949 -0.118293345
-0.019946102 0.005140391 0.12463975 0.025672544 0.14890383 0.0726144 -0.07706494 -0.16804378
0.06291034 -0.22530475 0.020907613 -0.13921352 0.035340372 0.018877452 -0.15150027 0.089378394
0.07281527 0.08057418 0.19090763 0.19801469 0.13646978 -0.06727932 0.13818851 -0.056025594
-0.123989746 -0.061942533 0.17913105 0.08209347 0.09474313 0.0020333268 -0.13250753 0.17035337
-0.07872669 0.10536811 -0.08108876 -0.12645586 -0.15670659 0.014194472 -0.18633474 -0.07123813
-0.16272311 -0.11107971 0.01222304 -0.155058 0.14132424 0.049629454 -0.15001367 -0.07769793
-0.007373291 0.018492755 -0.2179229 -0.14350744 -0.035720933 -0.12715116 0.11219499 0.12280339
0.096549906 -0.08934857 0.036420036 0.035058543 -0.17360578 -0.1151491 -0.15562111 -0.13130401
0.064988986 0.20937088 0.013071565 -0.13819982 0.21830429 0.052687347 0.026780775 0.19134696
0.11850652 -0.04887041 -0.06363278 -0.0046391976 -0.09669769 -0.13598084 0.1663293 0.03689069
0.1118793 -0.09850379 0.22490153 -0.030067759 -0.1551429 -0.047860477 0.12216892 0.18808988
0.086831056 -0.101645745 -0.06481232 -0.03987079 -0.09169832 0.11313613 0.028036254 0.037259586
0.1267171 0.07733876 0.026797809 0.0012513873 -0.010265353 0.06657916 -0.0401444 0.044289727
-0.14097609 0.120578855 0.022177372 -0.0802754 -0.09382295 -0.05759059 -0.059828326 -0.059297737
-0.11407837 -0.17338492 0.091810204 -0.031111982 0.08444605 -0.04420589 -0.026021315 0.12814523
0.08706162 -0.14226769 -0.16970672 -0.09826388 0.15378891 -0.033716705 0.028898071 0.00092004694
0.0485617 -0.11357357 -0.096864544 -0.10392408 0.032447 -0.08309081 -0.1931024 -0.03102898
0.10172487 -0.074905984 -0.19017933 0.015752519 -0.018082216 0.17377137 0.138303 0.09577009
0.1538205 0.08301176 0.17830801 -0.019145738 -0.06564545 0.16262838 -0.025181286 -0.06854318
-0.03666014 -0.09375697 0.18643226 -0.09485034 -0.06770671 -0.038391706 0.19727677 -0.0736301
-0.006936842 0.016143389 -0.18595636 0.1282863 -0.19720046 0.12994567 -0.18084076 -0.17485975
00000000: 4117 913d e367 54be 75ea b7bb 4846 453d
00000010: 3f44 29bd 4f39 d93c cbf6 0cbe 052f 7bbd
00000020: 19ec 84bd a69e 22be 435e 92bd 2593 153e
00000030: ae18 25be 696e 1e3e 4c43 493e ae18 073e
00000040: 70d7 a53d d9a3 fc3a 5c4a 303e 36ba 36bd
00000050: b1c4 163d 7cd7 033e 331e 3e3e 7185 0b3e
00000060: 1afb a13a a276 173d 7596 733c acfd d43d
00000070: f095 453d 8af2 ebbd 2843 a0bd 1c6d e73d
00000080: 5f87 273e a225 4f3d 6ccf 1abe c063 b7bd
00000090: 7f6b 2ebe e12f 963d f8fa fdbd 517b 96bd
000000a0: a0e1 163d 0e3f f2bd 7808 16be 2850 11be
000000b0: a328 013d 0d16 0a3e 41b8 50bd 026b c2ba
000000c0: fa2e 9e3d 9083 32be 16f8 eb3c 83b7 8dbd
000000d0: 308d f33d cac7 a83d 4bf4 f53d 5c54 cc3c
000000e0: 2088 27bd 2cf4 953d dbaf 02be 99d6 88bd
000000f0: 9cd3 8f3d c9a6 5fbd e51d 553e 2bab 4fbd
00000100: fb2b a6bd f8d2 2cbe c563 abbd e5d1 863d
00000110: 6265 a13d f576 87bd b42f f63d a023 3d3c
00000120: 5259 e2bc 7d7a 80bd 63b6 073d 3650 ddbd
00000130: 0111 1dbd 0bfd 073e ca50 acbd af4c bd3d
00000140: bbb2 bbbd 0fab 053e ea80 b6bd b1dd 103e
00000150: 790d 1cbe e2c7 44bd b699 02be c843 f2bd
00000160: 0266 a3bc ba70 a83b 2043 ff3d 3a4f d23c
00000170: 3f7a 183e dcb6 943d 39d4 9dbd ab13 2cbe
00000180: 23d7 803d 4ab6 66be 7146 ab3c fd8d 0ebe
00000190: 11c1 103d e3a4 9a3c e322 1bbe 050c b73d
000001a0: 2c20 953d 1304 a53d 4a7d 433e 5dc4 4a3e
000001b0: bcbe 0b3e bdc9 89bd 4a81 0d3e 187b 65bd
000001c0: 56ee fdbd 74b7 7dbd 216e 373e 9f20 a83d
000001d0: b008 c23d 9041 053b 0eb0 07be 1d71 2e3e
000001e0: 753b a1bd 3ccb d73d dd11 a6bd a57d 01be
000001f0: b177 20be ee8f 683c 89ce 3ebe 4ce5 91bd
00000200: e3a0 26be c27d e3bd 2543 483c 86c7 1ebe
00000210: 4db7 103e 4148 4b3d 2f9d 19be 1820 9fbd
00000220: a69b f1bb 1e7e 973c 2e27 5fbe 9df3 12be
00000230: 1d50 12bd ea33 02be 7dc6 e53d 5880 fb3d
00000240: f5bb c53d 62fc b6bd 2d2d 153d 8c99 0f3d
00000250: b7c5 31be 4bd3 ebbd 245b 1fbe 8f74 06be
00000260: f218 853d 5265 563e 1e2a 563c 4184 0dbe
00000270: 298b 5f3e b0ce 573d 5b63 db3c 75f0 433e
00000280: 8cb3 f23d 572c 48bd e751 82bd 6904 98bb
00000290: 7009 c6bd 903e 0bbe 3a52 2a3e b11a 173d
000002a0: f920 e53d 5bbc c9bd 964c 663e a950 f6bc
000002b0: c8dd 1ebe 5909 44bd b333 fa3d a29a 403e
000002c0: 7bd4 b13d a52b d0bd 52bc 84bd 8e4f 23bd
000002d0: 54cc bbbd eab3 e73d 49ac e53c 829d 183d
000002e0: 21c2 013e c963 9e3d 1487 db3c 9705 a43a
000002f0: 0330 28bc a85a 883d 746e 24bd 2569 353d
00000300: 095c 10be 0cf2 f63d 52ad b53c 6e67 a4bd
00000310: 3f26 c0bd 1ce4 6bbd 8c0e 75bd 2fe2 72bd
00000320: eca1 e9bd d18b 31be fd06 bc3d 8ede febc
00000330: 0df2 ac3d 3c11 35bd a72a d5bc 8138 033e
00000340: 5d4d b23d 9fae 11be 99c7 2dbe 933e c9bd
00000350: d77a 1d3e 871a 0abd a6bb ec3c 4e2f 713a
00000360: a2e8 463d 4399 e8bd eb60 c6bd 26d6 d4bd
00000370: 25e7 043d 842b aabd a3bc 45be 7d30 febc
00000380: 2155 d03d 4f68 99bd 5fbe 42be 6d0b 813c
00000390: 2821 94bc 1ff1 313e 4d9f 0d3e 1c23 c43d
000003a0: 1f83 1d3e 1202 aa3d 6096 363e 86d7 9cbc
000003b0: 1f71 86bd 0e88 263e fc48 cebc 5e60 8cbd
000003c0: f128 16bd a703 c0bd 19e8 3e3e e540 c2bd
000003d0: d1a9 8abd 9f40 1dbd ec02 4a3e 61cb 96bd
000003e0: 734e e3bb 243f 843c 586b 3ebe 7c5d 033e
000003f0: ebee 49be 7a10 053e 522e 39be 6f0e 33be

_backbone.transformer_blocks.mha_block_0.mha.to_out.weight f4 [32, 128]
0.011853647 -0.066299945 0.0066375807 -0.026464267 -0.0831518 -0.07359567 0.08387829 0.042876992
-0.04894806 0.012811615 0.07662889 -0.08908095 -0.021882435 0.014823893 0.039346308 0.01939006
0.065462194 0.04040131 0.06829243 -0.020289253 0.08069016 0.006964356 0.013671013 -0.09362789
0.017109457 0.087648645 -0.012250351 -0.010693792 0.0135268485 0.009878169 0.041256372 0.06533277
-0.053886063 0.011075175 0.09288543 0.034055855 -0.041691292 -0.07690724 -0.011076613 -0.052082535
-0.08564916 -0.01143131 0.1033488 -0.06966304 0.04690987 -0.007433658 0.030287491 0.006913305
-0.073505364 -0.059630804 -0.0077630733 0.038950942 -0.053529162 0.0633706 0.034959465 0.044339996
0.05601042 0.09230813 0.028609123 0.09854146 0.04736013 0.04138686 -0.061387062 0.07630155
-0.019231355 -0.048916318 0.017177632 0.040456373 -0.030652007 -0.026045172 0.08810603 0.031957574
0.06582999 0.10982613 -0.05410269 -0.07734503 0.036445435 0.07701949 -0.0028495486 0.014820292
0.086899005 -0.06198211 0.021150341 -0.07392587 -0.10926799 -0.041851614 0.031539224 -0.08898767
0.013996109 0.018331038 -0.0645551 -0.045654725 0.048631854 -0.061386406 0.045924626 -0.020806655
-0.029391976 -0.0445955 -0.0036414403 0.0060939514 0.08653879 -0.098095946 0.032372292 0.0215131
0.073140554 0.031674363 -0.05926272 0.06134575 0.016158137 0.016833104 -0.094371594 0.012689289
-0.029027373 0.08039753 -0.011638317 0.05215954 -0.07012225 0.016246509 -0.047412716 -0.022430275
-0.07738953 0.041995008 0.022879146 -0.0133904405 -0.08489312 0.03659453 0.0037403037 -0.089132465
-0.05270156 0.057707656 -0.089384004 0.040997498 0.07074854 0.029583594 0.0048453547 -0.05950854
0.0437993 0.007449912 0.0069853705 -0.020816846 0.037941735 -0.082708605 0.003131106 0.061121225
0.040008806 -0.0739185 -0.060829733 -0.0139076775 0.025172727 0.05168353 0.010283364 -0.013568262
-0.080035456 0.13193795 0.08766701 0.08857378 -0.038587257 -0.112873055 0.06168883 0.05888198
-0.10010431 -0.02462648 -0.10529736 0.026696023 0.03522271 -0.022851244 0.018229237 0.083270594
0.011491426 -0.05121872 -0.15828319 -0.04907166 -0.0034415529 0.039439164 -0.06074203 0.11529684
0.09419832 -0.051908337 0.054546535 -0.034795586 -0.009400286 0.036012247 -0.08673492 0.042958364
0.042454112 -0.09230015 -0.047712382 0.0270159 -0.06709308 -0.04041406 -0.08779699 0.027974779
0.00041067688 -0.030304238 -0.031591676 0.009625352 -0.08224033 -0.10342608 -0.03929362 0.09753694
0.04287585 -0.13071719 -0.05714829 0.008545654 -0.0053367377 0.0044086985 -0.04005393 0.049312472
-0.07165454 0.05381731 -0.015541325 -0.11104725 0.0555178 0.055307053 -0.015090202 -0.0010606779
0.13796628 -0.010063923 -0.0722696 -0.019327123 0.048572857 0.049489185 0.08747383 0.08160129
0.0478597 0.0122974105 0.08366321 0.11976371 -0.10311204 0.04258885 0.051890973 -0.041188776
0.07907975 0.033888523 -0.0917205 0.11475327 0.09024362 0.026792955 -0.019056402 0.01664715
-0.08599499 0.07099826 0.028313832 -0.02287714 0.03375288 -0.0068890336 0.043229192 -0.026424179
-0.0733693 0.005049109 0.1216492 0.07742248 0.007279472 0.08489766 0.1390093 0.18717907
00000000: cd35 423c 44c8 87bd 1080 d93b 97cb d8bc
00000010: 7e4b aabd 54b9 96bd 62c8 ab3d c99f 2f3d
00000020: c37d 48bd cfe7 513c 9cef 9c3d 1370 b6bd
00000030: cb42 b3bc eadf 723c 9829 213d e7d7 9e3c
00000040: 0b11 863d d87b 253d e7dc 8b3d a635 a6bc
00000050: e240 a53d 4135 e43b 62fc 5f3c fbbf bfbd
00000060: 2229 8c3c 2281 b33d b2b5 48bc 0435 2fbc
00000070: b79f 5d3c 0bd8 213c 71fc 283d 30cd 853d
00000080: a2b7 5cbd a774 353c b73a be3d 277e 0b3d
00000090: 7dc4 2abd 8b81 9dbd af7a 35bc 7f54 55bd
000000a0: d468 afbd 644a 3bbc 89a8 d33d 7fab 8ebd
000000b0: 9024 403d 0b96 f3bb 791d f83c 0189 e23b
000000c0: fb89 96bd 6e3f 74bd 6161 febb 068b 1f3d
000000d0: 6541 5bbd 72c8 813d a831 0f3d db9d 353d
000000e0: 2f6b 653d 0b0c bd3d ae5d ea3c 1bd0 c93d
000000f0: b2fc 413d 4585 293d 0071 7bbd fd43 9c3d
00000100: 138b 9dbc 7a5c 48bd 1bb8 8c3c 95b5 253d
00000110: eb19 fbbc af5c d5bc ef70 b43d f2e5 023d
00000120: e0d1 863d 86ec e03d c89a 5dbd 1267 9ebd
00000130: cf47 153d 65bc 9d3d 7ebf 3abb cfd0 723c
00000140: 1bf8 b13d f4e0 7dbd 7b43 ad3c 7266 97bd
00000150: e5c7 dfbd 996c 2bbd 462f 013d 2b3f b6bd
00000160: f04f 653c f92a 963c 7735 84bd 7300 3bbd
00000170: 3232 473d 5070 7bbd 761b 3c3d b872 aabc
00000180: 71c7 f0bc c5a9 36bd 3ba5 6ebb c5af c73b
00000190: 403b b13d 87e6 c8bd cf98 043d 3e3c b03c
000001a0: b7ca 953d fabc 013d 77bd 72bd ae45 7b3d
000001b0: 125e 843c 94e5 893c e545 c1bd bce6 4f3c
000001c0: d0ca edbc 76a7 a43d a4ae 3ebc 3ea5 553d
000001d0: 419c 8fbd 6617 853c d633 42bd b2bf b7bc
000001e0: 677e 9ebd f502 2c3d 0c6d bb3c 9463 5bbc
000001f0: 72dc adbd 25e4 153d e21f 753b 158b b6bd
00000200: 97dd 57bd dd5e 6c3d f60e b7bd feec 273d
00000210: 9ce4 903d 4b59 f23c c8c5 9e3b 3abf 73bd
00000220: e566 333d 641e f43b 89e5 e43b 1788 aabc
00000230: cb68 1b3d 2163 a9bd 3e33 4d3b 405a 7a3d
00000240: 46e0 233d 9562 97bd 9928 79bd 07dd 63bc
00000250: 0937 ce3c 1cb2 533d 8e7b 283c 6a4d 5ebc
00000260: a1e9 a3bd be1a 073e c38a b33d 2c66 b53d
00000270: ac0d 1ebd fd29 e7bd 6dad 7c3d 3b2e 713d
00000280: 7d03 cdbd 79bd c9bc 24a6 d7bd 9eb1 da3c
00000290: b045 103d 8832 bbbc 7b55 953c c689 aa3d
000002a0: 8946 3c3c b8ca 51bd fd14 22be 5dff 48bd
000002b0: ad8b 61bb f68a 213d a3cc 78bd c020 ec3d
000002c0: 0ceb c03d d69d 54bd 306c 5f3d d185 0ebd
000002d0: a803 1abc 9481 133d 14a2 b1bd 1cf5 2f3d
000002e0: 5de4 2d3d dc07 bdbd 0f6e 43bd 7350 dd3c
000002f0: 1968 89bd 3789 25bd e9ce b3bd 5d2b e53c
00000300: 1e50 d739 9840 f8bc 4666 01bd a7b3 1d3c
00000310: 9e6d a8bd 0dd1 d3bd 59f2 20bd 72c1 c73d
00000320: 969e 2f3d bada 05be 5314 6abd 1203 0c3c
00000330: cddf aebb d876 903b 970f 24bd e0fb 493d
00000340: 9ebf 92bd 8a6f 5c3d 0ba1 7ebc be6c e3bd
00000350: a266 633d a689 623d e53c 77bc 7206 8bba
00000360: 0847 0d3e 27e3 24bc 1602 94bd ea53 9ebc
00000370: 55f4 463d 2cb5 4a3d 7b25 b33d 941e a73d
00000380: 8808 443d 147b 493c 9e57 ab3d ad46 f53d
00000390: 682c d3bd a571 2e3d a18b 543d 90b5 28bd
000003a0: 90f4 a13d b1ce 0a3d f5d7 bbbd c303 eb3d
000003b0: a6d1 b83d e67c db3c 2c1c 9cbc 9b5f 883c
000003c0: 241e b0bd 8967 913d 69f2 e73c d768 bbbc
000003d0: 7640 0a3d 67bd e1bb 1811 313d 8577 d8bc
000003e0: a542 96bd ff72 a53b 3723 f93d ad8f 9e3d
000003f0: a388 ee3b d3de ad3d 7458 0e3e dfab 3f3e

_backbone.transformer_blocks.mha_block_0.mha.to_out.bias f4 [32]
0.046959158 0.03747708 0.024109075 -0.0024111255 -0.077093706 0.034328565 -0.0031004641 0.056660265
-0.08155244 0.0041643134 0.050065953 -0.09511273 0.055566173 0.018710794 -0.10861957 -0.06652098
0.048152417 -0.025925217 -0.07505135 0.030274762 0.014080746 -0.035633516 -0.06989335 -0.034564923
0.05730399 -0.08736701 0.002863355 -0.027043868 0.0017507407 -0.037891634 0.030186648 -0.044368815
00000000: 3f58 403d 9181 193d 6580 c53c f903 1ebb
00000010: 4ee3 9dbd 1c9c 0c3d 2831 4bbb 9814 683d
00000020: f704 a7bd cb74 883b f511 4d3d 77ca c2bd
00000030: 5b99 633d 6147 993c f073 debd 273c 88bd
00000040: 783b 453d 1f61 d4bc 86b4 99bd c702 f83c
00000050: eeb2 663c 73f4 11bd 3f24 8fbd f393 0dbd
00000060: 97b7 6a3d 7aed b2bd 20a7 3b3b 1a8b ddbc
00000070: 1c79 e53a 4234 1bbd fd49 f73c 13bc 35bd

_backbone.transformer_blocks.mha_block_0.pos_wise_ff.ffn.layer1.weight f4 [128, 32]
-0.07839388 -0.0017186624 0.08174362 -0.04597498 0.023492506 -0.07514284 0.10375736 0.00094941887
0.03503501 -0.12622543 0.074428454 -0.045520976 -0.11635702 -0.15946749 -0.16284397 0.022240385
-0.14329559 0.124404654 -0.16514145 -0.023418445 -0.13208944 -0.061599415 0.04180153 0.013845598
-0.07755364 -0.098362885 -0.12762332 -0.11312965 -0.05231143 -0.058887873 0.120122 0.1068965
0.042851 0.11929538 0.027014526 -0.17444685 -0.11261394 -0.024243219 0.176084 0.16047487
-0.055924784 0.0982229 0.023653312 0.021582212 0.06545093 -0.07688397 -0.07597373 -0.008951346
0.030292504 0.0593029 -0.12375764 0.14318015 0.09650776 -0.020106226 -0.09568508 -0.13129115
0.0680405 0.2243854 0.14065194 0.10305061 0.09389071 0.11971705 0.13152254 -0.06061962
-0.03593477 0.15445009 0.03332625 -0.029372595 -0.10619892 0.111046314 -0.16417713 0.10794227
-0.13562147 0.017798707 -0.06594783 0.006423091 -0.11961578 -0.025124505 0.06273985 0.101786524
-0.11807502 0.10758331 -0.06452012 -0.017143266 0.11165196 -0.13222983 -0.11077621 -0.08684763
0.119042434 -0.15404509 -0.21093814 0.018979976 -0.08581053 -0.056792673 -0.04629259 -0.15651686
-0.1117814 -0.015375547 -0.0040102033 0.034393918 0.100787364 -0.014758785 0.14994642 -0.12095424
-0.07674269 -0.06769189 0.0062266868 -0.1411 0.02981621 -0.17128573 0.08218529 0.0835911
0.03023281 0.1253565 -0.15946563 0.16350403 0.12999454 0.110736996 0.13492827 -0.11200587
-0.025455197 0.019714605 0.0049419147 -0.03966132 0.12451116 0.060737725 0.104029045 0.07142636
-0.117839284 0.10397136 -0.17430025 -0.025379863 0.14277817 0.03974593 0.1082847 0.10954233
0.0048505706 -0.18795401 0.09893557 -0.07109978 0.10664291 -0.05592029 -0.16025634 -0.122334704
0.022172289 0.016609026 0.059723865 0.05178511 0.17540893 -0.08931363 -0.21162322 0.1676111
-0.09939046 -0.012187673 0.0098543065 -0.029145125 -0.11133535 -0.017062036 0.12248 0.12280005
-0.036268964 -0.00031689153 -0.10712381 -0.17425007 -0.08866621 0.083924 0.021806238 -0.10499403
0.06128734 -0.007560496 0.11783552 -0.06377389 -0.22066575 -0.15282641 0.10237383 -0.19154474
-0.07554734 -0.098584384 0.0016237415 0.058265764 0.071228705 -0.075118236 0.101075575 -0.10681089
0.123554654 0.18462197 -0.14378014 -0.059324436 -0.03932948 -0.16996959 -0.23013571 0.14152905
-0.048550107 0.18732108 0.002266717 0.041670986 -0.06622265 -0.020948628 0.1540441 0.13644753
0.06485115 0.13718928 0.018064624 0.043745834 0.031462606 0.0637902 -0.16940697 -0.051963568
0.0003102073 0.07105903 -0.018547405 0.052689333 0.020073451 0.21501112 0.21809073 -0.16682711
0.0030403184 -0.11793327 0.033448946 0.087501034 -0.06839859 -0.047548477 -0.08809575 -0.0470044
0.07912256 -0.06422168 -0.11962042 -0.19548857 0.08491432 -0.03576889 -0.18812981 0.039572697
-0.09878331 0.07102531 -0.04469416 -0.03660258 -0.10246271 -0.13308917 -0.12896812 0.028607758
0.017949872 0.010887242 -0.13099352 -0.14879096 0.04099494 0.07084593 -0.09857971 -0.07176697
0.08347215 0.019133735 -0.0055591837 -0.05088032 0.023304539 0.049400393 -0.016854303 -0.07481636
00000000: f88c a0bd be44 e1ba 3369 a73d 4350 3cbd
00000010: 5b73 c03c 7de4 99bd bd7e d43d 6ce2 783a
00000020: df80 0f3d 3d41 01be f26d 983d 3474 3abd
00000030: 974c eebd 724b 23be 92c0 26be 7831 b63c
00000040: 14bc 12be dec7 fe3d d71a 29be 0ad8 bfbc
00000050: 7442 07be ab4f 7cbd 1538 2b3d a6d8 623c
00000060: 71d4 9ebd 7b72 c9bd b0af 02be 85b0 e7bd
00000070: 8344 56bd 6934 71bd 8602 f63d 8dec da3d
00000080: 8884 2f3d 2351 f43d 914d dd3c 32a2 32be
00000090: 23a2 e6bd b799 c6bc 5d4f 343e 8653 243e
000000a0: 6311 65bd 1629 c93d 97c4 c13c 2ecd b03c
000000b0: 230b 863d 5875 9dbd 1d98 9bbd aba8 12bc
000000c0: fc27 f83c 99e7 723d a574 fdbd d19d 123e
000000d0: dca5 c53d d0b5 a4bc 8af6 c3bd 3071 06be
000000e0: d158 8b3d 49c5 653e 1007 103e 330c d33d
000000f0: c649 c03d 362e f53d d8ad 063e 474c 78bd
00000100: 5630 13bd 2a28 1e3e 1b81 083d cc9e f0bc
00000110: d27e d9bd 406c e33d 0d1e 28be d610 dd3d
00000120: 5be0 0abe 98ce 913c a80f 87bd cb78 d23b
00000130: 1ef9 f4bd e8d1 cdbc c07d 803d 7475 d03d
00000140: 51d1 f1bd a354 dc3d 2023 84bd 0970 8cbc
00000150: c8a9 e43d 4267 07be a3de e2bd 2cdd b1bd
00000160: 85cc f33d ffbd 1dbe 2b00 58be e57b 9b3c
00000170: 6ebd afbd 6f9f 68bd 4d9d 3dbd f545 20be
00000180: a6ed e4bd b8e9 7bbc 0668 83bb a3e0 0c3d
00000190: 9b69 ce3d d5ce 71bc 8e8b 193e dbb6 f7bd
000001a0: 452b 9dbd 0ca2 8abd 3c09 cc3b 857c 10be
000001b0: 2041 f43c 8765 2fbe c350 a83d d031 ab3d
000001c0: ccaa f73c 745d 003e f54a 23be 9a6d 273e
000001d0: 4a1d 053e 14ca e23d a32a 0a3e 5563 e5bd
000001e0: 6b87 d0bc 8680 a13c c9ef a13b e973 22bd
000001f0: b5ff fe3d 1fc8 783d 2e0d d53d fc47 923d
00000200: b955 f1bd f0ee d43d c47b 32be 6ee9 cfbc
00000210: 7134 123e a1cc 223d 5ec4 dd3d bb57 e03d
00000220: 89f1 9e3b 0477 40be bb9e ca3d c39c 91bd
00000230: 9967 da3d ad0c 65bd 3d1a 24be 9e8a fabd
00000240: a9a2 b53c a70f 883c 03a1 743d a01c 543d
00000250: 669e 333e 10ea b6bd c2b3 58be 3fa2 2b3e
00000260: 3a8d cbbd ceae 47bc f573 213c c2c1 eebc
00000270: ca03 e4bd afc5 8bbc cbd6 fa3d 987e fb3d
00000280: c48e 14bd 7624 a6b9 ba63 dbbd 9c6e 32be
00000290: a196 b5bd 59e0 ab3d ffa2 b23c 1c07 d7bd
000002a0: 6f08 7b3d 0abe f7bb c053 f13d e39b 82bd
000002b0: 34f6 61be 877e 1cbe 5fa9 d13d 4e24 44be
000002c0: 90b8 9abd 9ce6 c9bd b9d3 d43a 15a8 6e3d
000002d0: 5be0 913d 97d7 99bd b600 cf3d abbf dabd
000002e0: 390a fd3d 8b0d 3d3e 1a3b 13be 2efe 72bd
000002f0: f317 21bd 820c 2ebe b2a8 6bbe feec 103e
00000300: 7adc 46bd 19d1 3f3e 338d 143b 32af 2a3d
00000310: be9f 87bd 759c abbc bdbd 1d3e e7b8 0b3e
00000320: aed0 843d 597b 0c3e 43fc 933c d52e 333d
00000330: efde 003d 70a4 823d 0579 2dbe c0d7 54bd
00000340: 52a3 a239 6687 913d baf0 97bc c5d0 573d
00000350: 1471 a43c e02b 5c3e 2d53 5f3e bad4 2abe
00000360: 1440 473b 0087 f1bd c301 093d be33 b33d
00000370: 8f14 8cbd 31c2 42bd 8b6b b4bd b087 40bd
00000380: 020b a23d a886 83bd 8dfb f4bd 282e 48be
00000390: 8fe7 ad3d 6682 12bd 1aa5 40be fb16 223d
000003a0: e74e cabd b875 913d 3911 37bd 96ec 15bd
000003b0: f8d7 d1bd 8748 08be 3810 04be d15a ea3c
000003c0: 9c0b 933c 6760 323c 2a23 06be a85c 18be
000003d0: 4fea 273d ac17 913d 29e4 c9bd 90fa 92bd
000003e0: 72f3 aa3d 5abe 9c3c d029 b6bb e267 50bd
000003f0: 29e9 be3c 1158 4a3d 0912 8abc 5239 99bd

_backbone.transformer_blocks.mha_block_0.pos_wise_ff.ffn.layer2.weight f4 [32, 128]
0.0584515 -0.06582774 0.018504227 0.08897097 0.022565197 0.04872511 0.06157911 -0.10631939
0.073178865 -0.03150801 0.033617716 -0.08747 -0.028523993 -0.031558182 -0.0066868262 0.057845283
0.11313663 0.10508304 0.002263881 0.10821084 -0.05575057 -0.02549319 -0.09886564 0.03740149
0.07441373 0.015910478 -0.061855886 -0.03356133 0.03985162 -0.024536813 0.042210422 -0.024151944
-0.09919835 -0.01632692 -0.095339835 0.13774225 0.07894221 -0.08876943 -0.043593764 0.0019367429
-0.06924476 0.101684116 0.032578256 0.06248513 0.102044225 -0.12010022 0.0021216748 -0.00796611
-0.019652415 0.13516955 -0.06934393 -0.05436558 -0.07327257 0.04532277 -0.0872053 0.051358208
-0.08668983 -0.039983336 -0.10312798 -0.06677447 0.023236109 0.070983775 -0.08841937 0.12537676
0.06831548 -0.0029207512 0.12240157 0.007954785 -0.104258254 -0.12390649 0.06400825 -0.039339833
-0.07134995 -0.07746832 -0.067575276 -0.06458079 -0.05536654 -0.010591984 -0.06959826 -0.013604313
0.038333464 0.01982911 0.07232594 0.018421594 0.05392331 0.04411407 -0.048384093 -0.07475192
-0.048838925 -0.08139132 0.08612678 0.0042067543 0.012208331 -0.07192271 -0.021659179 -0.03627266
-0.0061202967 0.095382 -0.0023643104 -0.023191918 -0.03439963 -0.11592905 -0.031712875 -0.013846579
-0.13887635 -0.03748068 -0.06340315 -0.12314915 0.027654447 0.089766696 -0.018836696 0.055184104
-0.021804651 0.015897244 0.007599797 -0.01997734 0.017981214 -0.107279494 0.037579272 0.061129175
0.06967532 0.025006674 -0.02228629 0.067862876 -0.12031587 0.11635633 -0.054161247 0.0115626305
-0.04587183 0.03538171 0.0949622 -0.098520294 -0.002293509 0.1296625 -0.03719964 -0.046354193
0.04519855 0.030881692 -0.106389694 -0.09292901 -0.013844963 -0.089604236 0.00027483876 0.01437701
0.07349537 -0.014193274 -0.123884305 0.18419345 0.073253505 0.014019934 0.039870903 -0.0090252
0.056514625 -0.06525494 -0.043510616 0.013243266 -0.11697351 -0.05781993 -0.04112979 0.0047288947
0.022505086 0.1002199 0.114688784 0.071942054 -0.050692085 -0.061406557 0.06961235 -0.000967216
-0.060230196 -0.0008696946 0.008378791 0.03846952 -0.063352354 0.013649186 0.015144202 0.03572727
-0.075401105 0.12287357 0.10572782 -0.11749689 -0.04188425 -0.06982797 -0.030559443 0.026386876
-0.09865155 -0.1169733 -0.023256548 0.040812004 0.025431182 -0.029159654 -0.06617458 0.025987165
0.03210636 -0.04358173 0.1372848 -0.020324089 -0.08952298 0.07957307 -0.04366647 -0.058275335
-0.094535284 0.018029137 -0.04320651 -0.00018059202 -0.015980447 0.018445402 -0.07236889 0.047312155
-0.1322521 -0.0270083 -0.021065446 0.07049048 -0.05051891 -0.05077243 0.0317315 0.009272366
0.07544468 0.1011742 -0.121240206 -0.112664625 0.07811405 -0.021155763 0.069856845 0.086887844
-0.03932782 0.08604467 0.06225128 0.122915395 0.027393596 -0.07939287 -0.047871426 0.015182061
-0.073912814 0.030060908 -0.043464687 -0.02507023 0.065937884 0.080894694 0.026291335 0.06610303
-0.07259762 -0.06386117 -0.11237335 0.043513693 0.13360475 0.012118762 0.028626023 0.08353045
-0.08795784 -0.07151793 0.13984793 -0.044007152 -0.07735798 0.101157635 -0.08765902 0.05079924
00000000: d76a 6f3d b2d0 86bd 2d96 973c 6936 b63d
00000010: a6da b83c fb93 473d 603a 7c3d fbbd d9bd
00000020: cdde 953d 8b0e 01bd bbb2 093d 7923 b3bd
00000030: 26ab e9bc 2743 01bd 2a1d dbbb 2def 6c3d
00000040: 2db4 e73d c735 d73d 9f5d 143b a59d dd3d
00000050: b65a 64bd 18d7 d0bc 127a cabd 4e32 193d
00000060: 3a66 983d b156 823c 995c 7dbd 9b77 09bd
00000070: 743b 233d 6d01 c9bc d6e4 2c3d 4cda c5bc
00000080: 8128 cbbd 08c0 85bc 8841 c3bd 4e0c 0d3e
00000090: 74ac a13d bfcc b5bd 608f 32bd 4fda fd3a
000000a0: 32d0 8dbd c33f d03d c770 053d 68f0 7f3d
000000b0: 90fc d03d 1bf7 f5bd cc0b 0b3b 4984 02bc
000000c0: 1afe a0bc e369 0a3e 3104 8ebd 71ae 5ebd
000000d0: ee0f 96bd 5ea4 393d b198 b2bd fc5c 523d
000000e0: 708a b1bd 91c5 23bd c334 d3bd 0ec1 88bd
000000f0: a759 be3c f15f 913d 3715 b5bd c462 003e
00000100: fde8 8b3d 136a 3fbb adad fa3d c954 023c
00000110: 5a85 d5bd b0c2 fdbd c216 833d ce22 21bd
00000120: ec1f 92bd b6a7 9ebd e864 8abd ef42 84bd
00000130: 06c8 62bd 008a 2dbc 8889 8ebd a0e4 5ebc
00000140: 8d03 1d3d a870 a23c 9f1f 943d e2e8 963c
00000150: b0de 5c3d f4b0 343d 662e 46bd 8917 99bd
00000160: 530b 48bd 7eb0 a6bd 3d63 b03d d0d8 893b
00000170: 7405 483c 374c 93bd 976e b1bc a492 14bd
00000180: c58c c8bb a357 c33d 8cf2 1abb fafc bdbc
00000190: a0e6 0cbd 366c edbd 5ce5 01bd c3dc 62bc
000001a0: 9a35 0ebe 5785 19bd 83d9 81bd 9f35 fcbd
000001b0: 948b e23c 9ad7 b73d 6a4f 9abc ba08 623d
000001c0: ab9f b2bc f03a 823c b807 f93b 85a7 a3bc
000001d0: 574d 933c 5ab5 dbbd b9ec 193d 9662 7a3d
000001e0: efb1 8e3d ccda cc3c bd91 b6bc b1fb 8a3d
000001f0: 2b68 f6bd 3a4c ee3d 2fd8 5dbd 3071 3d3c
00000200: 1ae4 3bbd 69ec 103d 8b7b c23d 02c5 c9bd
00000210: b24e 16bb 3fc6 043e a65e 18bd e5dd 3dbd
00000220: 1d22 393d 9afb fc3c d7e2 d9bd 9151 bebd
00000230: fcd5 62bc 6d82 b7bd 3c18 9039 8d8d 6b3c
00000240: be84 963d e88a 68bc 0eb7 fdbd 359d 3c3e
00000250: ef05 963d deb3 653c ac4f 233d 6fde 13bc
00000260: e17b 673d 62a4 85bd 3038 32bd 49fa 583c
00000270: cf8f efbd 97d4 6cbd b677 28bd d8f4 9a3b
00000280: 965c b83c 1740 cd3d f4e1 ea3d 5b56 933d
00000290: 81a2 4fbd 7185 7bbd eb90 8e3d c48c 7dba
000002a0: f0b3 76bd 37fc 63ba 3247 093c 3792 1d3d
000002b0: e1be 81bd d6a0 5f3c 631f 783c c256 123d
000002c0: e56b 9abd 23a5 fb3d d487 d83d 36a2 f0bd
000002d0: d28e 2bbd f701 8fbd cc57 fabc 4a29 d83c
000002e0: d309 cabd b38f efbd 8484 bebc 7d2a 273d
000002f0: 0e55 d03c 3ae0 eebc 8a86 87bd 09e3 d43c
00000300: f581 033d c282 32bd 6394 0c3e b47e a6bc
00000310: d357 b7bd 35f7 a23d 9ddb 32bd 1eb2 6ebd
00000320: b79b c1bd d7b1 933c 4ff9 30bd 4d5d 3db9
00000330: 6de9 82bc d01a 973c 2436 94bd 64ca 413d
00000340: 186d 07be 8340 ddbc 7191 acbc 505d 903d
00000350: ebec 4ebd c0f6 4fbd e4f8 013d 1feb 173c
00000360: be82 9a3d 6b34 cf3d c94c f8bd b6bc e6bd
00000370: 42fa 9f3d da4e adbc 1b11 8f3d 41f2 b13d
00000380: 3516 21bd 3038 b03d 33fb 7e3d 11bb fb3d
00000390: 8968 e03c bb98 a2bd d414 44bd 2ebe 783c
000003a0: 9a5f 97bd 4b42 f63c 0708 32bd 1560 cdbc
000003b0: 710a 873d 1eac a53d ed60 d73c 0761 873d
000003c0: 10ae 94bd a5c9 82bd 0024 e6bd 6a3b 323d
000003d0: afcf 083e c68d 463c 1f81 ea3c 0312 ab3d
000003e0: 3d23 b4bd fe77 92bd 4c34 0f3e d840 34bd
000003f0: dc6d 9ebd bc2b cf3d 9386 b3bd dd12 503d

_backbone.transformer_blocks.mha_block_0.pos_wise_ff.ffn.linear_v.weight f4 [128, 32]
-0.069503516 0.10897272 0.13491927 0.13569805 -0.116626695 -0.09403403 0.14952934 0.12567982
0.05320608 0.022909127 -0.009336126 0.16038188 0.18932295 0.02716017 -0.16516596 -0.053470377
0.12424192 0.12347474 0.16405478 -0.05745355 0.09556259 0.013957206 -0.10557336 0.022779942
0.1363954 -0.079144366 0.11583608 -0.11477456 -0.063599005 0.012490421 -0.066659555 0.023583092
0.085438296 -0.0011586662 -0.051522125 0.13397853 -0.05588793 -0.12447914 -0.14622538 0.113234326
0.096059434 -0.04670593 0.099261455 -0.013331522 0.03453023 -0.119178966 0.1075185 0.0984132
-0.09575295 0.03891917 0.121821284 0.057818506 0.14847091 0.008187838 0.12918869 0.1376444
-0.2272712 0.03304264 -0.019232623 -0.12202445 -0.09639785 -0.007355785 0.19466208 -0.12296836
-0.17287348 0.050518014 -0.038640138 -0.043503713 0.16476908 0.15646023 0.0002151897 0.027633144
0.17341918 -0.051238958 0.08151574 -0.1486523 0.1298436 0.14465828 0.04404531 0.15407228
-0.1879303 -0.09386113 -0.038487352 0.11905644 -0.050546978 -0.09985045 0.08497706 -0.04407676
-0.1784454 0.13266043 0.011874075 0.10184506 -0.038418964 -0.014054021 0.1764506 0.0015824611
0.039844852 -0.117261745 -0.054843213 -0.09815228 0.036984544 0.027157845 -0.13765602 0.037889224
-0.15258224 -0.0028890125 -0.15741016 -0.0851887 -0.041767776 -0.025920838 -0.1184777 0.11022212
0.017879685 0.030429171 0.16164179 -0.07194077 -0.055698562 -0.16319722 -0.15062788 0.08090416
0.08446114 0.06001771 0.13652223 -0.13861975 -0.14511052 0.056363475 -0.151897 -0.108005814
0.1883606 -0.023539828 -0.13641635 -0.08249304 -0.08458567 -0.13626672 0.14240432 0.01342251
-0.046803538 -0.15326576 -0.07098701 -0.14611559 0.12998797 -0.034963343 -0.036542635 0.1265539
-0.02448217 -0.17077662 -0.19720137 -0.0060497127 0.1764108 0.11091832 -0.11791965 0.091278166
0.015015238 -0.14844474 0.11939859 -0.028620629 -0.09729921 -0.052347314 0.05399574 0.006356362
0.11087882 -0.17704716 -0.08693455 0.054447927 0.027208768 -0.04779243 0.10746485 0.26953456
0.057634834 -0.1365225 0.12470997 0.22202072 -0.076752335 -0.12989123 -0.21504767 -0.18198441
-0.16238606 -0.030705241 0.071152024 0.14193037 0.017617257 -0.052791175 -0.032811616 -0.034159455
0.0711299 -0.057584994 0.19185385 -0.069829434 0.10771886 -0.1629856 -0.067181244 0.09030607
0.003764908 -0.0849442 -0.0723531 0.13621414 -0.059590664 0.09497036 -0.12909341 -0.14142972
-0.19743446 -0.13893883 -0.044048443 -0.1439712 -0.21266443 0.08710442 -0.0006653863 -0.23255518
0.049646884 0.006380786 0.14478034 -0.038071863 -0.0073697567 0.045305423 -0.17488968 0.09798781
-0.15396357 -0.06355739 0.053997144 0.097701065 0.044300247 0.010149044 0.0032479397 0.16276677
-0.07715402 0.11449426 0.0030486616 -0.0999801 -0.13360634 -0.04242701 0.15162647 0.06511906
0.060315866 0.16232534 -0.032177024 -0.1801845 0.05064189 0.024048574 -0.001137024 0.06976313
0.1408561 0.17167157 0.09525144 0.15759619 0.062088743 0.124527864 0.124004975 0.053507004
-0.062406573 -0.10869391 0.034643922 -0.077356614 0.030739147 0.13530406 0.16618219 -0.02989233
00000000: dc57 8ebd 172d df3d 4728 0a3e 6ef4 0a3e
00000010: fad9 eebd ea94 c0bd 381e 193e 36b2 003e
00000020: 9eee 593d ecab bb3c 8df6 18bc 263b 243e
00000030: e0dd 413e 017f de3c 4421 29be c103 5bbd
00000040: 8c72 fe3d 53e0 fc3d fafd 273e 6a54 6bbd
00000050: 52b6 c33d c4ac 643c d936 d8bd 009d ba3c
00000060: 3cab 0b3e 7116 a2bd 773b ed3d ed0e ebbd
00000070: 3240 82bd 9fa4 4c3c ce84 88bd 5431 c13c
00000080: 46fa ae3d 63de 97ba dd08 53bd ab31 093e
00000090: beea 64bd ebee febd 1bbc 15be 66e7 e73d
000000a0: cfba c43d b84e 3fbd 9749 cb3d 756c 5abc
000000b0: 926f 0d3d 1a14 f4bd a932 dc3d dc8c c93d
000000c0: 1f1a c4bd b569 1f3d 707d f93d 19d3 6c3d
000000d0: c208 183e 4826 063c 0a4a 043e a7f2 0c3e
000000e0: c8b9 68be b857 073d bc8d 9dbc f4e7 f9bd
000000f0: 3c6c c5bd cc08 f1bb 7f55 473e d6d6 fbbd
00000100: bf05 31be faeb 4e3d 1f45 1ebd f330 32bd
00000110: 3ab9 283e 1c37 203e 8ca4 6139 e75e e23c
00000120: cc94 313e f1df 51bd b9f1 a63d 4f38 18be
00000130: b8f5 043e 4d21 143e db68 343d 20c5 1d3e
00000140: cd70 40be 443a c0bd eaa4 1dbd ddd3 f33d
00000150: 590a 4fbd 657e ccbd 7408 ae3d d589 34bd
00000160: 64ba 36be 23d8 073e 7b8b 423c 2594 d03d
00000170: 345d 1dbd d642 66bc 77af 343e 956a cf3a
00000180: 5b34 233d ed26 f0bd 47a3 60bd 1004 c9bd
00000190: 1b7d 173d 217a de3c b3f5 0cbe bb31 1b3d
000001a0: 853e 1cbe 9655 3dbb 2130 21be 6a77 aebd
000001b0: b014 2bbd f057 d4bc 70a4 f2bd 23bc e13d
000001c0: 6b78 923c 9946 f93c 6d85 253e af55 93bd
000001d0: 2d24 64bd 2c1d 27be 323e 1abe 15b1 a53d
000001e0: f6f9 ac3d 21d5 753d 7ccc 0b3e 56f2 0dbe
000001f0: da97 14be 63dd 663d e38a 1bbe 2732 ddbd
00000200: 9ae1 403e 99d6 c0bc bab0 0bbe 1cf2 a8bd
00000210: 403b adbd 8189 0bbe 70d2 113e 16ea 5b3c
00000220: 11b5 3fbd b3f1 1cbe a361 91bd 539f 15be
00000230: 911b 053e b935 0fbd bbad 15bd 5897 013e
00000240: d58e c8bc 11e0 2ebe 28ef 49be ab3c c6bb
00000250: 08a5 343e 2529 e33d dc7f f1bd 0cf0 ba3d
00000260: 7902 763c e601 18be 3f87 f43d cf75 eabc
00000270: cf44 c7bd 236a 56bd a32a 5d3d 0749 d03b
00000280: 6f14 e33d da4b 35be be0a b2bd ca04 5f3d
00000290: ece4 de3c ffc1 43bd 8816 dc3d 6f00 8a3e
000002a0: 8112 6c3d 8ecc 0bbe f167 ff3d 6659 633e
000002b0: 5430 9dbd 3502 05be 7535 5cbe 1f5a 3abe
000002c0: 8848 26be 8f89 fbbc 27b8 913d 3256 113e
000002d0: 1152 903c 8f3b 58bd 7965 06bd c9ea 0bbd
000002e0: 8eac 913d 3ede 6bbd 5675 443e bc02 8fbd
000002f0: b59b dc3d b2e5 26be 5296 89bd 64f2 b83d
00000300: adbc 763b 3af7 adbd dd2d 94bd b87b 0b3e
00000310: 5715 74bd d27f c23d 1031 04be f4d2 10be
00000320: 422c 4abe fb45 0ebe 246c 34bd 306d 13be
00000330: b4c4 59be cd63 b23d 526d 2eba f222 6ebe
00000340: 885a 4b3d ea15 d13b 4c41 143e 3ef1 1bbd
00000350: 007e f1bb 2e92 393d 4816 33be d5ad c83d
00000360: a0a8 1dbe 602a 82bd 1c2c 5d3d 7f17 c83d
00000370: 2d74 353d 2d48 263c 63db 543b 55ac 263e
00000380: ed02 9ebd f77b ea3d 0ecc 473b 5ec2 ccbd
00000390: 1ad0 08be f2c7 2dbd f843 1b3e 245d 853d
000003a0: c50d 773d 9d38 263e 0ecc 03bd 4982 38be
000003b0: df6d 4f3d 8401 c53c 3208 95ba f9df 8e3d
000003c0: 953c 103e acca 2f3e 3013 c33d e560 213e
000003d0: c450 7e3d 7708 ff3d 52f6 fd3d 292a 5b3d
000003e0: 099e 7fbd ea9a debd c9e6 0d3d 256d 9ebd
000003f0: aad0 fb3c 268d 0a3e aa2b 2a3e c2e0 f4bc

_backbone.transformer_blocks.mha_block_0.attn_add_norm.ln.weight f4 [32]
1.0203677 0.98850673 0.98427784 1.010612 1.014236 1.0154779 1.023154 0.98419154
1.0090257 1.0111641 0.996505 1.0084902 1.0033644 0.98457694 1.0263698 0.9878895
1.0135065 1.0119158 0.9814443 0.9819701 0.9822874 0.9823957 1.0265753 0.983559
0.98674166 1.0189412 1.0133132 1.0262514 0.97766495 1.0162168 0.996572 0.98680854
00000000: 699b 823f c70e 7d3f a2f9 7b3f bc5b 813f
00000010: 7cd2 813f 2efb 813f b6f6 823f faf3 7b3f
00000020: c127 813f d36d 813f f41a 7f3f 3516 813f
00000030: 3f6e 803f 3c0d 7c3f 1660 833f 54e6 7c3f
00000040: 95ba 813f 7586 813f ef3f 7b3f 6462 7b3f
00000050: 3077 7b3f 497e 7b3f d266 833f 86ca 7b3f
00000060: 1a9b 7c3f aa6c 823f 3fb4 813f 355c 833f
00000070: 4048 7a3f 6413 823f 581f 7f3f 7c9f 7c3f

_backbone.transformer_blocks.mha_block_0.attn_add_norm.ln.bias f4 [32]
0.016788244 0.0014866308 0.011941115 0.014918618 -0.014880901 0.0143454345 0.015327883 -0.012855184
-0.012701585 0.016969308 -0.0035137797 -0.0128335515 0.013656751 -0.0165547 -0.018229412 0.010864986
0.014221656 0.015045535 -0.012494593 0.015057684 -0.014751416 -0.0005686597 -0.009466472 -0.012675839
-0.007880172 -0.010654581 -0.016468344 -0.017508708 0.011155864 0.01859244 0.013721073 0.009194591
00000000: 8087 893c 0ddb c23a aba4 433c 386d 743c
00000010: 06cf 73bc 1d09 6b3c cd21 7b3c 8d9e 52bc
00000020: 4f1a 50bc 3803 8b3c 7147 66bb d143 52bc
00000030: 91c0 5f3c b99d 87bc d955 95bc 0e03 323c
00000040: f301 693c 8c81 763c 1fb6 4cbc 81b4 763c
00000050: ecaf 71bc 1b12 15ba 4319 1bbc 52ae 4fbc
00000060: d61b 01bc 8d90 2ebc 9fe8 86bc 6c6e 8fbc
00000070: 16c7 363c 2c4f 983c 5ace 603c e9a4 163c

_backbone.transformer_blocks.mha_block_0.ff_add_norm.ln.weight f4 [32]
1.0221926 1.0015602 0.9843466 1.0133101 1.0154918 1.0171297 1.0231397 0.98414004
1.0099368 1.0156754 1.0226076 1.0104917 1.0033879 0.9853381 1.026777 0.98804784
1.0127175 1.0126371 0.98258746 0.97748286 0.98190814 0.981363 1.0673956 0.98305935
0.9930217 1.0245366 1.014862 1.0255898 0.9813105 1.0170753 1.010755 0.9865162
00000000: 35d7 823f 2033 803f 24fe 7b3f 25b4 813f
00000010: a3fb 813f 4e31 823f 3ef6 823f 9af0 7b3f
00000020: 9c45 813f a701 823f cee4 823f cb57 813f
00000030: 046f 803f 1e3f 7c3f 6e6d 833f b4f0 7c3f
00000040: baa0 813f 189e 813f da8a 7b3f 513c 7a3f
00000050: 555e 7b3f 9b3a 7b3f 6ba0 883f c7a9 7b3f
00000060: ac36 7e3f 0424 833f ffe6 813f 8746 833f
00000070: 2a37 7b3f 862f 823f 6b60 813f 538c 7c3f

_backbone.transformer_blocks.mha_block_0.ff_add_norm.ln.bias f4 [32]
0.017817045 0.002909192 0.012632081 0.01471625 -0.015239323 0.015744569 0.017400924 -0.01261257
-0.013122027 0.020797366 -0.0020206787 -0.013420249 0.013216783 -0.015055825 -0.01805062 0.010132517
0.014543581 0.015531764 -0.013100125 0.015381234 -0.014054149 -0.0076939813 -0.0058852523 -0.012952179
-0.008990113 -0.012040569 -0.016066706 -0.018270865 0.011166367 0.018191986 0.011913951 0.009493045
00000000: 0df5 913c 24a8 3e3b caf6 4e3c 6d1c 713c
00000010: 5aae 79bc c1fa 803c 628c 8e3c f4a4 4ebc
00000020: c5fd 56bc 3d5f aa3c 5d6d 04bb 9be0 5bbc
00000030: 358b 583c b5ac 76bc e5de 93bc db02 263c
00000040: 3348 6e3c f178 7e3c e8a1 56bc 9201 7c3c
00000050: 6043 66bc cb1d fcbb 13d9 c0bb 6035 54bc
00000060: 444b 13bc cf45 45bc 539e 83bc c8ac 95bc
00000070: 23f3 363c 5c07 953c bb32 433c b788 1b3c

_backbone.transformer_blocks.mha_block_1.mha.to_qkv.weight f4 [384, 32]
0.09044152 -0.106828086 0.14893135 0.12133973 0.14374757 -0.11171028 -0.050321586 0.13138032
0.02579806 -0.00088155764 -0.111618266 0.06631927 0.1269162 0.09629819 -0.07227696 0.1818478
-0.16254342 0.16250929 -0.13957888 0.18603426 0.06441854 -0.12889935 -0.035997547 0.08500447
0.049570665 -0.10256576 -0.021137442 0.07306226 0.18391186 -0.1373265 0.011488883 0.1542866
-0.006685654 -0.016550688 -0.037666257 0.11299353 -0.031148102 0.14214125 -0.17269151 -0.17403232
-0.025066257 -0.14373834 -0.16581886 -0.054356083 0.02371058 0.027264584 -0.151554 -0.15996501
-0.17107293 -0.056085538 0.11751331 -0.08872189 -0.01884405 -0.14107558 -0.055933442 0.08885837
-0.075558186 -0.050331898 0.03860913 -0.042819828 -0.1546266 -0.0052782623 -0.10029959 0.014407835
-0.06415521 0.13258678 0.05289205 -0.15923923 0.014622635 0.0029642435 0.067678526 0.14848733
0.012210373 0.009964276 -0.07878618 0.121654525 0.02610266 0.17135997 0.087915204 -0.024571821
-0.20007327 -0.117053956 0.16165169 -0.13946594 0.20219733 0.06822658 0.043542795 -0.00827109
0.16490076 -0.10217959 -0.13104042 0.069408186 -0.0878718 0.0065979008 -0.012722253 0.16390055
0.09242197 0.08555838 0.002862307 0.04100939 -0.052355483 0.07908327 0.093581714 -0.13435674
0.017337162 -0.12887418 0.1689976 0.03180451 0.00095660717 -0.17173377 -0.11942929 0.033160407
-0.16934896 0.10389922 -0.17675425 0.16877584 -0.20648697 0.013435493 0.08312325 -0.13858806
-0.15027313 -0.18372262 0.15213521 -0.018526277 -0.08247835 -0.06594835 -0.11007821 -0.09501922
0.12477032 0.016151434 -0.0814368 -0.03285062 -0.13685006 -0.015969744 -0.03788617 0.10882438
-0.105633445 -0.062237352 0.07333982 0.099210165 0.086411655 0.011647118 0.12224003 -0.066372186
-0.15169938 0.0041814037 -0.073979005 0.16116296 -0.14322439 0.04904025 -0.0185502 -0.12239602
-0.0075560454 0.14941058 0.08694055 -0.06414337 0.086349204 -0.05331083 0.07396991 -0.042936318
0.1365406 0.06362752 -0.07235161 0.032676328 0.081172526 -0.11942579 0.040110946 0.11525985
-0.07002042 -0.07775269 0.0029763721 0.04570309 0.0018677216 0.15876023 -0.014814756 0.13311309
-0.11004602 -0.19717361 -0.20146176 -0.08068647 -0.13164315 0.055275556 -0.20079988 -0.12326731
-0.00717955 0.1682777 -0.101730235 0.08828357 0.016716637 0.09906253 0.017315993 0.16520818
-0.029978823 -0.016800541 -0.09052232 -0.035411384 0.10313864 0.09596057 0.16175488 -0.04066003
0.012889374 -0.11809929 0.19120857 -0.050768778 0.0042102863 -0.1370401 0.118749514 -0.17025582
-0.06497845 -0.041259788 -0.1189381 -0.16203538 -0.025579026 0.093057044 -0.0059444676 -0.030950064
-0.060629427 -0.05316415 0.08585491 -0.15089594 -0.11444243 0.1779039 0.00016057435 -0.0032680647
-0.006016478 0.060488034 0.0040535773 -0.07786036 -0.13967896 -0.17985262 0.013457386 0.05826546
0.23252076 -0.1860206 0.0031685033 -0.081319064 0.029349564 0.027594164 0.032913104 -0.08091592
0.033357732 -0.18843722 0.14686583 0.050784577 0.10484245 0.07992141 -0.038911086 -0.06076306
0.12504636 0.12488186 -0.0066190087 -0.1683744 0.07542869 0.021551466 -0.26381618 -0.06398856
00000000: 6739 b93d afc8 dabd 7681 183e f780 f83d
00000010: 9032 133e 5cc8 e4bd 021e 4ebd 9088 063e
00000020: 7456 d33c 5518 67ba 1e98 e4bd 66d2 873d
00000030: 52f6 013e fc37 c53d f105 94bd 4f36 3a3e
00000040: c871 26be d668 263e c4ed 0ebe c47f 3e3e
00000050: deed 833d 31fe 03be 2a72 13bd d316 ae3d
00000060: 9c0a 4b3d ff0d d2bd 6e28 adbc aba1 953d
00000070: 6453 3c3e 519f 0cbe de3b 3c3c 4efd 1d3e
00000080: 5513 dbbb 4f95 87bc ef47 1abd 2769 e73d
00000090: 4e2a ffbc 7a8d 113e 0bd6 30be 8735 32be
000000a0: c057 cdbc 2530 13be 6bcc 29be 7ca4 5ebd
000000b0: b13c c23c fa59 df3c f930 1bbe decd 23be
000000c0: be2d 2fbe f3b9 65bd d1aa f03d d2b3 b5bd
000000d0: d65e 9abc 1e76 10be 771a 65bd 61fb b53d
000000e0: 40be 9abd d228 4ebd 9b24 1e3d d863 2fbd
000000f0: 6f56 1ebe 46f5 acbb df69 cdbd d70e 6c3c
00000100: cf63 83bd d4c4 073e 56a5 583d 9c0f 23be
00000110: c793 6f3c c143 423b 0a9b 8a3d 100d 183e
00000120: 040e 483c 3441 233c a65a a1bd 0226 f93d
00000130: 3fd5 d53c fd78 2f3e e30c b43d d84a c9bc
00000140: 02e0 4cbe fcb9 efbd 0588 253e 29d0 0ebe
00000150: d10c 4f3e 61ba 8b3d ee59 323d 7783 07bc
00000160: bfdb 283e 8843 d1bd 762f 06be e125 8e3d
00000170: 21f6 b3bd 3433 d83b ff70 50bc 8cd5 273e
00000180: bb47 bd3d 3b39 af3d 8b95 3b3b 76f9 273d
00000190: b472 56bd 69f6 a13d c5a7 bf3d d094 09be
000001a0: aa06 8e3c 98f7 03be b50d 2d3e 7245 023d
000001b0: d2c4 7a3a fada 2fbe 5897 f4bd 35d3 073d
000001c0: d069 2dbe 1dc9 d43d 11ff 34be 93d3 2c3e
000001d0: 5271 53be 8b20 5c3c 863c aa3d 07ea 0dbe
000001e0: 33e1 19be c821 3cbe 55c9 1b3e 6bc4 97bc
000001f0: 69ea a8bd ee0f 87bd af70 e1bd 7099 c2bd
00000200: 9587 ff3d 0350 843c 56c8 a6bd 5f8e 06bd
00000210: 6c22 0cbe fbd2 82bc 872e 1bbd 51df de3d
00000220: 5956 d8bd 98ec 7ebd 3033 963d b32e cb3d
00000230: 98f8 b03d 8ed3 3e3c fb58 fa3d 24ee 87bd
00000240: 1557 1bbe 2804 893b 4e82 97bd e707 253e
00000250: 6aa9 12be 6ede 483d 97f6 97bc c4aa fabd
00000260: b498 f7bb 16ff 183e e30d b23d 995d 83bd
00000270: dad7 b03d 755c 5abd 897d 973d fedd 2fbd
00000280: 4dd1 0b3e 254f 823d 152d 94bd 9dd7 053d
00000290: c83d a63d 8295 f4bd 604b 243d 5b0d ec3d
000002a0: de66 8fbd cd3c 9fbd 3d0f 433b 2a33 3b3d
000002b0: 56ce f43a 0b92 223e 97b9 72bc cc4e 083e
000002c0: cf5f e1bd e1e7 49be fe4b 4ebe f33e a5bd
000002d0: 76cd 06be 9f68 623d 7c9e 4dbe 9273 fcbd
000002e0: 6e42 ebbb fd50 2c3e f157 d0bd 04ce b43d
000002f0: 54f1 883c 4ce1 ca3d 45da 8d3c 552c 293e
00000300: 2696 f5bc 4aa1 89bc c463 b9bd 870b 11bd
00000310: 5a3a d33d fa86 c43d 12a3 253e 228b 26bd
00000320: f42d 533c 0ade f1bd 2ecc 433e ecf2 4fbd
00000330: 71f6 893b 3d54 0cbe f232 f33d 8b57 2ebe
00000340: 6c13 85bd 0600 29bd d295 f3bd 9aec 25be
00000350: 1b8b d1bc b194 be3d cfc9 c2bb fd8a fdbc
00000360: 9056 78bd a7c2 59bd b3d4 af3d 7784 1abe
00000370: cb60 eabd 712c 363e d95f 2839 072d 56bb
00000380: e025 c5bb 4dc2 773d dfd3 843b 4175 9fbd
00000390: 0008 0fbe 492b 38be 5e7c 5c3c c3a7 6e3d
000003a0: ec19 6e3e 2f7c 3ebe aaa6 4f3b 9c8a a6bd
000003b0: 7f6e f03c 280d e23c e4cf 063d 3fb7 a5bd
000003c0: 1ea2 083d b0f5 40be ff63 163e 7d03 503d
000003d0: a3b7 d63d d6ad a33d 3b61 1fbd b0e2 78bd
000003e0: 270c 003e 10c2 ff3d 45e4 d8bb 576a 2cbe
000003f0: 5b7a 9a3d b38c b03c ea12 87be 6f0c 83bd

_backbone.transformer_blocks.mha_block_1.mha.to_out.weight f4 [32, 128]
-0.004117757 -0.005069596 0.06667863 -0.0924402 0.03320903 -0.06591925 0.060756743 0.10769761
0.01916104 -0.03118055 0.0476428 -0.05191938 -0.03996828 -0.003374804 -0.09462853 0.030499445
0.048021015 0.054685447 0.08142314 0.0035995129 -0.028866293 0.07065909 -0.0090662455 0.067195885
0.03039335 -0.01869218 0.026584085 0.043074407 0.008338205 -0.01036712 0.04411402 0.048165955
-0.043885726 0.004330619 -0.08382741 -0.026925707 0.041460376 -0.048022933 0.033392992 -0.032082345
-0.08213719 0.074373335 -0.024962956 0.075010255 -0.057399657 0.019670378 0.014742274 0.11229241
-0.07946046 -0.0336479 0.051386055 0.035610773 0.07269435 -0.014719962 0.0068433126 0.054550327
-0.030275252 0.015782274 0.0052751624 -0.030662242 -0.023672173 -0.06644727 -0.029900393 0.091201685
-0.020102717 0.06314933 -0.03089737 0.062204726 0.007361208 -0.06251398 -0.017505243 0.10917144
0.0121439705 0.018905219 -0.029795 -0.0342768 -0.0910069 -0.02509647 -0.051461093 -0.0003705472
-0.008916985 0.017313616 0.060352962 0.010127454 -0.08922118 0.13266987 -0.011900027 0.030609367
0.039255787 0.0540418 -0.08138865 0.05473713 -0.089580685 0.07461468 -0.020344863 0.025514035
-0.17541145 -0.03351856 -0.09853458 0.04653362 -0.06612826 -0.09241762 0.0072054514 0.0061508548
0.047587253 0.0020632697 0.039354134 -0.05493275 0.024674231 -0.07061322 -0.07195345 -0.040576406
-0.04577861 -0.019264076 -0.07985441 -0.006860098 0.055430878 0.07259532 0.10889827 -0.0444372
0.06642066 0.033473957 -0.06725566 -0.020151325 0.028119631 0.056637682 0.13022304 0.01665459
0.011324401 -0.05621049 0.043588784 0.073631935 -0.075568326 0.05048453 0.085738994 -0.014132718
-0.08942031 -0.0018451152 -0.06899174 0.043950718 -0.016294762 -0.018413972 0.06445618 -0.06879016
-0.022872387 0.0181427 0.062150467 -0.035757177 -0.059296813 0.011521478 0.06903987 0.096547045
0.081240036 -0.052863955 -0.039793435 -0.035524514 0.043038383 -0.02866646 0.07303896 -0.013145544
0.096580006 -0.06569016 0.07814927 0.023709122 0.048614252 -0.046985522 -0.068516225 -0.03745682
-0.01667392 -0.06418388 -0.019945374 -0.075569846 -0.0041216593 -0.08001706 0.031661667 0.010433349
-0.054234512 -0.033321507 0.012499477 0.101457454 0.06681794 -0.046120096 -0.06931228 0.0607669
-0.07137299 -0.032636657 0.012151161 0.06975105 -0.0652894 0.003959354 -0.010342929 -0.014551191
0.053254988 0.011404805 -0.06800427 0.046719123 0.08629279 -0.07825992 -0.014665831 -0.043818332
0.08262173 0.008720145 -0.050339516 0.053321596 0.00927761 0.015621462 -0.03002102 0.082395755
0.0055497265 -0.029102564 0.05020366 -0.063991345 -0.044197388 0.14810161 0.01771809 -0.005967581
0.02259244 -0.049899805 0.05969507 0.057798114 -0.07730655 -0.015917439 -0.08289086 -0.08154965
-0.08757297 0.0016530352 -0.021036275 -0.06147417 -0.098049946 -0.021392943 0.04631235 -0.09756799
0.029019093 -0.00435734 -0.06772811 -0.035604704 -0.0034414334 -0.033841096 -0.01646691 0.016409248
-0.07647236 0.102101415 0.08185854 -0.02166044 -0.04555459 -0.008752693 -0.03176448 0.023202054
-0.03037921 -0.12415186 -0.060255323 -0.02774914 0.0036527275 0.0047831796 -0.033099107 0.08275412
00000000: 40ee 86bb db1e a6bb ce8e 883d 4a51 bdbd
00000010: 3106 083d ac00 87bd 10dc 783d 9190 dc3d
00000020: 9df7 9c3c 5a6e ffbc 1925 433d 6aa9 54bd
00000030: c7b5 23bd d12b 5dbb 9acc c1bd f9d9 f93c
00000040: afb1 443d d9fd 5f3d 2dc1 a63d cee5 6b3b
00000050: 0179 ecbc b7b5 903d 978a 14bc ff9d 893d
00000060: 7afb f83c 5820 99bc dec6 d93c ca6e 303d
00000070: f79c 083c dada 29bc e7b0 343d aa49 453d
00000080: 85c1 33bd dde7 8d3b b5ad abbd 4d93 dcbc
00000090: 5bd2 293d b2b3 44bd 17c7 083d c768 03bd
000000a0: 8b37 a8bd 0c51 983d 1d7f ccbc fa9e 993d
000000b0: e71b 6bbd c623 a13c 9489 713c 90f9 e53d
000000c0: 2abc a2bd 61d2 09bd 2f7a 523d 9adc 113d
000000d0: c6e0 943d ff2b 71bc de3d e03b 2a70 5f3d
000000e0: ce03 f8bc d449 813c 45db ac3b 622f fbbc
000000f0: 25ec c1bc 8215 88bd abf1 f4bc f3c7 ba3d
00000100: 74ae a4bc 7054 813d 7b1c fdbc 62ca 7e3d
00000110: 4a36 f13b 5407 80bd 2867 8fbc 4795 df3d
00000120: 81f7 463c 1edf 9a3c a514 f4bc d465 0cbd
00000130: d361 babd 1d97 cdbc dec8 52bd 0146 c2b9
00000140: 8c18 12bc 49d5 8d3c ab34 773d 9fed 253c
00000150: 98b9 b6bd 9cda 073e 55f8 42bc 7fc0 fa3c
00000160: adca 203d ef5a 5d3d 18af a6bd 0a34 603d
00000170: 1476 b7bd 95cf 983d 45aa a6bc cf02 d13c
00000180: 0f9f 33be c24a 09bd 7fcc c9bd 0a9a 3e3d
00000190: 416e 87bd 7345 bdbd b51b ec3b 1c8d c93b
000001a0: daea 423d ec37 073b cd31 213d 2a01 61bd
000001b0: 9d21 ca3c aa9d 90bd 555c 93bd 7233 26bd
000001c0: 5a82 3bbd b2cf 9dbc b58a a3bd acca e0bb
000001d0: 7d0b 633d dbac 943d 0e06 df3d c803 36bd
000001e0: 8e07 883d fd1b 093d 56bd 89bd 6414 a5bc
000001f0: 245b e63c eafc 673d 3059 053e 356f 883c
00000200: fb89 393c f93c 66bd 278a 323d 57cc 963d
00000210: 91c3 9abd dec8 4e3d ed97 af3d ea8c 67bc
00000220: ff21 b7bd cbd7 f1ba 8b4b 8dbd ab05 343d
00000230: 987c 85bc e6d8 96bc 9a01 843d dbe1 8cbd
00000240: df5e bbbc 00a0 943c 7d91 7e3d 1e76 12bd
00000250: 37e1 72bd 95c4 3c3c c664 8d3d 75ba c53d
00000260: 2d61 a63d e087 58bd 71fe 22bd 2782 11bd
00000270: 0449 303d edd5 eabc 7395 953d 6860 57bc
00000280: bdcb c53d 9088 86bd b90c a03d a239 c23c
00000290: bd1f 473d e473 40bd 3c52 8cbd 536c 19bd
000002a0: bf97 88bc d772 83bd 7b64 a3bc 5dc4 9abd
000002b0: fc0e 87bb fcdf a3bd aaaf 013d a3f0 2a3c
000002c0: 0225 5ebd 227c 08bd 9bca 4c3c edc8 cf3d
000002d0: d8d7 883d 6de8 3cbd 99f3 8dbd b7e6 783d
000002e0: 012c 92bd 04ae 05bd aa15 473c a3d9 8e3d
000002f0: 73b6 85bd 78bd 813b 6375 29bc 1e68 6ebc
00000300: e721 5a3d 38db 3a3c d345 8bbd 8d5c 3f3d
00000310: 46ba b03d bd46 a0bd f448 70bc da7a 33bd
00000320: 9535 a93d f0de 0e3c cf30 4ebd bf67 5a3d
00000330: 1e01 183c 29f1 7f3c a4ee f5bc 1bbf a83d
00000340: 7bda b53b 8068 eebc 5aa2 4d3d e50d 83bd
00000350: 5208 35bd f3a7 173e 8725 913c b38b c3bb
00000360: c813 b93c bd63 4cbd d182 743d b7bd 6c3d
00000370: e652 9ebd 4a65 82bc afc2 a9bd 8103 a7bd
00000380: 7559 b3bd a8aa d83a 4454 acbc 57cc 7bbd
00000390: 69ce c8bd 4140 afbc 05b2 3d3d bad1 c7bd
000003a0: 73b9 ed3c 04c8 8ebb 09b5 8abd 3dd6 11bd
000003b0: ac89 61bb f69c 0abd 9de5 86bc b06c 863c
000003c0: 8a9d 9cbd 8c1a d13d 73a5 a73d 3c71 b1bc
000003d0: 7397 3abd 7567 0fbc 791b 02bd 3c12 be3c
000003e0: d2dd f8bc 5543 febd 49ce 76bd 2a52 e3bc
000003f0: 9962 6f3b 38bc 9c3b ee92 07bd fe7a a93d

_backbone.transformer_blocks.mha_block_1.mha.to_out.bias f4 [32]
0.07004462 0.034737576 0.08814887 -0.02946696 -0.10131842 0.044160645 -0.032171458 0.03357454
0.0027976693 0.027190156 0.03875692 -0.07744133 0.025539882 -0.02785689 0.009143051 0.027653912
0.002607625 -0.046503216 0.058621973 -0.01984615 -0.039588872 -0.055056322 -0.028582597 0.061431795
-0.032599065 0.05085027 -0.02142683 -0.091143705 0.08245222 0.03914264 0.034357287 0.09239256
00000000: 8e73 8f3d fd48 0e3d 6587 b43d b264 f1bc
00000010: 0880 cfbd cbe1 343d 38c6 03bd 7585 093d
00000020: 1a59 373b e4bd de3c 93bf 1e3d 8f99 9ebd
00000030: 0439 d13c 2234 e4bc bccc 153c 758a e23c
00000040: b0e4 2a3b 287a 3ebd 981d 703d 6594 a2bc
00000050: f127 22bd bd82 61bd 0d26 eabc e89f 7b3d
00000060: 9986 05bd 5f48 503d 5287 afbc 8da9 babd
00000070: b6dc a83d 0854 203d 3aba 0c3d 4f38 bd3d
