Eunho/pytorch_stacking/saved_models/classification-22_epoch=7-valid_loss=0.49.ckpt (torch, 858814 bytes, 138 tensors)

_backbone.add_cls.weight f4 [32]
0.33879852 0.024062417 -0.15571453 0.09898747 -0.23184225 0.20366983 0.08138169 0.20006166
0.045033343 0.09259828 0.05840313 -0.010728227 0.08592741 0.06306174 -0.13365623 -0.24601835
0.16841371 0.17851742 0.21286185 -0.10561264 0.08867476 -0.109073244 0.009407472 0.28602573
0.09694772 -0.2099224 -0.16776663 -0.099821 -0.11555147 0.25870448 -0.0010866502 -0.19525464
00000000: 0077 ad3e 8c1e c53c a173 1fbe f1b9 ca3d
00000010: 0e68 6dbe d38e 503e 72ab a63d f7dc 4c3e
00000020: e274 383d 2ba4 bd3d 1f38 6f3d 72c5 2fbc
00000030: b6fa af3d 8326 813d 2edd 08be 3cec 7bbe
00000040: a574 2c3e 45cd 363e 75f8 593e 714b d8bd
00000050: 1d9b b53d cb61 dfbd cc21 1a3c f771 923e
00000060: 878c c63d e6f5 56be 04cb 2bbe f46e ccbd
00000070: 40a6 ecbd ea74 843e ee6d 8eba d5f0 47be

_backbone.transformer_blocks.mha_block_0.mha.to_qkv.weight f4 [384, 32]
0.119642854 0.14179765 0.15954174 -0.15924294 0.09065877 0.1496763 0.10191518 -0.0017429538
-0.117345154 0.07805123 0.14074007 0.10890298 -0.11914702 -0.004886761 0.17568368 0.1808145
-0.002546168 -0.17700186 0.025934057 -0.07511766 0.12680729 -0.06464784 -0.020339211 -0.18518797
0.07998847 -0.061269686 0.05959829 0.18412769 -0.078226835 -0.1276815 0.17539985 0.030176694
-0.10446214 -0.04681936 -0.025755504 0.0513071 0.14380723 -0.13736592 -0.17405671 0.09857762
0.107877515 0.024089653 -0.0633828 0.20862961 -0.22351515 0.10018349 0.19664939 0.010317352
-0.06559344 -0.21967915 -0.19397713 -0.101231925 -0.20586371 0.12974884 0.13735937 0.08496927
0.11177552 0.1226607 0.16571987 0.053533774 -0.13251463 -0.08102613 0.0014874083 0.19739205
0.10684688 0.13349526 -0.07699939 0.13124265 0.02508609 -0.1067904 -0.16329111 0.063562915
0.00346074 -0.20394157 0.0945555 -0.05255901 -0.0643627 -0.15943179 -0.06415528 0.041433204
0.032896318 -0.11209123 0.14636362 0.19496408 -0.14759861 0.036234867 0.013277428 0.044813547
-0.037552483 0.060904562 -0.06632143 -0.025285369 -0.04816839 0.114048004 -0.21519348 0.1563579
-0.04303796 -0.11141632 -0.0025221892 -0.10060226 -0.16286124 0.12420307 0.1520611 0.12629226
0.097706914 -0.09371541 -0.14991428 -0.010824884 0.098973565 -0.07850073 0.057610802 0.025273008
0.040574383 0.14140007 -0.15965119 0.05830184 0.12881328 0.16685356 -0.018572241 0.053364065
-0.13014261 0.03958434 -0.10933714 -0.12686166 0.14763948 -0.045625966 -0.10559819 0.11599373
-0.109630235 -0.03666477 -0.15663123 0.029122964 0.15821598 0.038450673 -0.09045268 -0.14928253
0.13538717 -0.07700245 0.18877429 0.09642903 0.15294884 -0.12914044 0.06754481 0.0579401
0.13042668 0.05695396 -0.0725278 -0.18596816 0.07270623 -0.015312438 0.079899766 0.06740041
0.12506364 -0.026013197 -0.108733505 0.095369235 -0.15518394 0.045574516 0.13933192 0.115675665
-0.14738853 -0.14367418 0.18599424 -0.09661681 0.035730757 -0.16523936 0.07955052 0.07386568
0.10233209 -0.02902292 -0.03143651 -0.12718344 -0.06389822 -0.09913399 -0.15584019 0.018898746
-0.1294133 -0.2101064 -0.22121471 0.024191584 0.025661692 0.1590096 0.06868159 0.09677453
-0.22062032 0.026583128 0.13343917 -0.15565953 0.022618424 -0.097867705 0.05764044 0.052904926
-0.024308793 0.022398045 -0.013292426 -0.06923672 0.023306124 -0.084639445 0.2062781 0.08093342
0.1676849 0.06277685 0.22672956 -0.17931032 -0.13986064 -0.05139894 -0.19478345 -0.042741958
-0.030078314 -0.022370262 0.012577509 0.019054353 0.08498326 -0.1262767 -0.0975436 -0.09741424
0.12329371 -0.12037027 -0.061689783 -0.17903912 0.031516835 0.18581258 0.20979714 0.11063891
-0.03891757 0.011426284 -0.04241225 -0.12156509 -0.0750514 0.05765388 0.0028417604 0.13202548
-0.070934124 0.030512694 0.08603314 -0.057051368 0.088781655 0.002006176 -0.15124147 0.008330614
0.00862558 -0.04758697 -0.16865742 0.06858746 -0.06986221 0.1834762 0.09863165 -0.031784702
0.08670263 -0.12862821 -0.10674377 0.12566406 -0.16258778 0.14858986 0.078766614 -0.12880579
00000000: 5007 f53d 6733 113e e95e 233e 9510 23be
00000010: 4eab b93d be44 193e e8b8 d03d d373 e4ba
00000020: a852 f0bd 53d9 9f3d 2a1e 103e 8708 df3d
00000030: 5a03 f4bd 1f21 a0bb 6ce6 333e 7027 393e
00000040: 9cdd 26bb fa3f 35be a973 d43c 4ad7 99bd
00000050: c5d9 013e 1666 84bd 6b9e a6bc eaa1 3dbe
00000060: ffd0 a33d ecf5 7abd 561d 743d f88b 3c3e
00000070: 6435 a0bd f0be 02be 059c 333e 1d35 f73c
00000080: 3ff0 d5bd a8c5 3fbd 35fd d2bc 6527 523d
00000090: 3442 133e a7a9 0cbe ec3b 32be 10e3 c93d
000000a0: e3ee dc3d aa57 c53c d7ce 81bd 00a3 553e
000000b0: 28e1 64be 002d cd3d 755e 493e 1c0a 293c
000000c0: da55 86bd 92f3 60be f1a1 46be af52 cfbd
000000d0: f0cd 52be e1dc 043e efa7 0c3e 5e04 ae3d
000000e0: 90ea e43d 8835 fb3d 78b2 293e 3b46 5b3d
000000f0: eab1 07be 07f1 a5bd 24f5 c23a 2421 4a3e
00000100: 89d2 da3d fbb2 083e dbb1 9dbd 7964 063e
00000110: 5881 cd3c edb4 dabd c935 27be 462d 823d
00000120: 95cd 623b 0fd6 50be 50a6 c13d 1e48 57bd
00000130: 97d0 83bd 1642 23be d863 83bd ddb5 293d
00000140: 4abe 063d 1690 e5bd 58e0 153e aaa4 473e
00000150: 1724 17be 036b 143d 9289 593c 698e 373d
00000160: a2d0 19bd 1077 793d 88d3 87bd 4323 cfbc
00000170: 384c 45bd 0092 e93d ae5b 5cbe 491c 203e
00000180: 9248 30bd 3d2e e4bd 504b 25bb 8f08 cebd
00000190: 19c5 26be 2e5e fe3d e8b5 1b3e c252 013e
000001a0: 901a c83d dded bfbd 2183 19be db5a 31bc
000001b0: a7b2 ca3d fec4 a0bd 4ef9 6b3d 5709 cf3c
000001c0: 5331 263d 2ecb 103e 9a7b 23be e9cd 6e3d
000001d0: a1e7 033e a9db 2a3e d024 98bc 4794 5a3d
000001e0: 1b44 05be 3023 223d 27ec dfbd 06e8 01be
000001f0: ce2e 173e 4be2 3abd dd43 d8bd 1f8e ed3d
00000200: d185 e0bd cc2d 16bd f063 20be 4893 ee3c
00000210: 5f03 223e 747e 1d3d 413f b9bd 85dd 18be
00000220: efa2 0a3e 76b3 9dbd 0c4e 413e 957c c53d
00000230: 9f9e 1c3e 643d 04be ef54 8a3d 9952 6d3d
00000240: 928e 053e 8e48 693d 7589 94bd 706e 3ebe
00000250: 01e7 943d 05e1 7abc 7da2 a33d 3a09 8a3d
00000260: af10 003e a119 d5bc acaf debd f250 c33d
00000270: 8ae8 1ebe 58ac 3a3d 07ad 0e3e 5de7 ec3d
00000280: 05ed 16be 531f 13be 4675 3e3e 09df c5bd
00000290: 6a5a 123d 8234 29be 62eb a23d e446 973d
000002a0: 7d93 d13d 7ac1 edbc 92c3 00bd 603c 02be
000002b0: 12dd 82bd c306 cbbd 9294 1fbe 8bd1 9a3c
000002c0: ec84 04be 2226 57be 1c86 62be 6e2d c63c
000002d0: 7838 d23c 6ad3 223e efa8 8c3d ba31 c63d
000002e0: 4bea 61be dcc4 d93c 47a4 083e 3665 1fbe
000002f0: 464a b93c dd6e c8bd 6218 6c3d d6b2 583d
00000300: 3c23 c7bc 1b7c b73c 7ac8 59bc fbcb 8dbd
00000310: 7cec be3c 7257 adbd 913a 533e 6cc0 a53d
00000320: 97b5 2b3e 2691 803d cb2b 683e 209d 37be
00000330: a137 0fbe b287 52bd 5075 47be 3112 2fbd
00000340: cc66 f6bc d741 b7bc e511 4e3c e017 9c3c
00000350: b40b ae3d ae4e 01be f0c4 c7bd 1e81 c7bd
00000360: 6a81 fc3d b084 f6bd 6dae 7cbd 0856 37be
00000370: cc17 013d a745 3e3e 10d5 563e a796 e23d
00000380: 0868 1fbd 4f35 3b3c 78b8 2dbd 1ef7 f8bd
00000390: 8cb4 99bd 7a26 6c3d d43c 3a3b b031 073e
000003a0: e945 91bd c2f5 f93c 2532 b03d b2ae 69bd
000003b0: 28d3 b53d 0c7a 033b 0bdf 1abe 217d 083c
000003c0: 4e52 0d3c 8eea 42bd 88b4 2cbe 9577 8c3d
000003d0: eb13 8fbd 2fe1 3b3e 64ff c93d ad30 02bd
000003e0: 2691 b13d 1db7 03be 7a9c dabd 14ae 003e
000003f0: 697d 26be f127 183e 6450 a13d aae5 03be

_backbone.transformer_blocks.mha_block_0.mha.to_out.weight f4 [32, 128]
-0.06893063 0.08193272 0.031723972 0.0037485247 -0.035519667 -0.011118667 0.076659635 0.09469315
0.0532542 -0.08501376 -0.060162902 0.087258376 -0.073434405 0.00688781 0.08672372 -0.053108968
0.058834415 -0.02909109 -0.027706146 -0.021017512 -0.027085224 -0.0065301433 0.04621403 0.082370825
0.059760187 -0.03939175 0.04052457 0.02509311 -0.06593811 -0.005428132 0.0037769135 -0.090104364
-0.025930516 -0.044083174 -0.023655277 0.039843556 -0.08193987 0.010978134 0.020030625 -0.11452182
-0.043561358 -0.06507378 -0.08980187 0.04372281 0.06028369 0.11279734 0.025603486 0.01988515
0.017551458 0.08008392 0.058635194 -0.030005636 0.022904191 0.023957113 0.06055116 0.016834233
0.00032517867 0.05038894 0.11883938 -0.05049645 0.03799594 0.022728948 0.03884235 0.020087186
0.05306141 -0.11452818 0.04279064 0.012000482 -0.006077117 -0.035684012 -0.03823168 -0.055127576
-0.00879552 -0.038904127 0.046113748 0.05613662 0.025151199 0.10932094 0.106615275 -0.01087303
-0.06057421 0.0051402673 -0.083779864 0.08509944 0.023314334 0.073488444 -0.08553702 0.010310937
0.029253809 -0.060006678 -0.032021035 0.008405979 0.06563073 0.06011713 0.08195038 0.060288984
-0.10502737 0.069815084 0.045648135 0.022464205 0.010853876 0.015013636 -0.0098981485 -0.02625421
0.019914836 0.06913668 0.014450089 -0.025770318 0.011291948 0.06879572 0.077127986 -0.048991423
-0.11881184 0.06904976 -0.09948631 -0.009527745 -0.008844502 -0.058375712 -0.009403272 0.08542415
0.04739041 -0.030491112 -0.04657323 -0.06108653 -0.04633742 -0.10281841 0.050251734 0.046548206
0.015453014 -0.027713025 -0.03865797 -0.038688757 0.08532501 0.06312294 -0.0388799 0.013512004
-0.02400314 0.09516667 0.06572935 0.010267598 0.04084021 -0.08827711 -0.0519524 0.04398113
-0.08409891 -0.040692337 -0.012901777 0.044039585 0.014048332 0.0695389 0.04173504 0.011922736
0.023145841 -0.041242927 -0.07597139 0.052469227 -0.039401054 -0.045164984 -0.084141195 -0.012150594
-0.009282315 0.061160207 -0.06376135 0.024754403 -0.0026222237 -0.102275096 -0.06775445 -0.059114285
0.018431641 0.07610655 0.012980634 -0.08958681 0.067662604 0.04664572 -0.039115127 0.05787483
0.033773128 -0.032295316 0.020274693 0.054203562 0.042370964 0.052725516 -0.08925918 -0.042081956
0.06572369 -0.029647188 -0.010554807 -0.050916776 -0.039593324 0.08548589 0.06726946 -0.039305132
-0.046292108 0.0064392136 -0.055825885 -0.01684745 0.09879418 0.06102305 -0.06274466 0.07742466
-0.033073988 -0.053911723 0.031302575 -0.012570727 -0.04061506 0.033007156 -0.013839557 0.04074182
0.07366324 -0.027528856 0.07343336 0.08436032 -0.08558584 0.071489125 0.05237585 -0.024703495
-0.046577986 -0.024645338 0.018029502 0.056750022 0.006447134 0.017372582 0.05603524 -0.04789308
-0.03172961 -0.011350327 0.041734077 -0.080189504 0.032707714 0.030415988 -0.035670206 -0.042068325
-0.008327072 -0.008024995 -0.026238 0.01278488 0.020810628 -0.026229197 -0.0047482084 -0.09715486
-0.014707295 -0.03630954 -0.013453501 -0.012428769 -0.05778557 0.028083486 0.019686839 0.00037781766
-0.056158327 0.0075268024 0.09650949 0.06270784 0.09393561 0.039493114 0.058113784 0.025035908
00000000: 812b 8dbd 58cc a73d fff0 013d cfa9 753b
00000010: 127d 11bd 122b 36bc baff 9c3d 7bee c13d
00000020: 1321 5a3d b21b aebd 606d 76bd 85b4 b23d
00000030: c764 96bd 23b3 e13b 359c b13d ca88 59bd
00000040: 5bfc 703d 7050 eebc 00f8 e2bc eb2c acbc
00000050: d5e1 ddbc d0fa d5bb ec4a 3d3d 09b2 a83d
00000060: 19c7 743d 3e59 21bd 17fd 253d 1190 cd3c
00000070: 8f0a 87bd 79de b1bb 1886 773b a388 b8bd
00000080: 3c6c d4bc 8f90 34bd b6c8 c1bc ff32 233d
00000090: 17d0 a7bd a2dd 333c 4417 a43c 6a8a eabd
000000a0: 656d 32bd 6745 85bd 0bea b7bd b016 333d
000000b0: 08ec 763d 4b02 e73d 67be d13c 2fe6 a23c
000000c0: 13c8 8f3c 0a03 a43d 752b 703d 61ce f5bc
000000d0: 92a1 bb3c b541 c43c 7e04 783d f2e7 893c
000000e0: be7c aa39 a264 4e3d 1062 f33d 5ed5 4ebd
000000f0: a1a1 1b3d 0f32 ba3c 2819 1f3d e28d a43c
00000100: ec56 593d c08d eabd 3d45 2f3d ab9d 443c
00000110: 8d22 c7bb 6629 12bd d298 1cbd 74cd 61bd
00000120: 161b 10bc ef59 1fbd c5e1 3c3d 83ef 653d
00000130: e309 ce3c a8e3 df3d 1c59 da3d cb24 32bc
00000140: aa1c 78bd b06f a83b c794 abbd 9d48 ae3d
00000150: b4fd be3c 1c81 963d 082e afbd 34ef 283c
00000160: afa5 ef3c 90c9 75bd 7d28 03bd 3bb9 093c
00000170: 6769 863d 613d 763d 9ad5 a73d 95f1 763d
00000180: 9718 d7bd 36fb 8e3d 8af9 3a3d da06 b83c
00000190: 75d4 313c c1fb 753c d82b 22bc 1213 d7bc
000001a0: 7024 a33c 8897 8d3d 11c0 6c3c 461c d3bc
000001b0: dd01 393c c5e4 8c3d 47f5 9d3d 3bab 48bd
000001c0: 9f53 f3bd f669 8d3d 7abf cbbd 421a 1cbc
000001d0: 88e8 10bc 5f1b 6fbd 2e10 1abc dbf2 ae3d
000001e0: 721c 423d 7fc8 f9bc 92c3 3ebd df35 7abd
000001f0: 4ecc 3dbd 7592 d2bd c3d4 4d3d 55a9 3e3d
00000200: a32e 7d3c 6d06 e3bc d257 1ebd 1a78 1ebd
00000210: e1be ae3d 9a46 813d 8840 1fbd 7461 5d3c
00000220: 3ca2 c4bc bee6 c23d 1c9d 863d 6d39 283c
00000230: 1048 273d a1ca b4bd 0acc 54bd 8f25 343d
00000240: 0d3c acbd 02ad 26bd fa61 53bc da62 343d
00000250: fa2a 663c 696a 8e3d 5cf2 2a3d 9457 433c
00000260: 599c bd3c 58ee 28bd e396 9bbd f9e9 563d
00000270: 0063 21bd ebfe 38bd 3852 acbd 4913 47bc
00000280: da14 18bc 2083 7a3d 5095 82bd bfc9 ca3c
00000290: 9dd9 2bbb 9b75 d1bd d8c2 8abd d221 72bd
000002a0: f4fd 963c c0dd 9b3d baac 543c 4a79 b7bd
000002b0: b192 8a3d 950f 3f3d 2f37 20bd 280e 6d3d
000002c0: b155 0a3d 1848 04bd 1d17 a63c 8e04 5e3d
000002d0: 2d8d 2d3d b6f6 573d 84cd b6bd 215e 2cbd
000002e0: 249a 863d a9de f2bc 12ee 2cbc 1c8e 50bd
000002f0: 9c2c 22bd 3a13 af3d 92c4 893d 6bfe 20bd
00000300: cb9c 3dbd 0a00 d33b afa9 64bd aa03 8abc
00000310: 9a54 ca3d 4ef3 793d 4680 80bd d290 9e3d
00000320: 9778 07bd 8ad2 5cbd 2137 003d 73f5 4dbc
00000330: fa5b 26bd 8332 073d 4fbf 62bc e5e0 263d
00000340: c1dc 963d 3284 e1bc 3b64 963d 1ac5 ac3d
00000350: a147 afbd e468 923d 0f88 563d fc5e cabc
00000360: 8fc8 3ebd 05e5 c9bc 9bb2 933c b672 683d
00000370: 7b42 d33b f250 8e3c 3585 653d 892b 44bd
00000380: e8f6 01bd b9f6 39bc 5af1 2a3d 653a a4bd
00000390: 86f8 053d f32a f93c ec1a 12bd d64f 2cbd
000003a0: 456e 08bc 457b 03bc 13f1 d6bc ac77 513c
000003b0: 0d7b aa3c 9dde d6bc dc96 9bbb 21f9 c6bd
000003c0: def6 70bc 50b9 14bd 136c 5cbc 09a2 4bbc
000003d0: 90b0 6cbd 570f e63c 4b46 a13c d415 c639
000003e0: 4606 66bd 65a3 f63b c4a6 c53d f86c 803d
000003f0: 5061 c03d 88c3 213d b808 6e3d 1b18 cd3c

_backbone.transformer_blocks.mha_block_0.mha.to_out.bias f4 [32]
-0.03841977 -0.037819784 -0.026591204 0.028071083 -0.017992167 0.05611984 0.049741726 0.054007858
0.060438864 -0.06381743 -0.07124394 0.06614185 0.05520231 -0.054778636 0.012771029 -0.105356425
0.037754674 -0.04633533 -0.04133713 0.061808676 0.02066411 0.028014945 -0.021665169 -0.041877914
0.044944216 -0.017359434 -0.0105271945 -0.054661494 -0.08995003 0.066415675 -0.0026493268 -0.058122512
00000000: 0c5e 1dbd ebe8 1abd ccd5 d9bc 54f5 e53c
00000010: 4f64 93bc ebdd 653d fbbd 4b3d 5837 5d3d
00000020: be8e 773d b6b2 82bd 58e8 91bd 6175 873d
00000030: d11b 623d 905f 60bd 943d 513c 1cc5 d7bd
00000040: a5a4 1a3d 1dca 3dbd 1f51 29bd 182b 7d3d
00000050: c847 a93c 997f e53c 277b b1bc 2d88 2bbd
00000060: 6d17 383d 5f35 8ebc 417a 2cbc bbe4 5fbd
00000070: b937 b8bd f104 883d 54a0 2dbb df11 6ebd

_backbone.transformer_blocks.mha_block_0.pos_wise_ff.ffn.layer1.weight f4 [128, 32]
0.037973713 0.00877041 -0.041440785 0.1410102 -0.06895909 -0.14577518 0.0047970065 -0.13632952
0.07453447 0.100002155 0.0063696313 -0.009443641 0.0053250673 0.12117715 0.041215803 0.11433109
0.103383 0.14229356 0.15601277 0.028356677 -0.090886116 0.12726527 0.09079836 0.14776988
-0.09224742 0.10739145 0.093672045 0.10826108 0.017734583 0.076535426 0.059718072 0.13107376
-0.019683035 0.029900497 -0.043938126 -0.16708648 0.123604454 0.17000093 0.13579516 0.17768711
-0.12395454 -0.041675877 0.1732007 0.020138102 -0.015194114 -0.028278798 -0.029165134 0.08077708
-0.15524015 -0.052976593 -0.20063193 -0.1163174 -0.13462219 -0.18182068 0.015928915 0.076515794
0.123598784 -0.08788216 0.053698357 0.07935435 -0.16628228 -0.09258494 0.015850307 -0.0006155038
-0.08630041 -0.124918595 0.030297806 -0.015218638 -0.027940525 -0.006560304 0.10878554 -0.036544792
0.18917511 0.03017804 0.025524085 -0.06650401 0.036640696 -0.14073007 -0.054550543 -0.10226669
0.00018328903 -0.063878514 -0.10279399 0.135195 -0.03301241 0.006022622 -0.026961004 -0.1067332
-0.01811317 -0.04168425 0.1314926 0.15304308 -0.097201906 -0.063402675 -0.021427024 -0.17347327
0.18256858 0.16446896 0.0022963488 -0.14296158 0.1356553 0.10912719 -0.039787114 0.04860225
0.02504936 -0.21283191 -0.12898389 0.003296232 -0.15359648 -0.08197292 0.032951903 -0.006435986
0.16485193 -0.20684434 -0.18187742 -0.08661919 0.06332014 -0.1313325 0.066452876 -0.03509553
-0.084286965 0.04443977 -0.1027105 -0.17716815 -0.15880431 -0.17004618 -0.07923175 0.0048293723
0.17773078 0.02356615 -0.098576374 0.025871927 0.1631224 0.010494463 0.1797656 -0.042709384
0.04850812 0.017035523 -0.10219413 -0.17462055 -0.1358415 -0.15071844 0.07272517 -0.09072857
0.110072166 0.09004026 -0.1480249 0.14604513 -0.15496056 0.06744175 0.068404086 0.11677593
0.121057995 0.030723812 0.14611104 0.028606882 -0.029325034 -0.107100666 0.0807662 -0.010227454
0.16191274 -0.124642506 0.026016315 0.17027284 -0.017154977 -0.08669453 0.032159604 0.009310663
0.12766242 -0.056254424 0.01763676 -0.11083199 0.03433867 0.1765008 -0.0071663857 -0.11408923
-0.07765595 0.042219575 0.1250342 -0.16144285 0.101454556 -0.14440878 -0.054986827 -0.1048129
0.06047493 -0.119566545 0.054503575 0.15599892 -0.08932712 -0.0078567155 0.13121212 -0.11001528
-0.058102418 -0.1507425 0.1819213 -0.063140064 0.013991295 0.09077517 -0.08296123 -0.053475533
-0.17177002 -0.17223561 -0.10403146 0.14519773 -0.085466154 0.12369349 0.103477955 0.13230649
0.021425372 0.08735311 -0.15226771 0.10747763 -0.16975838 -0.07047276 -0.024461297 0.10173486
-0.11780087 0.10729741 -0.048893802 -0.019233374 -0.15267669 -0.04841671 0.123356104 0.12371293
0.049695067 0.18738781 0.0927532 0.13048412 0.08398086 -0.20754077 -0.08985161 0.194711
0.13085754 -0.13323247 0.028321305 0.044506647 -0.11414294 -0.0066957627 0.18553099 0.124079876
-0.00901302 0.09580146 -0.011431618 -0.03854921 0.11688823 -0.041915387 -0.2389207 -0.122497134
-0.003940036 -0.1693241 -0.20910676 0.08135278 0.12128022 -0.1757271 -0.18305844 0.18464015
00000000: 538a 1b3d c4b1 0f3c d0bd 29bd fa64 103e
00000010: 6c3a 8dbd 1746 15be 3530 9d3b f799 0bbe
00000020: 87a5 983d eecd cc3d 57b8 d03b 80b9 1abc
00000030: e77d ae3b ba2b f83d e7d1 283d 6b26 ea3d
00000040: 77ba d33d 67b5 113e d0c1 1f3e 434c e83c
00000050: 8022 babd d451 023e 7ef4 b93d fd50 173e
00000060: 37ec bcbd 0cf0 db3d 21d7 bf3d fcb7 dd3d
00000070: 1e48 913c 9bbe 9c3d f09a 743d 3338 063e
00000080: 513e a1bc e3f1 f43c 77f8 33bd b818 2bbe
00000090: 5524 fd3d b914 2e3e e30d 0b3e 9cf3 353e
000000a0: e1db fdbd 53b4 2abd 865b 313e a9f8 a43c
000000b0: bcf0 78bc f0a8 e7bc b8eb eebc 746e a53d
000000c0: 46f7 1ebe fcfd 58bd 7572 4dbe d137 eebd
000000d0: 66da 09be 332f 3abe 5b7d 823c 50b4 9c3d
000000e0: 5c21 fd3d 90fb b3bd cff2 5b3d 8984 a23d
000000f0: e745 2abe 2c9d bdbd 81d8 813c c359 21ba
00000100: 45be b0bd 52d5 ffbd 1b33 f83c 9857 79bc
00000110: 87e3 e4bc d2f7 d6bb f4ca de3d feaf 15bd
00000120: 1fb7 413e f037 f73c e317 d13c 4133 88bd
00000130: 8e14 163d 8b1b 10be 6470 5fbd 3371 d1bd
00000140: 4631 4039 bdd2 82bd a885 d2bd 8f70 0a3e
00000150: 0538 07bd 6a59 c53b 53dd dcbc f096 dabd
00000160: 1262 94bc 1bbd 2abd ffa5 063e 53b7 1c3e
00000170: cb11 c7bd 43d9 81bd ba87 afbc faa2 31be
00000180: 42f3 3a3e 8d6a 283e 577e 163b 8564 12be
00000190: 39e9 0a3e 147e df3d d0f7 22bd 2713 473d
000001a0: 5134 cd3c 9cf0 59be 5a14 04be 9905 583b
000001b0: 6548 1dbe 6be1 a7bd 93f8 063d f7e4 d2bb
000001c0: f2ce 283e 01cf 53be 133e 3abe 6765 b1bd
000001d0: fdad 813d 077c 06be 7218 883d 55c0 0fbd
000001e0: a59e acbd 7a06 363d e259 d2bd 916b 35be
000001f0: 999d 22be 9620 2ebe 4144 a2bd b63f 9e3b
00000200: 0fff 353e cc0d c13c 69e2 c9bd 5df1 d33c
00000210: 8f09 273e f8f0 2b3c 7914 383e 09f0 2ebd
00000220: 73b0 463d 158e 8b3c 284b d1bd bbcf 32be
00000230: 091a 0bbe ef55 1abe eff0 943d e7cf b9bd
00000240: 846d e13d 0767 b83d d793 17be db8c 153e
00000250: fbad 1ebe e61e 8a3d 7117 8c3d 3828 ef3d
00000260: 41ed f73d 81b0 fb3c 229e 153e fb58 ea3c
00000270: 0e3b f0bc 9857 dbbd c068 a53d 0d91 27bc
00000280: 74cc 253e 9244 ffbd 2b20 d53c 015c 2e3e
00000290: 9888 8cbc e78c b1bd cab9 033d c08b 183c
000002a0: f0b9 023e 0a6b 66bd f77a 903c e2fb e2bd
000002b0: b5a6 0c3d a0bc 343e 00d4 eabb 9da7 e9bd
000002c0: 150a 9fbd 6fee 2c3d f708 003e 4651 25be
000002d0: 68c7 cf3d e5df 13be de39 61bd 25a8 d6bd
000002e0: 8fb4 773d 4edf f4bd 243f 5f3d 2ebe 1f3e
000002f0: 23f1 b6bd 74b9 00bc 785c 063e b14f e1bd
00000300: cdfc 6dbd 3e5c 1abe 9449 3a3e 944f 81bd
00000310: bf3b 653c 55e8 b93d 94e7 a9bd 2909 5bbd
00000320: 7be4 2fbe 885e 30be 720e d5bd b7ae 143e
00000330: e108 afbd 0353 fd3d 40ec d33d 5a7b 073e
00000340: 4384 af3c 30e6 b23d 11ec 1bbe 3b1d dc3d
00000350: 24d5 2dbe 0654 90bd 0f63 c8bc 5e5a d03d
00000360: 9541 f1bd bfbe db3d de44 48bd 4f8f 9dbc
00000370: 4757 1cbe 9a50 46bd 20a2 fc3d 345d fd3d
00000380: 0e8d 4b3d 97e2 3f3e 64f5 bd3d a19d 053e
00000390: 28fe ab3d 9185 54be 1f04 b8bd 5262 473e
000003a0: 85ff 053e 186e 08be 1502 e83c 9a4c 363d
000003b0: c6c3 e9bd 2168 dbbb d6fb 3d3e 971d fe3d
000003c0: 59ab 13bc 8e33 c43d ae4b 3bbc c7e5 1dbd
000003d0: 1963 ef3d 78af 2bbd a1a7 74be c7df fabd
000003e0: 6b1b 81bb 4c63 2dbe 1520 56be 499c a63d
000003f0: c461 f83d cef1 33be ac73 3bbe 4f12 3d3e

_backbone.transformer_blocks.mha_block_0.pos_wise_ff.ffn.layer2.weight f4 [32, 128]
0.026427064 -0.013410854 -0.06601551 0.04469369 -0.060086492 0.039248087 0.03408852 -0.042391706
0.08574444 0.051941827 -0.05037056 0.023387942 0.077117994 -0.042170644 -0.034159433 0.016892027
-0.034549728 0.032093335 -0.036420837 -0.046435103 0.10199264 -0.016455347 0.026149401 -0.033365566
-0.07921148 -0.018534208 0.0604926 -0.0237185 0.04611684 -0.0044440283 -0.06569162 0.08401745
-0.08912084 0.07679262 0.0831036 0.11072714 0.07421713 0.036455676 -0.037645917 -0.07234469
0.02633173 -0.02076237 -0.007585339 0.042994313 0.123193905 0.043426495 0.053236708 0.025755
-0.024878344 0.004683734 0.019166837 -0.06087654 -0.056677233 0.13473116 -0.028169725 -0.04703174
-0.018423835 0.055527776 -0.07089758 -0.028028084 0.021623224 -0.014895664 -0.06881768 0.039263893
-0.028303826 0.058902472 -0.1014376 -0.05406712 0.0124857975 0.09930765 -0.027000107 0.12120453
-0.040180225 -0.10708976 -0.040594004 0.06365031 0.07950894 -0.0725791 0.080151595 0.0033228064
0.01649519 -0.011685634 0.031291965 0.027608028 0.051165152 -0.036992144 0.051270474 -0.035991136
0.016473504 0.05771011 0.059759352 0.05981282 -0.081306435 -0.031569537 0.06566142 0.08548941
0.0994841 0.04771792 0.03540303 -0.009506677 -0.020887475 -0.11100241 -0.033370405 0.015478609
0.051432 0.050980166 0.061057698 0.012068869 0.056832414 -0.05218667 -0.042856507 0.059155755
0.12060963 -0.027301967 -0.076827414 -0.04468477 0.02852887 0.04992103 -0.05563026 -0.052608274
0.099382736 0.04449623 -0.031670082 0.03016002 0.06056489 0.030544741 0.01350844 -0.09806849
0.032172438 -0.002621683 -0.09402513 0.05038495 0.05367901 -0.09336535 -0.022131074 -0.045608174
-0.004211984 0.047250543 -0.015776858 -0.076648965 -0.02035863 0.033326004 0.022283502 0.020615565
-0.04363686 -0.04430098 -0.024761168 0.007901964 -0.025937527 -0.040535834 0.037744164 -0.0038239867
0.03459958 0.0037212945 -0.05773818 -0.081637 -0.01374394 -0.014925793 0.0111768255 0.052181974
0.010796038 0.010890137 -0.046091437 -0.03365057 0.051799234 -0.020974396 0.046260197 -0.07444174
0.078191705 -0.09425214 0.09019289 -0.03197245 0.0046138396 0.036008116 0.065720916 -0.018029729
-0.057800576 0.058190707 -0.068015285 -0.050340094 0.071577094 -0.06679762 -0.072161056 0.070902616
0.02202151 -0.05293019 -0.06141651 -0.07648233 0.008563674 -0.0043132044 -0.06675851 -0.020409117
-0.0006091979 0.04199518 -0.09000686 0.019326698 -0.07207089 0.04091368 0.01096068 -0.08333636
-0.048123535 -0.043553866 0.039163083 -0.07312393 0.07124956 0.013310884 -0.07677824 -0.0022768893
-0.046848472 -0.09911605 -0.0695803 -0.059335932 0.007121533 0.05569593 0.0429503 -0.047264524
0.071745284 -0.0671233 0.09566718 -0.00871012 -0.069668815 -0.09895097 -0.057823338 0.06415517
-0.07596205 -0.025197234 -0.050566502 0.05311847 0.010685489 -0.09511159 -0.08578044 0.06068635
0.067869514 0.06021335 -0.0022303252 -0.080347575 0.08116399 -0.075861916 0.097421706 -0.048408195
-0.0024873049 0.089924395 0.029359573 -0.012519405 -0.025101393 0.05143996 0.05865635 -0.07574072
0.06311774 0.0020297442 -0.06347496 0.030836858 0.0550728 0.021269402 -0.01633721 0.046518132
00000000: 927d d83c 33b9 5bbc 2433 87bd bb10 373d
00000010: 411d 76bd 9ac2 203d 67a0 0b3d eda2 2dbd
00000020: c89a af3d f4c0 543d 5c51 4ebd 1298 bf3c
00000030: 0af0 9d3d 20bb 2cbd c3ea 0bbd 2661 8a3c
00000040: 0484 0dbd 4d74 033d 042e 15bd bc32 3ebd
00000050: 84e1 d03d 5dcd 86bc 4537 d63c 55aa 08bd
00000060: a139 a2bd 0dd5 97bc 17c7 773d 4d4d c2bc
00000070: 03e5 3c3d 369f 91bb 5489 86bd 5711 ac3d
00000080: fd84 b6bd 7345 9d3d 3832 aa3d e9c4 e23d
00000090: 27ff 973d 8c52 153d 9b32 1abd 7429 94bd
000000a0: a4b5 d73c d915 aabc 6f8e f8bb ce1a 303d
000000b0: 164d fc3d fbdf 313d bc0e 5a3d 26fc d23c
000000c0: abcd cbbc 027a 993b c503 9d3c ae59 79bd
000000d0: 6326 68bd f7f6 093e 32c4 e6bc 5ba4 40bd
000000e0: 95ed 96bc 1871 633d c032 91bd 279b e5bc
000000f0: 3023 b13c f10c 74bc 49f0 8cbd 2dd3 203d
00000100: 6ddd e7bc b843 713d 84be cfbd 7c75 5dbd
00000110: 3b91 4c3c cf61 cb3d 542f ddbc 153a f83d
00000120: 0594 24bd e051 dbbd e645 26bd 185b 823d
00000130: 95d5 a23d 5aa4 94bd 8526 a43d 71c3 593b
00000140: ec20 873c 1a75 3fbc 012c 003d 3b2a e23c
00000150: 8d92 513d 1385 17bd fd00 523d 716b 13bd
00000160: 71f3 863c 7061 6c3d 39c6 743d 4afe 743d
00000170: fd83 a6bd 0f4f 01bd 7f79 863d 1215 af3d
00000180: 52be cb3d de73 433d c502 113d e5c1 1bbc
00000190: 361c abbc 3b55 e3bd 68af 08bd fe99 7d3c
000001a0: 5caa 523d 94d0 503d a317 7a3d 81bc 453c
000001b0: 1bc9 683d b1c1 55bd 4e8a 2fbd 4e4d 723d
000001c0: 2f02 f73d 60a8 dfbc b157 9dbd 6107 37bd
000001d0: 60b5 e93c fe79 4c3d 8edc 63bd c67b 57bd
000001e0: 2d89 cb3d ae41 363d 7db8 01bd 2512 f73c
000001f0: e412 783d f738 fa3c 8152 5d3c 22d8 c8bd
00000200: 3fc7 033d 8bd0 2bbb 3f90 c0bd 7360 4e3d
00000210: 86de 5b3d 5536 bfbd 3a4c b5bc a3cf 3abd
00000220: af04 8abb c989 413d 783e 81bc 22fa 9cbd
00000230: 24c7 a6bc d980 083d e48b b63c f9e1 a83c
00000240: 90bc 32bd f274 35bd efd7 cabc 3d77 013c
00000250: f07a d4bc e708 26bd a099 1a3d da9b 7abb
00000260: 4ab8 0d3d f6e0 733b df7e 6cbd 4d31 a7bd
00000270: 432e 61bc 508b 74bc 011f 373c c4bc 553d
00000280: dee1 303c 8c6c 323c 60ca 3cbd 2ed5 09bd
00000290: 6f2b 543d 7fd2 abbc 557b 3d3d e974 98bd
000002a0: f922 a03d 4407 c1bd 0db7 b83d 8bf5 02bd
000002b0: b12f 973b 3f7d 133d b098 863d 15b3 93bc
000002c0: 4cc0 6cbd 6159 6e3d 994b 8bbd 6a31 4ebd
000002d0: 0397 923d 31cd 88bd 2dc9 93bd 6435 913d
000002e0: 7466 b43c 54cd 58bd e18f 7bbd c5a2 9cbd
000002f0: a74e 0c3c c855 8dbb b0b8 88bd 0531 a7bc
00000300: 94b2 1fba 2303 2c3d 8455 b8bd 0653 9e3c
00000310: e799 93bd 1a95 273d 6d94 333c 41ac aabd
00000320: 2f1d 45bd 8a65 32bd 7869 203d 00c2 95bd
00000330: 4aeb 913d e515 5a3c e93d 9dbd dd37 15bb
00000340: 2fe4 3fbd 5bfd cabd 1e80 8ebd 3c0a 73bd
00000350: c05b e93b 6a21 643d a7ec 2f3d 7298 41bd
00000360: 31ef 923d f177 89bd 28ed c33d e4b4 0ebc
00000370: 86ae 8ebd cea6 cabd 2ad8 6cbd c963 833d
00000380: fe91 9bbd 6e6a cebc d21e 4fbd c192 593d
00000390: 3012 2f3c dec9 c2bd a8ad afbd 4092 783d
000003a0: 2cff 8a3d 46a2 763d a62a 12bb 458d a4bd
000003b0: 4e39 a63d 7e5d 9bbd 0885 c73d ac47 46bd
000003c0: 0d02 23bb 482a b83d 7d83 f03c 311e 4dbc
000003d0: 70a1 cdbc b5b2 523d a441 703d f31d 9bbd
000003e0: e043 813d 7505 053b 29ff 81bd 949d fc3c
000003f0: 0494 613d 2b3d ae3c 9dd5 85bc cc89 3e3d

_backbone.transformer_blocks.mha_block_0.pos_wise_ff.ffn.linear_v.weight f4 [128, 32]
-0.06276526 0.030581174 -0.0004422892 0.059963506 0.052007854 0.07760165 -0.14760606 0.051978085
-0.066865705 0.11041277 -0.110387936 0.039814252 0.15765573 -0.029290313 -0.18214945 -0.083331764
-0.09040676 0.017437592 0.17065328 -0.07171522 0.06989568 0.14233881 0.13389163 0.0073225778
-0.10127702 0.040440354 0.05424756 -0.012888783 0.00730536 0.0043143784 0.11165344 -0.12850879
0.074458435 0.16376962 -0.029051766 0.03217927 -0.14542009 -0.19643442 0.014139769 0.19300893
-0.0772087 0.060393155 0.063837275 -0.15255584 0.11273776 -0.08983912 -0.02160627 0.046269715
0.012532851 0.15829572 0.102815725 -0.04434699 -0.16972935 0.17505534 -0.0035365166 -0.09530077
0.102603786 -0.041509558 0.14600645 -0.045243822 0.11381934 -0.17438658 -0.058719147 0.024464685
-0.026035834 -0.022631539 0.0474566 0.056262158 -0.10102652 0.036904737 0.110009655 -0.07598876
-0.16563156 0.17106517 0.0689782 0.15840252 0.131067 -0.045417845 -0.10034428 0.11859281
-0.14403972 -0.04360655 0.082876265 0.0055491826 -0.12852687 -0.14995936 -0.02264092 -0.043294594
0.1675019 0.024632191 0.12553337 0.05757163 -0.15029658 -0.16880473 0.02600892 -0.0959619
0.15231521 -0.07202811 -0.060610216 -0.010035246 0.13785881 -0.123473205 0.19359778 0.15315376
-0.18926737 -0.07172758 0.1160626 0.16118553 -0.04552053 0.10620027 0.16575001 0.17092434
0.050088253 -0.1828868 0.12681167 -0.16538937 -0.1625947 -0.08116748 -0.10646049 -0.0023944576
-0.13605663 -0.063120216 -0.1862759 0.022638695 -0.1451021 -0.10731783 0.08063682 -0.051679116
-0.028435415 -0.10783391 0.15047885 -0.17506066 -0.16195399 -0.0004918364 -0.039359175 -0.15019287
0.13983692 0.01714221 0.026189908 -0.12418015 -0.10768518 0.153032 0.057119954 -0.13335687
-0.16364528 -0.09423082 0.06967224 0.13593288 0.14668228 -0.01622133 -0.14142592 0.13757628
-0.046910122 -0.14526977 -0.14277358 -0.08508883 0.0654624 0.03072205 -0.04521251 0.16314235
0.117046654 -0.13019054 -0.16694495 0.104491316 0.15809661 0.08047276 0.0012741188 -0.04434998
-0.060692064 0.15384309 0.12848891 0.15000279 -0.05900594 0.025867898 -0.02504523 -0.114239566
-0.18651842 -0.16091016 0.10093502 0.18817195 -0.036210205 0.1306813 -0.13655616 -0.1537228
-0.1853492 0.13600184 0.08398416 0.07841448 -0.09470397 -0.09599401 0.051378615 0.10285388
0.07371708 -0.08241747 0.065062925 0.12436294 0.13536125 -0.15516667 0.13073339 0.03472687
-0.037642337 0.027066756 0.16105181 -0.05983358 -0.14739463 0.14093196 0.1656334 0.045513224
0.1149052 -0.10441117 0.1215997 -0.17246121 0.02894712 0.05869996 -0.1474429 0.025533002
-0.06495705 0.016032211 0.13195181 -0.111856185 0.013966168 -0.065192595 0.053989507 -0.15814753
0.14496948 -0.050445665 0.10646988 0.051290262 0.12558188 0.09480554 -0.061532766 -0.055164374
-0.14284718 0.06782822 -0.028531998 -0.055604525 0.021172235 0.056623124 -0.03991405 -0.12079151
0.0765385 -0.1904887 0.13101968 0.027252488 0.1418822 -0.19433948 -0.12477875 0.06231295
0.09931476 -0.26675376 -0.1906074 -0.14516494 0.030433714 -0.098795496 -0.19258143 0.00088587566
00000000: 138b 80bd 5f85 fa3c 0de3 e7b9 4b9c 753d
00000010: 3006 553d 9ded 9e3d 0b26 17be f9e6 543d
00000020: e3f0 88bd 1720 e23d 1213 e2bd 4514 233d
00000030: 8170 213e 3df2 efbc 6385 3abe d8a9 aabd
00000040: 2e27 b9bd 48d9 8e3c bcbf 2e3e 6edf 92bd
00000050: 7725 8f3d 44c1 113e e31a 093e 3cf2 ef3b
00000060: 546a cfbd c9a4 253d b132 5e3d 792b 53bc
00000070: cd61 ef3b a15f 8d3b 8faa e43d cf97 03be
00000080: aa7d 983d 39b3 273e f8fd edbc 69ce 033d
00000090: 01e9 14be 1b26 49be 7daa 673c 22a4 453e
000000a0: 981f 9ebd d05e 773d 1ebd 823d 9937 1cbe
000000b0: 0ee3 e63d 93fd b7bd a2ff b0bc 5085 3d3d
000000c0: 9656 4d3c 4618 223e 0d91 d23d 30a5 35bd
000000d0: 88cd 2dbe b541 333e e7c4 67bb 0d2d c3bd
000000e0: ef21 d23d ed05 2abd b782 153e 9651 39bd
000000f0: 1d1a e93d 6592 32be 7d83 70bd 2a6a c83c
00000100: 1a49 d5bc c765 b9bc da61 423d 2673 663d
00000110: fee6 cebd 6c29 173d be4c e13d ff9f 9bbd
00000120: 529b 29be b52b 2f3e 7144 8d3d 4534 223e
00000130: 6d36 063e 1008 3abd 4d81 cdbd cae0 f23d
00000140: 267f 13be c89c 32bd 08bb a93d ebd5 b53b
00000150: 8c9c 03be f28e 19be 7379 b9bc ac55 31bd
00000160: 9e85 2b3e 73c9 c93c d28b 003e 3bd0 6b3d
00000170: 59e7 19be 26db 2cbe a910 d53c ac87 c4bd
00000180: 85f8 1b3e 7983 93bd 6b42 78bd df6a 24bc
00000190: dc2a 0d3e 85df fcbd 7f3e 463e 57d4 1c3e
000001a0: 4ecf 41be e9e5 92bd 3ab2 ed3d d20d 253e
000001b0: bc73 3abd 877f d93d 5fba 293e ca06 2f3e
000001c0: 5729 4d3d ad46 3bbe ebda 013e d55b 29be
000001d0: 3a7f 26be 233b a6bd f507 dabd 55ec 1cbb
000001e0: 6e52 0bbe 2c45 81bd 1cbf 3ebe c974 b93c
000001f0: a595 14be 73c9 dbbd eb24 a53d 7bad 53bd
00000200: 63f1 e8bc 06d8 dcbd 2117 1a3e 1a43 33be
00000210: 44d7 25be 95ee 00ba 1637 21bd 29cc 19be
00000220: 6931 0f3e d26d 8c3c 388c d63c 2a52 febd
00000230: 0c8a dcbd 6cb4 1c3e 9df6 693d b48e 08be
00000240: a192 27be 17fc c0bd 52b0 8e3d fd31 0b3e
00000250: e133 163e 98e2 84bc f5d1 10be cce0 0c3e
00000260: d424 40bd 99c1 14be 3d33 12be 0d43 aebd
00000270: 2711 863d cfac fb3c c130 39bd ca0e 273e
00000280: 28b6 ef3d ab50 05be 9ef3 2abe 8bff d53d
00000290: 14e4 213e e7ce a43d 5500 a73a 53a8 35bd
000002a0: 3e98 78bd 0b89 1d3e 9992 033e 559a 193e
000002b0: 36b0 71bd eae8 d33c a72b cdbc 6ff6 e9bd
000002c0: affe 3ebe a2c5 24be 05b7 ce3d 26b0 403e
000002d0: 2751 14bd 52d1 053e 61d5 0bbe 8269 1dbe
000002e0: 2ecc 3dbe 1144 0b3e e3ff ab3d c597 a03d
000002f0: 28f4 c1bd 8298 c4bd 6272 523d 0ea5 d23d
00000300: fbf8 963d 7eca a8bd b63f 853d ffb1 fe3d
00000310: 249c 0a3e 03e4 1ebe f9de 053e c33d 0e3d
00000320: da2e 1abd 1abb dd3c c4ea 243e 0e14 75bd
00000330: 9eee 16be 7850 103e cd9b 293e 136c 3a3d
00000340: 6b53 eb3d 86d5 d5bd 4309 f93d ac99 30be
00000350: 8322 ed3c 5f6f 703d 46fb 16be 962a d13c
00000360: 3408 85bd fc55 833c 601e 073e db14 e5bd
00000370: 5bd2 643c b283 85bd 1a24 5d3d 6df1 21be
00000380: e172 143e 1da0 4ebd e10c da3d bd15 523d
00000390: 8998 003e 6829 c23d c809 7cbd 0af4 61bd
000003a0: 8846 12be 86e9 8a3d f0bb e9bc 92c1 63bd
000003b0: 6571 ad3c a6ed 673d ea7c 23bd 8a61 f7bd
000003c0: 38c0 9c3d 780f 43be 062a 063e 9c40 df3c
000003d0: 9149 113e ee00 47be 008c ffbd dd3b 7f3d
000003e0: 8965 cb3d f393 88be 962e 43be 1ea6 14be
000003f0: 2050 f93c 4b55 cabd 1134 45be 1c3a 683a

_backbone.transformer_blocks.mha_block_0.attn_add_norm.ln.weight f4 [32]
1.0087587 0.98860747 1.0005972 0.99796736 1.0538286 1.0137215 0.99584997 0.9992651
0.99234957 1.0331348 0.98541754 1.0006863 0.99285614 0.98097706 1.0180831 1.056815
1.0012189 0.99559754 0.98917496 1.0227236 0.9940252 0.9949628 0.9831489 1.0108933
0.9826938 0.999253 1.0001433 0.9999506 1.0015825 1.0009928 0.9948225 0.99665135
00000000: 011f 813f 6115 7d3f 9213 803f ca7a 7f3f
00000010: dbe3 863f a0c1 813f 06f0 7e3f d6cf 7f3f
00000020: 9f0a 7e3f c33d 843f 5344 7c3f 7d16 803f
00000030: d22b 7e3f 5021 7b3f 8c50 823f b745 873f
00000040: f127 803f 7bdf 7e3f 923a 7d3f 9be8 823f
00000050: 6f78 7e3f e2b5 7e3f a5af 7b3f f464 813f
00000060: d291 7b3f 0bcf 7f3f b204 803f c3fc 7f3f
00000070: db33 803f 8820 803f b0ac 7e3f 8b24 7f3f

_backbone.transformer_blocks.mha_block_0.attn_add_norm.ln.bias f4 [32]
0.003737741 0.0059370613 -0.0034932788 -0.0025657234 -0.006296235 0.008970027 -0.0024837735 0.004591089
0.0047137337 0.01243353 0.005991675 -0.008163567 -0.0099380445 0.0019209295 -0.032271698 -0.013466121
0.0011078108 8.608815e-05 0.000396085 -0.010670466 -0.0017311462 0.0005467223 -0.005889103 0.019344285
-0.0020665952 0.0024244892 -0.003263767 -0.005439616 -0.004668854 0.0065679704 -0.011670253 0.0038360879
00000000: e3f4 743b ae8b c23b 7eef 64bb b225 28bb
00000010: a650 cebb 05f7 123c cec6 22bb d970 963b
00000020: aa75 9a3b 01b6 4b3c d055 c43b 7bc0 05bc
00000030: 2ed3 22bc b3c7 fb3a 542f 04bd 01a1 5cbc
00000040: f633 913a 398a b438 a1a9 cf39 2ed3 2ebc
00000050: a1e7 e2ba ea51 0f3a 60f9 c0bb e877 9e3c
00000060: b76f 07bb 2ee4 1e3b ede4 55bb ce3e b2bb
00000070: 30fd 98bb 2138 d73b 9734 3fbc e066 7b3b

_backbone.transformer_blocks.mha_block_0.ff_add_norm.ln.weight f4 [32]
1.0123986 0.9888787 1.000722 0.9981881 1.0597037 1.0179222 0.9917546 0.99945724
0.9915527 1.0399405 0.9818023 0.9933338 0.99164194 0.99890757 1.0284542 1.0650626
1.007864 0.9991629 0.9933658 1.0507021 0.994574 1.0105911 0.99743414 1.0094569
0.98771787 1.0021205 1.0049063 1.0028464 1.0016617 1.0040061 1.0167866 0.99689513
00000000: 4796 813f 2827 7d3f a917 803f 4189 7f3f
00000010: 5fa4 873f 464b 823f a1e3 7d3f 6edc 7f3f
00000020: 66d6 7d3f c51c 853f 6557 7b3f 204b 7e3f
00000030: 3fdc 7d3f 68b8 7f3f 63a4 833f f953 883f
00000040: b001 813f 24c9 7f3f 394d 7e3f 687d 863f
00000050: 679c 7e3f 0d5b 813f d857 7f3f e235 813f
00000060: 14db 7c3f 7c45 803f c5a0 803f 455d 803f
00000070: 7336 803f 4683 803f 1026 823f 8534 7f3f

_backbone.transformer_blocks.mha_block_0.ff_add_norm.ln.bias f4 [32]
0.004603121 0.0059267967 -0.0044154655 -0.000952286 -0.008444104 0.01093435 -0.0032787067 0.0059987055
0.004710683 0.009698658 0.0053812847 -0.011303467 -0.008426506 0.0010525971 -0.026552306 -0.013047622
0.00030132197 0.0020307503 -0.0011302319 -0.0093652345 -0.0019839138 -0.0014956215 -0.005886877 0.013660116
-0.0019123412 0.00075720606 -0.004945497 -0.006990512 -0.005812585 0.0064555774 -0.0103181265 0.003564619
00000000: c7d5 963b 9335 c23b 9caf 90bb d5a2 79ba
00000010: 2459 0abc fd25 333c 92df 56bb ca90 c43b
00000020: 135c 9a3b 1fe7 1e3c 7d55 b03b 2d32 39bc
00000030: 540f 0abc 4cf7 893a 3984 d9bc b1c5 55bc
00000040: c0fa 9d39 5616 053b 4a24 94ba a470 19bc
00000050: 8d04 02bb bb08 c4ba b4e6 c0bb aece 5f3c
00000060: 86a7 faba 3d7f 463a d60d a2bb aa10 e5bb
00000070: 7f77 bebb 4f89 d33b 5c0d 29bc 629c 693b

_backbone.transformer_blocks.mha_block_1.mha.to_qkv.weight f4 [384, 32]
0.051609546 -0.15453465 -0.058230087 -0.04280806 0.00833767 -0.07518119 0.017137054 -0.16166082
0.099923134 0.01074542 0.09212631 -0.16096349 0.17700231 0.0024807448 0.11275093 0.05156079
-0.07527488 -0.013860176 0.103090905 -0.10511676 0.08377299 -0.027538052 0.073675476 -0.009530606
0.109141394 -0.1648506 0.15795827 0.039882112 -0.096307784 -0.038686417 -0.10060042 -0.068798505
0.13832955 -0.07852506 -0.15681663 0.014927396 0.0053915693 0.012262156 0.05746855 -0.1943803
0.1372732 -0.11036537 -0.18581621 -0.018220365 -0.042564273 0.059205655 -0.048519764 0.0783734
0.05594335 0.08825609 -0.024897963 -0.066312164 -0.03588823 -0.13053456 -0.12578641 0.11636251
-0.1505654 -0.10144835 -0.06214037 -0.15944451 0.099668644 0.098590136 0.20439526 -0.11359152
0.14880331 -0.11626209 0.18540646 -0.13828275 0.069608025 -0.118029475 -0.074569866 -0.12180249
-0.074450366 -0.0033664438 -0.13841246 0.032975275 -0.125593 0.16786 -0.0453977 -0.041173097
0.1069709 -0.027850697 -0.026851239 -0.12752612 0.08520928 0.1863953 -0.044101197 -0.09889481
-0.1772454 0.07306085 0.18521081 -0.07567997 -0.011339307 -0.16189222 -0.15248355 0.16720545
-0.16622856 -0.00020592372 -0.13489662 0.043606658 0.07980767 0.14251915 0.008992866 0.1291732
0.09681261 -0.067615256 0.09911171 0.08787281 -0.042325355 0.20716152 0.13172944 -0.10672395
-0.06966173 -0.15678471 0.10930864 0.062221505 -0.08350777 0.072703734 -0.20226486 -8.465171e-06
0.0021047224 0.088083565 0.008651394 0.0952289 -0.16498172 0.016404692 -0.12994449 0.013593573
-0.16232839 0.015467061 -0.17969662 0.043296695 -0.18251863 0.14791754 0.17108077 -0.12351626
-0.14128144 0.048414648 -0.122860774 0.07402138 0.15235445 0.023898752 0.0930779 -0.17232287
-0.14470321 0.05517884 0.16581927 0.05717795 0.054518633 -0.1959521 0.1329138 -0.11184075
0.09508927 -0.1397309 -0.101003654 -0.12599279 -0.19394742 0.15503305 0.10824282 0.16162434
-0.1035682 -0.18677962 0.15256281 0.17282332 -0.15413058 0.09761771 -0.028044777 -0.15314744
-0.07514899 -0.2083341 -0.18975103 0.20741884 0.13551201 -0.014972572 -0.08102875 -0.18363942
-0.004178288 0.18166879 0.03995802 -0.111997224 0.1740293 -0.13708812 0.00025364457 0.06931886
0.14591302 0.097963005 0.07275174 -0.1510399 0.075380735 0.07769262 -0.1033089 -0.097232595
0.118240215 0.16620868 -0.0027742034 -0.066006534 0.029347096 -0.112124376 0.086371444 0.14038752
-0.10937278 0.10531832 -0.09398062 0.14934507 -0.18460624 -0.019899722 0.1641398 -0.13884008
-0.010898542 0.1714514 0.07603182 -0.15420736 0.05940426 0.13298605 -0.21281606 -0.093883835
-0.058035415 0.17008886 -0.13042098 -0.006048477 -0.049155414 -0.030370183 0.20883802 0.09771455
0.106218144 -0.055499386 -0.029596303 0.015817735 0.047078025 0.02304152 -0.07114866 0.06092324
-0.040108223 0.09285521 0.19899532 0.12745039 -0.043254662 0.10004362 0.11455 0.15643892
0.18949814 -0.014167603 0.04172431 -0.007638634 0.007083698 0.0035090954 -0.15494138 0.092675544
0.16045535 0.05677825 -0.09386789 0.112284265 0.16180408 0.07167292 0.13863513 0.026204199
00000000: 8864 533d 553e 1ebe ac82 6ebd 8157 2fbd
00000010: b99a 083c 99f8 99bd 0263 8c3c 6a8a 25be
00000020: 80a4 cc3d 8f0d 303c b8ac bc3d 9dd3 24be
00000030: 1840 353e fe93 223b f6e9 e63d 6831 533d
00000040: b729 9abd cb15 63bc 5321 d33d 7547 d7bd
00000050: 2c91 ab3d 7b97 e1bc 2be3 963d 4226 1cbc
00000060: 8685 df3d 98ce 28be d0bf 213e 6d5b 233d
00000070: 043d c5bd a675 1ebd 9807 cebd 3be6 8cbd
00000080: 43a6 0d3e bfd1 a0bd 8a94 20be 0992 743c
00000090: c3ab b03b 36e7 483c 2464 6b3d a10b 47be
000000a0: 5991 0c3e 3d07 e2bd 9b46 3ebe e042 95bc
000000b0: e057 2ebd a181 723d a9bc 46bd 3c82 a03d
000000c0: db24 653d 9cbf b43d d0f6 cbbc acce 87bd
000000d0: 89ff 12bd daaa 05be 27ce 00be 784f ee3d
000000e0: d12d 1abe 27c4 cfbd e786 7ebd 6c45 23be
000000f0: 131f cc3d a0e9 c93d fe4c 513e aca2 e8bd
00000100: e55f 183e d21a eebd 31db 3d3e fe99 0dbe
00000110: a78e 8e3d 70b9 f1bd 16b8 98bd 9573 f9bd
00000120: 6f79 98bd 8e9f 5cbb ffbb 0dbe 1511 073d
00000130: 749b 00be 7ee3 2b3e f0f2 39bd 1fa5 28bd
00000140: 8f13 db3d 2527 e4bc 21f7 dbbc 3596 02be
00000150: 3482 ae3d 69de 3e3e 75a3 34bd 5d89 cabd
00000160: d17f 35be eda0 953d e7a7 3d3e 1afe 9abd
00000170: 80c8 39bc 13c7 25be a624 1cbe e837 2b3e
00000180: d237 2abe 3aed 57b9 5722 0abe e59c 323d
00000190: 3472 a33d 8af0 113e d056 133c fb45 043e
000001a0: b145 c63d de79 8abd 15fb ca3d a9f6 b33d
000001b0: 5a5d 2dbd 2622 543e 15e4 063e 1692 dabd
000001c0: cfaa 8ebd 2c8c 20be 35dd df3d fadb 7e3d
000001d0: 1f06 abbd b2e5 943d 851e 4fbe a205 0eb7
000001e0: 62ef 093b 2865 b43d 94be 0d3c 5f07 c33d
000001f0: f8f0 28be 2263 863c 2b10 05be 94b7 5e3c
00000200: 6a39 26be 8e69 7d3c 6402 38be e057 313d
00000210: 2ae6 3abe b277 173e cc2f 2f3e 18f6 fcbd
00000220: 15ac 10be 704e 463d 6e9e fbbd 8598 973d
00000230: ce02 1c3e 51c7 c33c a09f be3d 6875 30be
00000240: 142d 14be 3503 623d 87cc 293e 6d33 6a3d
00000250: ee4e 5f3d aba7 48be 8e1a 083e c30c e5bd
00000260: 2abe c23d 9e15 0fbe 01db cebd 4104 01be
00000270: 279a 46be fcc0 1e3e 69ae dd3d da80 253e
00000280: 901b d4bd 2843 3fbe 6d39 1c3e 99f8 303e
00000290: 68d4 1dbe cbeb c73d 29be e5bc afd2 1cbe
000002a0: b7e7 99bd 8955 55be 184e 42be 9b65 543e
000002b0: a9c3 0a3e 854f 75bc 67f2 a5bd f90b 3cbe
000002c0: 05ea 88bb 6207 3a3e 05ab 233d cd5e e5bd
000002d0: bd34 323e d460 0cbe 99fb 8439 0cf7 8d3d
000002e0: 396a 153e d4a0 c83d ddfe 943d 34aa 1abe
000002f0: 3761 9a3d 4f1d 9f3d 9e93 d3bd e221 c7bd
00000300: ed27 f23d 9c32 2a3e 69cf 35bb 6f2e 87bd
00000310: 5269 f03c 77a1 e5bd 83e3 b03d bfc1 0f3e
00000320: d6fe dfbd 22b1 d73d e978 c0bd eaed 183e
00000330: 6b09 3dbe be04 a3bc 4414 283e 182c 0ebe
00000340: cc8f 32bc f590 2f3e 92b6 9b3d 89e8 1dbe
00000350: e251 733d 7f2d 083e 74ec 59be 2b46 c0bd
00000360: 8bb6 6dbd c62b 2e3e 148d 05be 4d32 c6bb
00000370: 3057 49bd e4ca f8bc a2d9 553e 911e c83d
00000380: e688 d93d 5353 63bd f273 f2bc 3294 813c
00000390: e3d4 403d 92c1 bc3c 63b6 91bd a68a 793d
000003a0: 8548 24bd df2a be3d 6ec5 4b3e 5b82 023e
000003b0: cd2b 31bd abe3 cc3d 3199 ea3d 8631 203e
000003c0: cd0b 423e 3c1f 68bc 1ce7 2a3d 824d fabb
000003d0: 5e1e e83b daf8 653b f4a8 1ebe adcc bd3d
000003e0: 684e 243e 4f90 683d cf3d c0bd 4bf5 e53d
000003f0: f8af 253e 40c9 923d 5ef6 0d3e 30aa d63c

_backbone.transformer_blocks.mha_block_1.mha.to_out.weight f4 [32, 128]
-0.022935785 0.009735725 0.053445596 0.06545482 0.008529794 0.025303772 0.06941246 0.099980906
0.03396976 -0.07268274 -0.024063827 0.05639173 -0.021124164 -0.16047016 -0.036284126 -0.079348005
0.01424181 0.04862752 0.074957624 -0.0044604284 0.044171635 -0.08549004 0.034402728 0.052292123
-0.004439712 0.00265267 -0.05579039 0.050603796 0.07116776 0.06294396 -0.017697057 -0.041570563
-0.013449243 0.006019932 0.0012628293 -0.07205684 -0.06147774 -0.06696453 -0.028962178 -0.009657159
0.06642097 0.0009989484 -0.012985017 0.05212102 0.074766956 -0.08526656 -0.021361817 -0.052017536
-0.03361536 -0.032444917 0.02419312 0.015951967 0.0010627948 0.01573039 -0.01199067 0.117144294
-0.101781964 0.018390186 0.016309906 0.12944819 -0.0677337 -0.04636258 0.03875291 -0.0051821363
0.057582863 -0.06998072 -0.10127138 -0.0630027 0.075536534 0.052874696 -0.088169836 0.008861183
0.07500062 -0.009294764 -0.016827818 0.0052790013 -0.078963496 0.065522924 -0.016387315 0.011294711
-0.056602772 0.0050654355 0.0089389095 -0.06254325 0.06577983 -0.00047610415 0.08433703 -0.067610815
-0.05016577 0.025304833 -0.0016582491 0.060723774 0.10788823 0.06526275 0.045557886 -0.02092454
-0.060371205 0.08281474 -0.04127622 0.05785917 -0.0142212985 -0.039360646 0.03506895 -0.048096035
0.00958473 -0.092263386 0.023865461 0.031016134 -0.0025690168 0.061162215 -0.116019 -0.007791768
-0.03478562 -0.03448696 -0.075639695 -0.033663243 0.080662735 0.01262313 -0.043000545 0.086300634
-0.05488987 0.060599506 -0.028223436 -0.013755559 0.0694157 0.011969633 0.040932234 0.009059284
-0.010648769 0.008315288 -0.043886237 0.03996847 -0.037614867 -0.003963971 -0.020874714 -0.07698011
0.032928243 0.012455646 0.07085421 0.034261823 0.09437656 -0.03580295 -0.041359212 0.050131403
-0.012297939 0.07709611 0.07032944 0.038758617 -0.009092162 -0.015770242 0.04552067 -0.0454894
-0.038252346 0.054207556 0.036940426 0.008693591 0.036788978 -0.03808155 -0.08795679 -0.02139621
0.01967374 0.015697459 -0.045164954 -0.061785072 -0.06620289 -0.042156603 -0.02526203 0.030769896
0.06061943 0.005619664 0.10934593 0.06792318 0.07428431 -0.03381534 0.09061029 -0.0773412
-0.0150685655 -0.005754582 0.036507517 -0.086920425 0.044258088 0.029761007 -0.05005766 -0.09592805
-0.015773322 0.088530175 -0.048760656 -0.054584563 -0.055929348 -0.07932851 0.04515789 0.06945193
-0.06611478 -0.06566315 -0.05549106 -0.0058401357 -0.042050935 0.037649766 -0.049566396 0.0033765705
-0.045104366 0.081791796 0.040037747 -0.041162074 0.082753584 0.06063152 0.028993092 0.031403847
0.014417219 0.02316269 0.0740795 0.094599105 -0.097966485 0.057496794 0.042960398 -0.08245603
0.08020736 0.085880205 -0.058411166 -0.052980956 0.04922512 0.008525452 0.026464734 -0.03403464
0.036432583 -0.085643426 0.0736122 -0.014669978 0.071024425 0.0732979 -0.035390437 0.051046055
0.057183098 0.069705844 -0.06756558 -0.02345508 -0.01240583 0.046786405 -0.019660966 0.0680899
-0.04076965 0.013955803 0.07219421 0.06256606 0.056146435 0.058171824 0.058110084 -0.017458413
0.046572372 0.008319067 0.037478834 -0.062732615 0.04609505 -0.019251771 -0.051599875 0.08134358
00000000: d4e3 bbbc 9782 1f3c c5e9 5a3d 2d0d 863d
00000010: 8dc0 0b3c db49 cf3c 1f28 8e3d cac2 cc3d
00000020: e023 0b3d b0da 94bd 8121 c5bc 04fb 663d
00000030: 950c adbc 4a52 24be aa9e 14bd 3581 a2bd
00000040: 7b56 693c a72d 473d 6283 993d c928 92bb
00000050: 51ed 343d 6715 afbd e0e9 0c3d 4430 563d
00000060: 017b 91bb 6bd8 2d3b 7784 64bd ed45 4f3d
00000070: 67c0 913d c3e8 803d 6bf9 90bc e545 2abd
00000080: 375a 5cbc da42 c53b 8585 a53a 8992 93bd
00000090: 15d0 7bbd b324 89bd 1742 edbc 1039 1ebc
000000a0: b807 883d 25ef 823a 1cbf 54bc da7c 553d
000000b0: 6b1f 993d 3ca0 aebd fafe aebc 5710 55bd
000000c0: 42b0 09bd f6e4 04bd a630 c63c b3ad 823c
000000d0: 7a4d 8b3a 05dd 803c 8474 44bc 59e9 ef3d
000000e0: 1073 d0bd 04a7 963c 5a9c 853c 118e 043e
000000f0: f7b7 8abd b0e6 3dbd 5fbb 1e3d e9ce a9bb
00000100: 02dc 6b3d 0d52 8fbd 5f67 cfbd 8f07 81bd
00000110: e6b2 9a3d 2393 583d 6392 b4bd 7f2e 113c
00000120: ed99 993d 1149 18bc 7eda 89bc 79fb ac3b
00000130: 9db7 a1bd e230 863d b13e 86bc 740d 393c
00000140: 4fd8 67bd f4fb a53b 8174 123c ad16 80bd
00000150: 93b7 863d 9e9d f9b9 e5b8 ac3d 8a77 8abd
00000160: 9f7a 4dbd 154c cf3c 9b59 d9ba 7eb9 783d
00000170: 81f4 dc3d 7aa8 853d e89a 3a3d f169 abbc
00000180: cc47 77bd c69a a93d 4111 29bd bdfd 6c3d
00000190: 7300 69bc a138 21bd 76a4 0f3d 5900 45bd
000001a0: 4509 1d3c 96f4 bcbd 8081 c33c 8c15 fe3c
000001b0: f35c 28bb 3b85 7a3d 5f9b edbd 1652 ffbb
000001c0: 5e7b 0ebd 3342 0dbd fce8 9abd 78e2 09bd
000001d0: 8132 a53d 3fd1 4e3c 5721 30bd 63be b03d
000001e0: 33d4 60bd 3037 783d d634 e7bc ff5e 61bc
000001f0: d229 8e3d 481c 443c 8fa8 273d 646d 143c
00000200: 2d78 2ebc d93c 083c 0ec2 33bd fab5 233d
00000210: 0c12 1abd 33e4 81bb 7301 abbc bfa7 9dbd
00000220: c4df 063d c412 4c3c 031c 913d 2056 0c3d
00000230: 7f48 c13d 1da6 12bd 4768 29bd 9656 4d3d
00000240: 4b7d 49bc 91e4 9d3d e208 903d 5bc1 1e3d
00000250: 4bf7 14bc 9830 81bc e273 3a3d 1853 3abd
00000260: 7eae 1cbd be08 5e3d d84e 173d 906f 0e3c
00000270: 0ab0 163d 66fb 1bbd b122 b4bd 1b47 afbc
00000280: d32a a13c f597 803c e3fe 38bd 5812 7dbd
00000290: 6195 87bd 67ac 2cbd 51f2 cebc 2611 fc3c
000002a0: 144c 783d 2925 b83b c2f0 df3d 4f1b 8b3d
000002b0: 5f22 983d f481 0abd e391 b93d 1065 9ebd
000002c0: 25e2 76bc ef90 bcbb e888 153d 5603 b2bd
000002d0: f847 353d 5bcd f33c 4309 4dbd ed75 c4bd
000002e0: 0e37 81bc 4f4f b53d 41b9 47bd 1094 5fbd
000002f0: 2c16 65bd fc76 a2bd 7bf7 383d d03c 8e3d
00000300: 3067 87bd 677a 86bd 984a 63bd 9c5e bfbb
00000310: 9a3d 2cbd a436 1a3d 2206 4bbd 7449 5d3b
00000320: 5bbf 38bd 7582 a73d 9ffe 233d 9099 28bd
00000330: b67a a93d c258 783d ec82 ed3c 52a1 003d
00000340: 3336 6c3c afbf bd3c feb6 973d 2dbd c13d
00000350: a7a2 c8bd c281 6b3d 3ef7 2f3d b5de a8bd
00000360: c243 a43d f6e1 af3d 8c40 6fbd 8f02 59bd
00000370: 48a0 493d 56ae 0b3c 92cc d83c e867 0bbd
00000380: 553a 153d d265 afbd fec1 963d 595a 70bc
00000390: 4175 913d 361d 963d 90f5 10bd ab15 513d
000003a0: d338 6a3d f0c1 8e3d d35f 8abd de24 c0bc
000003b0: d341 4bbc 1aa3 3f3d 0910 a1bc b872 8b3d
000003c0: 14fe 26bd e1a6 643c 8fda 933d a222 803d
000003d0: cef9 653d 9445 6e3d d704 6e3d f204 8fbc
000003e0: acc2 3e3d b24c 083c 6883 193d f579 80bd
000003f0: 2ace 3c3d e4b5 9dbc 645a 53bd 7697 a63d

_backbone.transformer_blocks.mha_block_1.mha.to_out.bias f4 [32]
-0.04648196 0.016251558 0.04731911 -0.033767503 -0.0040018596 0.06432219 -0.05308918 -0.02173376
0.023703357 -0.010451201 -0.05202861 0.043823224 -0.04360776 -0.06782302 -0.06655727 -0.033449426
0.012670484 -0.0024855842 -0.08475085 0.02145751 -0.08644101 -0.004897047 0.04193717 -0.07675596
-0.030246865 0.043124348 -0.016994966 0.018895844 -0.038518637 0.0887186 0.049387272 -0.032302327
00000000: de63 3ebd fd21 853c afd1 413d cb4f 0abd
00000010: 0822 83bb 5abb 833d 0a74 59bd 000b b2bc
00000020: 8b2d c23c 843b 2bbc f41b 55bd fb7f 333d
00000030: 0d9e 32bd cce6 8abd 2e4f 88bd 4402 09bd
00000040: dd97 4f3c 2fe5 22bb db91 adbd a9c7 af3c
00000050: fc07 b1bd 6877 a0bb 4fc6 2b3d 3b32 9dbd
00000060: 46c8 f7bc 28a3 303d 0739 8bbc 75cb 9a3c
00000070: b8c5 1dbd 19b2 b53d 4f4a 4a3d 724f 04bd
