Eunho/pytorch_stacking/saved_models/classification-21_epoch=9-valid_loss=0.49.ckpt (torch, 317359 bytes, 56 tensors)

_backbone.linear_layers.0.weight f4 [128, 84]
0.10309488 0.0124112135 0.08386215 0.010007299 0.087333746 0.059402894 0.11775945 -0.04522464
-0.07381271 -0.036125924 0.0840721 -0.07811614 0.020007668 -0.048745044 -0.097604185 -0.099180676
0.015316156 0.051014096 -0.13167566 -0.013689482 0.021586362 -0.037854698 -0.081262976 -0.024338813
-0.028432567 -0.076145135 0.062014878 0.062274825 0.0043206243 0.05415553 -0.055419788 0.03662422
0.09656041 -0.06079933 0.12805709 -0.012029876 0.03188746 -0.04130581 -0.10477515 -0.08128306
-0.08773442 -0.012283561 -0.072167724 0.052553695 -0.1067185 0.094098285 -0.10056897 -0.06120938
0.102880724 0.0554809 -0.012489603 -0.058612205 -0.07532042 -0.09133327 0.106990464 -0.019697018
-0.0687299 0.052624583 -0.09889666 0.013289864 0.14657639 0.10026898 0.12640771 0.018460348
-0.11762376 -0.030556547 0.08236205 0.028837096 0.03830138 0.14832652 0.016982028 0.07016396
-0.08746189 -0.012006939 0.029091658 0.015122197 0.03631357 0.08333873 -0.06830567 -0.09458954
-0.008347854 0.039630968 -0.039551668 0.013526099 -0.0050347634 0.029196383 0.055588525 -0.12604243
0.032910757 -0.08059286 -0.086269334 0.07992969 0.041547887 -0.003201759 0.06563798 -0.039035942
-0.06611048 0.10691205 -0.029399374 0.09410661 -0.023322437 0.05003735 -0.09776168 -0.11430274
-0.07127469 -0.045010027 0.008426457 0.090745434 0.06192672 -0.070565715 0.001891317 -0.06529919
0.0895605 -0.09197297 0.060607288 0.049092606 -0.2645391 -0.18143395 -7.152063e-05 0.06976941
0.053042352 -0.04314487 0.13994753 0.05125969 0.11653929 -0.07043685 -0.06006755 0.029879732
0.008234591 0.049469497 -0.11988095 -0.018112179 -0.0940343 -0.07423312 -0.14432387 -0.13704543
-0.019939726 -0.014066486 0.07021834 0.031069666 0.021577572 -0.11810856 -0.043163676 -0.11135518
-0.01797836 -0.11142926 -0.10081356 0.024097469 -0.09567438 0.13148755 0.058486108 0.10962631
-0.015202146 -0.039571088 -0.018336553 -0.07803692 -0.047850583 0.012241642 -0.061808076 0.055390142
0.0075054956 -0.035835195 0.005741582 0.054443948 -0.039524574 -0.11144059 0.030137496 -0.02884671
-0.019155484 0.06909778 -0.13611327 0.0210003 0.02852968 0.017436001 0.091403626 0.069789805
-0.01305404 0.029465653 0.044310205 0.007919506 -0.009041888 0.060055006 -0.060264125 -0.08443389
0.036383953 0.06375686 -0.14362927 0.01877076 -0.059091892 0.074760176 -0.06767824 -0.04593732
0.10593395 0.042787686 -0.026528997 -0.03567939 -0.12706657 0.045938153 -0.051760383 -0.020310678
-0.033898044 0.012297725 0.02273332 0.18139161 -0.07476957 0.13509144 0.07623228 -0.05343439
-0.062157836 -0.055919144 -0.007439458 -0.13047545 0.08955038 0.09882356 -0.00047992534 -0.08789513
-0.01891833 -0.109347895 0.038823005 -0.08338604 0.068209484 -0.12248293 0.03620864 0.087646164
-0.017502598 0.016099742 0.041210942 -0.019896979 0.03880303 0.16467944 0.061707314 -0.0632673
-0.18973255 -0.01174843 0.010625866 -0.018365616 -0.06662568 -0.072052926 0.068329975 -0.028710188
0.01595557 0.13254187 -0.0063810954 0.09246895 0.060576808 -0.042785496 -0.06947545 -0.0010185657
0.013297851 -0.041702174 -0.073499955 -0.06290373 -0.014721798 -0.028074967 -0.034228403 0.010876725
00000000: 6923 d33d 6758 4b3c ebbf ab3d a7f5 233c
00000010: 09dc b23d 7350 733d de2b f13d 793d 39bd
00000020: 1e2b 97bd c7f8 13bd fe2d ac3d 5bfb 9fbd
00000030: 1fe7 a33c e2a8 47bd b4e4 c7bd 3d1f cbbd
00000040: 9df0 7a3c 28f4 503d fcd5 06be d949 60bc
00000050: e2d5 b03c 870d 1bbd 346d a6bd 3162 c7bc
00000060: 6aeb e8bc fbf1 9bbd 5003 7e3d e313 7f3d
00000070: 0694 8d3b 30d2 5d3d dcff 62bd 4703 163d
00000080: 77c1 c53d b808 79bd 6621 033e f518 45bc
00000090: 6d9c 023d 4830 29bd 5b94 d6bd bc77 a6bd
000000a0: 1bae b3bd fd40 49bc accc 93bd 8b42 573d
000000b0: 3b8f dabd 9ab6 c03d 1bf7 cdbd b0b6 7abd
000000c0: 21b3 d23d f13f 633d 31a1 4cbc 5a13 70bd
000000d0: 9841 9abd f00c bbbd d11d db3d a45b a1bc
000000e0: 43c2 8cbd e08c 573d 558a cabd bbbd 593c
000000f0: 1f18 163e d359 cd3d 0671 013e 283a 973c
00000100: bae4 f0bd b951 fabc 6fad a83d c63b ec3c
00000110: e8e1 1c3d e8e2 173e e51d 8b3c 1fb2 8f3d
00000120: 381f b3bd c1b8 44bc a151 ee3c 17c3 773c
00000130: 8abd 143d 7fad aa3d d8e3 8bbd 29b8 c1bd
00000140: 70c5 08bc 1554 223d ee00 22bd 929c 5d3c
00000150: a8fa a4bb 412d ef3c cbb0 633d 4411 01be
00000160: 6ecd 063d df0d a5bd faad b0bd 2db2 a33d
00000170: 1e2e 2a3d 9ad4 51bb 356d 863d 27e4 1fbd
00000180: ee64 87bd b4f4 da3d f5d6 f0bc f7ba c03d
00000190: b20e bfbc f7f3 4c3d 4737 c8bd 8e17 eabd
000001a0: 77f8 91bd 6f5c 38bd 1f0f 0a3c bed8 b93d
000001b0: dfa6 7d3d c284 90bd 11e6 f73a 95bb 85bd
000001c0: 7f6b b73d 535c bcbd 593f 783d 5415 493d
000001d0: ab71 87be d2c9 39be 59fd 95b8 44e3 8e3d
000001e0: f042 593d adb8 30bd 684e 0f3e aef5 513d
000001f0: 27ac ee3d 3241 90bd 6409 76bd 57c6 f43c
00000200: 61ea 063c 87a0 4a3d 2584 f5bd fe5f 94bc
00000210: 0e95 c0bd 8907 98bd a3c9 13be a355 0cbe
00000220: a358 a3bc 1e77 66bc a2ce 8f3d d085 fe3c
00000230: 73c3 b03c e7e2 f1bd 65cc 30bd 2f0e e4bd
00000240: 5b47 93bc 0635 e4bd 5777 cebd 0e68 c53c
00000250: eef0 c3bd aca4 063e 218f 6f3d c283 e03d
00000260: 6c12 79bc 4b15 22bd 8a36 96bc d2d1 9fbd
00000270: f9fe 43bd 2b91 483c 772a 7dbd c6e0 623d
00000280: a9f0 f53b edc7 12bd e123 bc3b 9e00 5f3d
00000290: 85e4 21bd f73a e4bd e9e2 f63c f04f ecbc
000002a0: f6eb 9cbc 2383 8d3d 4761 0bbe d208 ac3c
000002b0: 13b7 e93c f2d5 8e3c d331 bb3d f5ed 8e3d
000002c0: 9de0 55bc f461 f13c 9e7e 353d d1c0 013c
000002d0: 6d24 14bc 3dfc 753d 84d7 76bd adeb acbd
000002e0: 5707 153d f592 823d 8d13 13be 23c5 993c
000002f0: 570a 72bd dd1b 993d e49a 8abd c528 3cbd
00000300: e6f3 d83d 2442 2f3d 5753 d9bc 8d24 12bd
00000310: bd1d 02be a529 3c3d b202 54bd 9462 a6bc
00000320: add8 0abd 667c 493c 3a3b ba3c b9be 393e
00000330: ca20 99bd 6955 0a3e ab1f 9c3d 05de 5abd
00000340: 3799 7ebd 790b 65bd b2c6 f3bb 5b9b 05be
00000350: 3166 b73d 0264 ca3d 7d9e fbb9 5d02 b4bd
00000360: 9dfa 9abc caf1 dfbd df04 1f3d 4dc6 aabd
00000370: 6ab1 8b3d 55d8 fabd 834f 143d d57f b33d
00000380: 9c61 8fbc 9be3 833c cecc 283d fdfe a2bc
00000390: edef 1e3d baa1 283e cfc0 7c3d 4992 81bd
000003a0: 4049 42be 7d7c 40bc 1d18 2e3c 7d73 96bc
000003b0: 0b73 88bd 7c90 93bd 96f0 8b3d a131 ebbc
000003c0: 41b5 823c 0eb9 073e 8218 d1bb 5c60 bd3d
000003d0: 631f 783d d83f 2fbd 2549 8ebd 6581 85ba
000003e0: 3bdf 593c e6cf 2abd 2587 96bd acd3 80bd
000003f0: b233 71bc 79fd e5bc 1533 0cbd 4b34 323c

_backbone.linear_layers.0.bias f4 [128]
0.023308793 -0.06918434 0.015515666 -0.06615661 -0.06763854 -0.07985293 -0.05690003 0.028117403
0.04911239 0.062436014 -0.069799654 -0.04547399 0.033928357 0.010598226 -0.07093048 -0.07062729
-0.085448354 -0.066693515 0.10144463 0.02805291 -0.08570003 -0.10318123 0.0050458107 0.11566214
0.11514072 0.08371841 -0.02558548 -0.0015022603 -0.0225454 0.055791073 0.10635385 0.06664842
0.06695287 -0.082383685 -0.091329776 -0.056705404 0.045745723 -0.09848964 -0.0724015 -0.09474391
0.06982217 0.0369164 -0.039115578 -0.009983019 -0.05884176 0.09252683 0.065834224 0.08446453
-0.058105566 -0.09449708 -0.024611566 0.078369424 0.081575915 0.086765245 -0.018470276 -0.05320932
-0.05147792 0.022584086 -0.011015365 -0.028500473 -0.015140994 0.03526462 -0.056066293 0.116038084
0.050255775 -0.06292685 0.06761433 -0.08156158 0.08671505 -0.08553635 0.097501606 0.02940415
0.031651385 0.13369396 -0.033698898 0.012733349 -0.07302559 0.06845376 0.08011353 -0.009816306
0.03304865 0.08548409 0.10957466 0.037260726 -0.008381307 -0.088583395 0.07255116 0.03289027
-0.10118759 0.10007998 0.023966657 -0.110966876 0.045233447 -0.0033253143 0.086278096 -0.07004231
-0.045764003 -0.025049187 0.09904878 -0.07126189 0.06511184 0.030583603 0.0995061 0.018087901
0.05873958 0.04892506 0.0915673 0.08371526 -0.061953217 -0.040608924 -0.003041469 0.06757667
0.053952582 0.04231016 0.089289166 0.0042402684 0.04620289 -0.017517587 -0.086900555 0.00014698434
0.05556809 0.010668986 0.056272246 -0.09782613 0.10425331 0.124015376 -0.011119808 -0.004271842
00000000: 15f2 be3c 85b0 8dbd 6c35 7e3c 1e7d 87bd
00000010: 1386 8abd ef89 a3bd 0110 69bd 7856 e63c
00000020: 132a 493d e8bc 7f3d 1ff3 8ebd ef42 3abd
00000030: 76f8 0a3d 2fa4 2d3c 0044 91bd 0aa5 90bd
00000040: 8cff aebd 9c96 88bd 34c2 cf3d 37cf e53c
00000050: 7f83 afbd ae50 d3bd 5457 a53b 46e0 ec3d
00000060: e6ce eb3d 8f74 ab3d a498 d1bc 7ee7 c4ba
00000070: 21b1 b8bc 2e85 643d 0cd0 d93d f87e 883d
00000080: 961e 893d c7b8 a8bd 1b0b bbbd ed43 68bd
00000090: de5f 3b3d f0b4 c9bd 3d47 94bd 1809 c2bd
000000a0: edfe 8e3d a735 173d a837 20bd d18f 23bc
000000b0: 0f04 71bd b57e bd3d 18d4 863d bdfb ac3d
000000c0: 1a00 6ebd af87 c1bd 329e c9bc 2680 a03d
000000d0: 4611 a73d fab1 b13d fa4e 97bc 04f2 59bd
000000e0: 83da 52bd 4302 b93c ca79 34bc d379 e9bc
000000f0: ef11 78bc a271 103d c5a5 65bd 60a5 ed3d
00000100: 00d9 4d3d cbdf 80bd 6279 8a3d c209 a7bd
00000110: a997 b13d af2d afbd ecae c73d f9e0 f03c
00000120: e2a4 013d 12e7 083e db07 0abd 899f 503c
00000130: 718e 95bd 7c31 8c3d 9012 a43d 92d4 20bc
00000140: 055e 073d 4812 af3d ae68 e03d b49e 183d
00000150: c051 09bc 366b b5bd b495 943d f3b7 063d
00000160: 703b cfbd bcf6 cc3d b955 c43c 9a42 e3bd
00000170: b546 393d 84ed 59bb 92b2 b03d 5872 8fbd
00000180: 0973 3bbd f433 cdbc 16da ca3d c1f1 91bd
00000190: 5b59 853d 778a fa3c dbc9 cb3d 142d 943c
000001a0: ea98 703d a565 483d a387 bb3d e872 ab3d
000001b0: a8c2 7dbd 8b55 26bd 6253 47bb a365 8a3d
000001c0: 62fd 5c3d 6b4d 2d3d 3ddd b63d f3f1 8a3b
000001d0: 3e3f 3d3d 0b81 8fbc ebf8 b1bd cf1f 1a39
000001e0: 5e9b 633d f8cc 2e3c ba7d 663d 1159 c8bd
000001f0: c282 d53d c6fb fd3d db2f 36bc cffa 8bbb

_backbone.linear_layers.2.weight f4 [64, 128]
0.0057248017 0.0019586133 0.026947754 0.054078583 -0.043722443 -0.04556581 0.016654095 -0.0129471645
-0.07251957 -0.096601255 -0.04655002 -0.073020875 0.03802927 0.067416795 -0.091504894 -0.04190275
-0.01981459 0.067119576 0.020523364 -0.09378491 0.035201244 -0.09106605 0.05854727 0.027503088
-0.07576784 -0.037084866 0.00084472244 -0.006309214 -0.06869579 -0.06616711 -0.08622025 0.028279189
-0.042677835 -0.07248172 0.055259258 -0.06853772 -0.09265485 0.015171461 -0.0431769 0.055118784
0.008590508 -0.07708518 -0.0064673335 0.04776904 0.06787265 0.0056495853 0.0115018105 0.021407453
0.06215426 -0.07791947 -0.012421217 -0.020174302 -0.02408808 0.0289372 0.02071405 -0.018779438
-0.041749664 0.0357336 0.046808146 0.019355036 -0.004011101 -0.097449 0.03298742 -0.012178673
-0.0329145 0.022089105 0.01104288 -0.10261803 -0.0039225672 0.004202407 0.02474951 -0.07033707
-0.009883034 -0.10354388 0.032646228 -0.074551895 0.06492985 -0.046055723 -0.048579153 0.017581137
-0.07829532 -0.049679726 -0.093728475 -0.06233344 0.06324139 -0.09827104 -0.04098794 0.05259175
-0.088598624 -0.025130412 -0.07802879 0.035999913 0.059364792 0.058722153 -0.10238145 -0.073970504
-0.054077275 0.0312706 -0.021106023 -0.08878124 0.014631177 -0.024779696 -0.07125644 0.009898513
0.037517246 -0.0498414 -0.052582182 0.05770477 0.0032412405 -0.05569481 0.027714645 0.027006324
-0.0889948 -0.004030995 0.015011744 -0.07975666 0.0022660093 -0.09033618 -0.03409701 -0.045033693
-0.103018746 0.022845775 -0.04292307 -0.07330696 0.026979255 -0.091070764 0.0029556397 -0.06302373
0.024641184 0.12849319 0.0018258044 0.16593707 -0.04216855 0.044530872 -0.056927957 -0.10277094
-0.12704693 -0.013867642 -0.014983358 0.03155826 -0.096893735 0.038242895 -0.0154592255 -0.08767853
0.052294016 0.013514091 -0.037072394 -0.10258853 0.047200184 0.05417909 -0.016948242 0.001957603
0.077121764 0.029733032 -0.11994416 -0.0158121 0.100467145 0.059364993 -0.012743355 -0.074753344
-0.02149175 -0.062042862 -0.016851474 0.0018309853 -0.039599724 0.064222515 -0.050248 -0.055252716
0.05527212 0.010226375 -0.052222323 0.018989049 0.06866241 0.0669395 0.07054726 -0.063901044
-0.07756415 0.05813463 0.0565479 0.059272107 -0.080823615 -0.009011774 0.08028507 0.21503226
-0.088261224 0.11574116 -0.1034098 -0.12747666 0.11579338 -0.13746952 -0.05806387 -0.047694366
-0.083017044 0.00031514184 0.068419516 -0.06841586 0.029588273 0.034231223 -0.028502926 -0.094464816
0.046770032 -0.10767748 -0.007850184 -0.046457145 0.013166388 -0.066146396 0.1399896 -0.09729971
-0.048588082 -0.08777346 0.062353242 0.08984767 0.045627158 -0.025231218 -0.027461495 -0.089694045
0.09211041 -0.09815091 0.064064756 0.065126464 -0.02761212 0.052990165 -0.047039144 0.039465755
0.007264996 0.065515436 -0.031732623 -0.019839233 0.065296315 0.011497669 0.016975624 -0.06694619
-0.024059514 0.1449565 0.06197201 -0.12059189 -0.06216757 0.031631377 0.029807718 -0.02661072
-0.036550418 0.020766906 -0.044032857 -0.060263116 -0.01950062 -0.03830151 -0.0010871802 -0.043190427
0.070131406 -0.05848393 -0.08796259 0.07755333 -0.10776686 -0.061952863 0.054843772 0.12046344
00000000: 1e97 bb3b 145c 003b 89c1 dc3c 8181 5d3d
00000010: 4e16 33bd 37a3 3abd 2b6e 883c 5820 54bc
00000020: 2485 94bd e1d6 c5bd 3cab 3ebd f88b 95bd
00000030: 94c4 1b3d d111 8a3d eb66 bbbd 38a2 2bbd
00000040: 3552 a2bc fd75 893d 9d20 a83c 4e12 c0bd
00000050: 2e2f 103d d680 babd 43cf 6f3d 284e e13c
00000060: 2b2c 9bbd 4de6 17bd 5d70 5d3a 86bd cebb
00000070: 61b0 8cbd 9f82 87bd 3e94 b0bd c2a9 e73c
00000080: f4ce 2ebd 4c71 94bd 8857 623d 815d 8cbd
00000090: d3c1 bdbd b891 783c 43da 30bd 3cc4 613d
000000a0: 34bf 0c3c d6de 9dbd edeb d3bb 78a9 433d
000000b0: d100 8b3d 2820 b93b 1772 3c3c af5e af3c
000000c0: 7795 7e3d 3e94 9fbd 5c82 4bbc 9444 a5bc
000000d0: 5d54 c5bc b50d ed3c 83b0 a93c 56d7 99bc
000000e0: b201 2bbd 655d 123d e6b9 3f3d 748e 9e3c
000000f0: 8e6f 83bb 5793 c7bd d11d 073d 0f89 47bc
00000100: 5bd1 06bd 36f4 b43c 32ed 343c 6729 d2bd
00000110: e188 80bb 58b4 893b 7cbf ca3c e20c 90bd
00000120: 73ec 21bc d00e d4bd 0db8 053d aaae 98bd
00000130: f1f9 843d eda4 3cbd effa 46bd 5106 903c
00000140: 4c59 a0bd f87c 4bbd b7f4 bfbd 5951 7fbd
00000150: b484 813d 5442 c9bd f8e2 27bd 726a 573d
00000160: 3273 b5bd 4bde cdbc 8fcd 9fbd a574 133d
00000170: 7f28 733d a486 703d 5ead d1bd d97d 97bd
00000180: 2280 5dbd 9a15 003d 8ae6 acbc f0d2 b5bd
00000190: 9bb7 6f3c cafe cabc e5ee 91bd 5f2d 223c
000001a0: afab 193d 7f26 4cbd 6a60 57bd d65b 6c3d
000001b0: fe6a 543b 3e20 64bd d309 e33c 5e3c dd3c
000001c0: e842 b6bd 7016 84bb d1f3 753c 7657 a3bd
000001d0: 5481 143b 2d02 b9bd 4ea9 0bbd 4075 38bd
000001e0: 7efb d2bd 1027 bb3c 1ad0 2fbd f621 96bd
000001f0: 9903 dd3c 4f83 babd 68b3 413b 9612 81bd
00000200: 4fdc c93c b893 033e d44f ef3a 68eb 293e
00000210: eeb8 2cbd 0166 363d 4a2d 69bd 9279 d2bd
00000220: 9718 02be 1b35 63bc c27c 75bc 3c43 013d
00000230: 3970 c6bd 95a4 1c3d b148 7dbc cd90 b3bd
00000240: 4032 563d 356a 5d3c 39d9 17bd ef19 d2bd
00000250: fb54 413d e5ea 5d3d 0ad7 8abc 214b 003b
00000260: 04f2 9d3d b092 f33c 49a5 f5bd 6188 81bc
00000270: b8c1 cd3d b528 733d 81c9 50bc 4818 99bd
00000280: 770f b0bc a820 7ebd 1a0c 8abc acfd ef3a
00000290: 5233 22bd 1887 833d d9d0 4dbd ac50 62bd
000002a0: 0565 623d 878c 273c 13e7 55bd ec8e 9b3c
000002b0: e19e 8c3d 9417 893d 157b 903d 8dde 82bd
000002c0: f4d9 9ebd 941e 6e3d c59e 673d 4fc7 723d
000002d0: da86 a5bd 1fa6 13bc 806c a43d 6b31 5c3e
000002e0: 4dc2 b4bd b409 ed3d 84c8 d3bd 3e89 02be
000002f0: 1425 ed3d cfc4 0cbe 61d4 6dbd 2b5b 43bd
00000300: d704 aabd 9f39 a539 881f 8c3d 9d1d 8cbd
00000310: 1b63 f23c 0a36 0c3d f87e e9bc c576 c1bd
00000320: ef91 3f3d 0386 dcbd 0f9e 00bc d949 3ebd
00000330: d5b7 573c c377 87bd 6f59 0f3e 1245 c7bd
00000340: 4c04 47bd 92c2 b3bd 1d66 7f3d 0e02 b83d
00000350: 8be3 3a3d b3b1 cebc eef6 e0bc 83b1 b7bd
00000360: 62a4 bc3d 5803 c9bd 6234 833d 0661 853d
00000370: d032 e2bc 370c 593d 1eac 40bd d8a6 213d
00000380: 340f ee3b f52c 863d 11fa 01bd e385 a2bc
00000390: 13ba 853d b860 3c3c 7710 8b3c 161b 89bd
000003a0: 7518 c5bc 7a6f 143e 5dd6 7d3d e1f8 f6bd
000003b0: 6ca3 7ebd e78f 013d 512f f43c bafe d9bc
000003c0: e4b5 15bd 5c1f aa3c cc5b 34bd 75d6 76bd
000003d0: c4bf 9fbc 0be2 1cbd b77f 8eba 72e8 30bd
000003e0: 0ea1 8f3d d88c 6fbd bb25 b4bd 48d4 9e3d
000003f0: dfb4 dcbd 49c2 7dbd dda3 603d 89b5 f63d

_backbone.linear_layers.2.bias f4 [64]
0.051390868 0.055084474 0.02369306 -0.06931465 0.013779791 -0.031164115 -0.013332558 0.06298044
-0.026968176 0.013642114 0.02420493 0.10061197 0.06480739 -0.064157076 -0.0392601 -0.04406854
-0.037719306 -0.008825169 -0.04732546 -0.034112137 0.008822406 -0.04338734 -0.035790276 0.0065092933
0.066233955 -0.072224066 0.04709956 0.04243561 0.09583884 0.012114816 0.028835302 -0.039520282
0.07602013 0.032766927 -0.0138629405 0.039359324 0.013605935 0.07645244 0.030511815 -0.02785182
-0.024479982 -0.0070737484 0.025636883 0.10091637 -0.044090614 -0.07641657 0.021931577 -0.04958835
0.061486375 -0.008217052 -0.051214214 -0.011488251 -0.07278182 0.03420024 -0.098656446 -0.059835605
0.025943952 0.062831275 -0.041101325 0.05081748 -0.11004382 0.030805964 -0.04166304 -0.05059922
00000000: 3b7f 523d 42a0 613d f317 c23c d7f4 8dbd
00000010: a2c4 613c e34b ffbc cd70 5abc e4fb 803d
00000020: 5dec dcbc 2c83 5f3c 6b49 c63c a60d ce3d
00000030: bdb9 843d c964 83bd 33cf 20bd 3781 34bd
00000040: 8f7f 1abd 7197 10bc 57d8 41bd 2bb9 0bbd
00000050: da8b 103c ecb6 31bd d398 12bd e94b d53b
00000060: aba5 873d 36ea 93bd 78eb 403d f6d0 2d3d
00000070: 2747 c43d 397d 463c 0338 ec3c 05e0 21bd
00000080: 71b0 9b3d 9d36 063d 6321 63bc 3e37 213d
00000090: 6deb 5e3c 1993 9c3d eaf3 f93c 8029 e4bc
000000a0: 3e8a c8bc e7ca e7bb 7104 d23c 3ead ce3d
000000b0: 5c98 34bd 4a80 9cbd daa9 b33c 271d 4bbd
000000c0: 23d9 7b3d d0a0 06bc ffc5 51bd 3839 3cbc
000000d0: a30e 95bd 8d15 0c3d 640c cabd 2e16 75bd
000000e0: 6988 d43c afad 803d dd59 28bd fd25 503d
000000f0: a85e e1bd ca5c fc3c dda6 2abd 2141 4fbd

_backbone.linear_layers.4.weight f4 [32, 64]
0.12506868 0.22309774 -0.020798704 0.04478861 -0.01682183 0.05795213 0.070102766 0.047602046
-0.009986236 0.06253559 0.021166202 -0.040925447 0.1076101 0.08568643 0.108589895 -0.1078977
0.10765363 0.033463143 -0.0026890656 0.35114977 0.030114627 -0.051724657 -0.052669864 0.010725958
-0.043722264 -0.14370637 0.07466634 -0.10563761 -0.07765951 -0.029887259 0.11199634 0.08402588
-0.02280182 0.09641933 -0.009068891 -0.09002536 0.13093217 -0.07645733 0.0010827946 -0.091326065
-0.034318235 -0.17165576 0.09059071 0.055338915 0.01167336 -0.049467023 0.1069778 -0.02884954
-0.00806299 -0.032490104 0.01847843 0.08747487 -0.0010528052 0.03907062 0.15038626 -0.10690605
0.09988353 0.11087368 0.027889688 0.11176669 0.018629326 -0.027946927 -0.03987697 0.105380766
-0.07726507 0.08397714 0.061826862 0.10926334 -0.04413769 0.06149993 0.049022008 -0.054257676
0.11063663 -0.07757839 -0.045889623 0.011689169 0.08435654 0.09001436 -0.0627419 0.12793331
0.019964742 -0.07888492 -0.074229605 0.11024546 -0.07346058 -0.031587046 -0.07333761 0.10988267
0.030489549 0.016622543 -0.058291912 -0.078332074 -0.011832891 -0.019619131 -0.079207614 -0.07854906
0.007982295 0.13306391 -0.05236484 -0.035602942 -0.06469447 0.020824548 -0.10817235 -0.015906636
0.05701833 -0.0335531 -0.055555765 0.0712492 -0.08434715 0.05467345 0.14053194 0.0144452965
0.10390198 0.17720263 0.101158835 -0.05569042 0.10666497 -0.062865354 0.068144314 0.09817644
0.10445591 -0.060368534 -0.055701952 0.023550164 0.024702108 0.0060286415 -0.021218956 -0.0070433216
0.11160576 0.061738037 0.014135893 0.05312308 -0.06306541 0.05617776 -0.08264586 -0.016466143
0.058931395 -0.034341585 -0.12053088 0.008510917 0.089079514 -0.055005822 -0.05384963 0.024505306
-0.09860221 -0.01202219 -0.10950289 0.07309799 0.02159769 0.032464676 -0.04439513 -0.022057056
-0.034749236 -0.023121772 0.04212785 -0.05908301 -0.03985443 -0.009512725 -0.09022251 0.039337087
-0.0060686003 0.060929727 -0.061810996 0.024295323 0.10403796 -0.070017196 -0.1263694 -0.021710126
-0.09913988 -0.09514553 -0.015516789 -0.09442819 -0.05796396 0.04568947 0.08137727 -0.0010749964
0.069547065 0.02683333 0.1127875 -0.1097291 0.037754577 -0.0026941993 0.06093459 -0.046457645
-0.12195062 -0.10888185 -0.10474565 0.045400325 -0.12439522 0.07905152 -0.11308775 0.077043965
-0.11619311 0.092274524 -0.0520228 0.0011688934 -0.11209642 0.01959578 -0.018155474 0.028091136
-0.10281211 0.055992316 0.024159214 -0.047175057 0.07330042 0.07443759 -0.059557088 -0.10912611
-0.04121827 0.11142769 -0.017290952 0.05365255 -0.05668128 -0.0708442 0.05435456 -0.09410196
-0.040580872 0.07990465 0.012916272 0.09992737 0.024555877 -0.013273183 0.017487956 0.07926916
0.035998568 0.033280026 -0.071506426 0.108287595 -0.006097844 0.022508956 0.04432615 -0.039771173
-0.0654574 0.10577832 -0.10489888 -0.11770947 0.0778257 -0.017004652 0.1068223 0.06941889
0.039120022 0.013151787 0.005288961 -0.12642935 0.10768789 -0.03882639 -0.10393185 -0.10925402
-0.005235576 0.06725147 0.10193886 -0.1276971 0.038334705 -0.05720069 -0.01846769 0.10784759
00000000: 0112 003e bc73 643e 0b62 aabc 4374 373d
00000010: efcd 89bc 365f 6d3d 0a92 8f3d 5dfa 423d
00000020: 4f9d 23bc a912 803d be64 ad3c 71a1 27bd
00000030: af62 dc3d 5e7c af3d 6164 de3d 78f9 dcbd
00000040: 8279 dc3d a610 093d 093b 30bb e7c9 b33e
00000050: f3b2 f63c 3cdd 53bd 5bbc 57bd eebb 2f3c
00000060: 1e16 33bd c327 13be abea 983d 8858 d8bd
00000070: f30b 9fbd 20d6 f4bc 565e e53d c315 ac3d
00000080: e2ca babc 7f77 c53d b095 14bc 375f b8bd
00000090: 1513 063e a995 9cbd 8fec 8d3a 2909 bbbd
000000a0: 4791 0cbd 87c6 2fbe 9f87 b93d 0fab 623d
000000b0: 9f41 3f3c ef9d 4abd 2d17 db3d df55 ecbc
000000c0: a21a 04bc 5814 05bd 1460 973c 0626 b33d
000000d0: 48fe 89ba 8408 203d dbfe 193e 8ff1 dabd
000000e0: bc8f cc3d bd11 e33d ea78 e43c efe5 e43d
000000f0: 879c 983c f4f0 e4bc 0956 23bd dfd1 d73d
00000100: 263d 9ebd 35fc ab3d 2a3e 7d3d 75c5 df3d
00000110: b9c9 34bd 5ae7 7b3d 4dcb 483d 4c3d 5ebd
00000120: 7595 e23d 6be1 9ebd c2f6 3bbd ee83 3f3c
00000130: 1fc3 ac3d 7359 b83d d37e 80bd f300 033e
00000140: 198d a33c 6b8e a1bd b105 98bd 5fc8 e13d
00000150: 8072 96bd 6b61 01bd 0732 96bd 2a0a e13d
00000160: 38c5 f93c 002c 883c 80c3 6ebd 916c a0bd
00000170: bede 41bc 4db8 a0bc 9a37 a2bd 54de a0bd
00000180: 2cc8 023c e841 083e 847c 56bd 64d4 11bd
00000190: 897e 84bd 3e98 aa3c 7789 ddbd a24e 82bc
000001a0: 0d8c 693d fa6e 09bd 718e 63bd 1aeb 913d
000001b0: 33be acbd 44f1 5f3d 9be7 0f3e f7ab 6c3c
000001c0: 90ca d43d 9b74 353e 5d2c cf3d a31b 64bd
000001d0: 2a73 da3d 8dbf 80bd 3f8f 8b3d bb10 c93d
000001e0: fbec d53d ff44 77bd bb27 64bd 46ec c03c
000001f0: 135c ca3c e98b c53b 60d3 adbc aacb e6bb
00000200: 9091 e43d 06e1 7c3d 3c9a 673c 9697 593d
00000210: 7028 81bd a71a 663d 3c42 a9bd 01e4 86bc
00000220: 0c62 713d c3a9 0cbd e5d8 f6bd 6071 0b3c
00000230: 526f b63d c94d 61bd 6e91 5cbd 5abf c83c
00000240: f5ef c9bd b8f8 44bc 0d43 e0bd 66b4 953d
00000250: a4ed b03c aef9 043d abd7 35bd 00b1 b4bc
00000260: 3755 0ebd df69 bdbc 418e 2c3d 0701 72bd
00000270: 663e 23bd 43db 1bbc 94c6 b8bd ed1f 213d
00000280: 1cdb c6bb 7391 793d 872d 7dbd fc06 c73c
00000290: db11 d53d 2d65 8fbd fb66 01be 6fd9 b1bc
000002a0: d909 cbbd a9db c2bd 213a 7ebc 9163 c1bd
000002b0: 9e6b 6dbd e224 3b3d 20a9 a63d e5e6 8cba
000002c0: b16e 8e3d 92d1 db3c 22fd e63d a6b9 e0bd
000002d0: 8ba4 1a3d 2a91 30bb 8c96 793d 5f4a 3ebd
000002e0: 3fc1 f9bd 73fd debd e384 d6bd b1f5 393d
000002f0: ecc2 febd c3e5 a13d 8d9a e7bd 3ac9 9d3d
00000300: a7f6 edbd 6dfa bc3d dc15 55bd 8e35 993a
00000310: cf92 e5bd 5487 a03c caba 94bc 621f e63c
00000320: 288f d2bd 3358 653d 8be9 c53c a23a 41bd
00000330: 881e 963d bc72 983d 22f2 73bd 837d dfbd
00000340: 7dd4 28bd 3334 e43d c1a5 8dbc c7c2 5b3d
00000350: a12a 68bd c416 91bd e3a2 5e3d 87b8 c0bd
00000360: 2138 26bd 0da5 a33d c59e 533c b9a6 cc3d
00000370: 6829 c93c c477 59bc e742 8f3c df57 a23d
00000380: 3c73 133d a350 083d f671 92bd e3c5 dd3d
00000390: 6cd0 c7bb b464 b83c 568f 353d 19e7 22bd
000003a0: 880e 86bd 4ea2 d83d 39d5 d6bd aa11 f1bd
000003b0: 1563 9f3d 574d 8bbc a6c5 da3d 7e2b 8e3d
000003c0: 513c 203d 987a 573c 054f ad3b b276 01be
000003d0: 788b dc3d 6c08 1fbd 39da d4bd 92c0 dfbd
000003e0: 328f abbb 24bb 893d 52c5 d03d 07c3 02be
000003f0: da04 1d3d 454b 6abd 8e49 97bc 33df dc3d

_backbone.linear_layers.4.bias f4 [32]
-0.001074557 0.12177905 -0.027900241 0.041444995 -0.11562521 0.045503344 0.08523805 -0.13114752
0.13681833 -0.08487829 0.044589743 -0.017136345 -0.02824556 -0.030813646 0.045036368 0.015223272
-0.08330499 -0.046398353 0.07658127 -0.091714665 -0.077032134 -0.031268485 -0.108986326 -0.06735129
-0.06886276 -0.10637751 -0.10568146 0.090296 -0.09105737 -0.018276544 0.02395387 -0.05269171
00000000: 26d8 8cba 4b67 f93d 0c8f e4bc 3ac2 293d
00000010: e9cc ecbd b761 3a3d 4991 ae3d 894b 06be
00000020: 1b1a 0c3e abd4 adbd bca3 363d 8561 8cbc
00000030: 3c63 e7bc e66c fcbc 0e78 383d 086b 793c
00000040: ce9b aabd 330c 3ebd a4d6 9c3d e6d4 bbbd
00000050: 06c3 9dbd 6213 00bd 3934 dfbd 79ef 89bd
00000060: eb07 8dbd 74dc d9bd 856f d8bd 1ced b83d
00000070: 497c babd b1b8 95bc e83a c43c 43d3 57bd

_embedding_layer.cat_embedding_layers.0.weight f4 [8, 4]
-1.996155 -1.0480019 -1.8016107 -1.1787668 -0.016438017 -0.45177716 0.6230167 1.3042114
1.0287226 -0.06441526 0.56225055 -0.56788087 -1.3078665 0.8117655 -0.5641923 -0.21304348
-1.3772225 -2.2778413 -1.2557713 -0.2946879 -0.31378132 0.68053484 0.18356732 -1.2217393
-0.6038115 0.23638868 0.107726656 0.053901356 -0.5454215 0.77413255 0.41621077 -1.1546427
00000000: 0282 ffbf ed24 86bf 2e9b e6bf d5e1 96bf
00000010: 05a9 86bc 564f e7be 067e 1f3f 66f0 a63f
00000020: 2fad 833f 26ec 83bd a7ef 0f3f a460 11bf
00000030: 2b68 a7bf ddcf 4f3f e86e 10bf 1228 5abe
00000040: d448 b0bf 27c8 11c0 1dbd a0bf 55e1 96be
00000050: f2a7 a0be 8837 2e3f 12f9 3b3e f461 9cbf
00000060: 6493 1abf e00f 723e cb9f dc3d abc7 5c3d
00000070: bea0 0bbf 8d2d 463f 9419 d53e 55cb 93bf

_embedding_layer.cat_embedding_layers.1.weight f4 [8, 4]
-0.0962941 0.63883543 0.92154604 -0.6508666 0.21411723 0.27508104 1.5913279 -0.8366266
1.8131797 0.73337644 0.37062553 -1.820279 0.73469245 2.1447227 1.7812103 0.35502726
0.1846496 -0.049326032 0.07770774 0.7360099 -0.6505101 -0.6167094 0.60349303 0.9405879
-0.2568116 -0.33198428 -0.08712146 -0.27456138 0.5689781 -0.31898558 1.1550038 -0.7650865
00000000: d735 c5bd b88a 233f 71ea 6b3f 329f 26bf
00000010: 8c41 5b3e 6cd7 8c3e a2b0 cb3f 292d 56bf
00000020: 4616 e83f 8fbe 3b3f a1c2 bd3e e7fe e8bf
00000030: ce14 3c3f 2343 0940 b3fe e33f 22c6 b53e
00000040: c914 3d3e 180a 4abd 3c25 9f3d 256b 3c3f
00000050: d487 26bf abe0 1dbf 857e 1a3f 5eca 703f
00000060: cf7c 83be d8f9 a9be bc6c b2bd 4f93 8cbe
00000070: 8ca8 113f 1452 a3be 2ad7 933f b5dc 43bf

_embedding_layer.cat_embedding_layers.2.weight f4 [3, 2]
-1.8412266 0.19801834 -0.013609278 -1.9598603 0.27614087 0.3493574
00000000: 50ad ebbf 52c5 4a3e 73f9 5ebc b4dc fabf
00000010: 5662 8d3e f9de b23e

_embedding_layer.cat_embedding_layers.3.weight f4 [4, 2]
-0.5770291 1.3222868 -0.2577076 0.18670681 -1.0385151 0.3385903 -0.5951131 1.6470891
00000000: 2eb8 13bf b240 a93f 40f2 83be 1230 3f3e
00000010: 10ee 84bf b55b ad3e 5559 18bf d1d3 d23f

_embedding_layer.cat_embedding_layers.4.weight f4 [5, 3]
-0.4362236 0.769207 -1.9007833 -0.30466864 -1.1363194 -0.09663419 1.4338748 0.52657723
-0.35882142 -0.047151465 -1.2685905 0.6811146 0.28912354 0.48818952 1.7369604
00000000: b358 dfbe c0ea 443f de4c f3bf 87fd 9bbe
00000010: ea72 91bf 25e8 c5bd 3689 b73f c4cd 063f
00000020: 71b7 b7be e521 41bd 2c61 a2bf 875d 2e3f
00000030: 0008 943e faf3 f93e b854 de3f

_embedding_layer.cat_embedding_layers.5.weight f4 [6, 3]
-0.9631006 -1.0636332 0.34340182 0.009247071 -0.058621656 -1.459175 0.81151366 -1.1710823
0.9567436 -0.33863834 -0.7492798 2.8562899 -1.6137218 1.0377434 -0.8623141 -0.36430395
1.8142171 0.6753816
00000000: c38d 76bf 2225 88bf 5dd2 af3e 0781 173c
00000010: 431d 70bd 3fc6 babf 5cbf 4f3f 06e6 95bf
00000020: 26ed 743f 0162 adbe cdd0 3fbf 74cd 3640
00000030: 708e cebf c7d4 843f 9ec0 5cbf 0c86 babe
00000040: 4438 e83f cfe5 2c3f

_embedding_layer.cat_embedding_layers.6.weight f4 [8, 4]
0.46454602 0.84394497 0.7969668 0.27887636 -1.4738197 -0.9166821 -1.3004996 0.67544657
0.28449586 0.25006178 1.6862276 -1.3274034 0.22100556 1.2421838 0.4700533 1.4571749
-1.2933316 0.4860633 -0.7413383 0.270348 2.7324777 -0.81813705 -0.5412276 -1.2503595
-0.12941517 -0.8108027 -1.0880094 0.84044045 0.50615543 0.20301726 0.16280161 -0.19611783
00000000: fad8 ed3e c70c 583f 0406 4c3f e2c8 8e3e
00000010: 20a6 bcbf aeab 6abf c576 a6bf 11ea 2c3f
00000020: 71a9 913e 1908 803e 4ed6 d73f 5be8 a9bf
00000030: 484f 623e e1ff 9e3f d3aa f03e b584 ba3f
00000040: e48b a5bf 4add f83e 59c8 3dbf 0e6b 8a3e
00000050: eae0 2e40 6e71 51bf e48d 0abf c80b a0bf
00000060: 6985 04be c490 4fbf e443 8bbf 1b27 573f
00000070: 6793 013f c2e3 4f3e 77b5 263e 1dd3 48be

_embedding_layer.cat_embedding_layers.7.weight f4 [10, 5]
0.13500357 -0.17414963 -1.1303089 0.19120346 0.58609706 0.4735161 0.04104725 -2.2295802
0.96658194 1.2036537 -2.0066383 1.2134266 -1.5311483 -0.50380665 -0.606706 -0.53157115
-0.7513402 -0.6629409 -0.935867 0.79631454 0.6929556 0.43936667 -0.14725892 0.2749172
0.6486999 -2.4114532 -0.7741678 0.20944448 0.38626006 -1.316986 1.5951966 -0.068299055
0.28074935 0.627885 -1.6349207 -0.23724508 -1.2523243 -0.042684168 0.27900812 1.4536463
-1.0087904 0.8678717 1.2936496 0.11944492 0.27616996 -0.19977717 -2.7209456 0.2964627
0.5601781 0.6376978
00000000: 603e 0a3e 4854 32be f6ad 90bf d7ca 433e
00000010: 750a 163f b470 f23e 2921 283d 71b1 0ec0
00000020: ea71 773f 5311 9a3f c36c 00c0 9051 9b3f
00000030: abfc c3bf 79f9 00bf 1651 1bbf 0c15 08bf
00000040: d557 40bf 7fb6 29bf fb94 6fbf 45db 4b3f
00000050: 8a65 313f abf4 e03e 0bcb 16be f2c1 8c3e
00000060: 3211 263f 4055 1ac0 dc2f 46bf 9d78 563e
00000070: e1c3 c53e ff92 a8bf 672f cc3f 60e0 8bbd
00000080: 61be 8f3e 12bd 203f 1545 d1bf 60f0 72be
00000090: 2a4c a0bf 98d5 2ebd 27da 8e3e 1511 ba3f
000000a0: 0b20 81bf d72c 5e3f 4f96 a53f 8a9f f43d
000000b0: 2666 8d3e 6392 4cbe f923 2ec0 f6c9 973e
000000c0: d567 0f3f 2a40 233f

_embedding_layer.normalizing_batch_norm.bn.weight f4 [57]
0.94836366 1.0257659 1.02738 0.97889173 0.9476297 0.9792894 0.96516395 0.9529804
0.9331304 0.954886 0.96500057 0.9445617 0.9631192 0.9809324 0.96799123 1.0176244
0.9698052 0.93061 0.97863436 0.95210785 0.9884216 0.96954364 0.94785804 0.9915716
0.9719139 0.9629816 0.9461495 0.98298436 0.9547977 1.0144745 0.97831506 0.9868159
1.1853801 1.0853636 1.0987531 1.0110496 1.001639 0.976007 0.99449426 0.98444265
0.96882915 0.9878278 0.977153 1.0020039 1.0406555 0.9632244 0.9591067 0.9496458
0.94496065 0.9555284 1.0778162 0.9669818 0.9858911 0.9603881 1.0192369 1.0281656
1.0099185
00000000: f6c7 723f 4c4c 833f 3081 833f a698 7a3f
00000010: dc97 723f b6b2 7a3f fc14 773f 86f6 733f
00000020: a2e1 6e3f 6973 743f 470a 773f ccce 713f
00000030: fb8e 763f 631e 7b3f 46ce 773f 8441 823f
00000040: 2745 783f 753c 6e3f c887 7a3f 57bd 733f
00000050: 3309 7d3f 0334 783f d3a6 723f a3d7 7d3f
00000060: 59cf 783f f685 763f db36 723f dda4 7b3f
00000070: 9f6d 743f 4dda 813f db72 7a3f f89f 7c3f
00000080: 89ba 973f 32ed 8a3f f1a3 8c3f 136a 813f
00000090: b535 803f 98db 793f 2d97 7e3f 6f04 7c3f
000000a0: 3005 783f 48e2 7c3f b326 7a3f aa41 803f
000000b0: 3334 853f e095 763f 0488 753f fd1b 733f
000000c0: f1e8 713f 829d 743f e2f5 893f 1f8c 773f
000000d0: 5c63 7c3f ffdb 753f 5b76 823f ee9a 833f
000000e0: 0245 813f

_embedding_layer.normalizing_batch_norm.bn.bias f4 [57]
-0.024662664 0.014186293 0.022416348 0.011357986 0.0017320573 -0.0110043995 0.018889634 0.02695468
0.035123583 -0.02812308 0.051041998 0.006432046 -0.0014287747 0.019048665 0.00987738 -0.00038381873
-0.009936546 0.012279284 0.0012895184 -0.00067097694 -0.011671243 -0.017767321 0.04343743 0.03670454
0.0018861579 0.0026198225 0.01900341 -0.014839112 0.020371987 0.025849123 -0.017475175 -0.014221998
0.02036927 0.011650976 0.0013830629 -0.010605288 0.0054414705 0.010625475 0.032118987 -0.0009347426
0.019179383 0.0015188917 -0.019734105 0.022589156 -0.032381676 0.011951125 0.005519418 0.014205953
-0.00773313 0.023570234 -0.008802356 -0.022461649 0.02866045 0.02858788 -0.0140299 0.0069080987
0.015274609
00000000: 5b09 cabc a06d 683c 7da2 b73c d916 3a3c
00000010: 3306 e33a cc4b 34bc 6fbe 9a3c 10d0 dc3c
00000020: bfdd 0f3d 6062 e6bc 6a11 513d eac3 d23b
00000030: b945 bbba f20b 9c3c bcd4 213c 473b c9b9
00000040: e5cc 22bc 0d2f 493c 0f05 a93a 80e4 2fba
00000050: be38 3fbc c68c 91bc 72eb 313d 8057 163d
00000060: f538 f73a 54b1 2b3b 0aad 9b3c bf1f 73bc
00000070: 27e3 a63c 8ac1 d33c 1928 8fbc 6203 69bc
00000080: 75dd a63c bce3 3e3c e447 b53a cdc1 2dbc
00000090: 5d4e b23b 7916 2e3c 338f 033d 8409 75ba
000000a0: 151e 9d3c 8c15 c73a 6ba9 a1bc e50c b93c
000000b0: a6a2 04bd a7ce 433c 3cdc b43b 16c0 683c
000000c0: 3266 fdbb 5d16 c13c c237 10bc 7e01 b8bc
000000d0: 52c9 ea3c 2131 ea3c aadd 65bc 555d e23b
000000e0: 5b42 7a3c

_embedding_layer.normalizing_batch_norm.bn.running_mean f4 [57]
0.00050974305 -0.05548761 0.051689174 0.017749008 0.015141528 0.028962059 0.017281795 0.023330018
0.013265563 0.032678034 0.012383031 0.039785024 0.057250313 0.02492791 0.04914772 0.005391596
0.05241632 -0.0011026228 -0.00018558356 0.004473528 0.05234163 0.03901175 0.048817117 0.07233935
0.07140657 0.01114898 0.071037896 0.06563255 0.011689903 0.028030057 0.062004156 0.06572972
-0.010542676 0.04367648 0.07294304 0.07412425 0.08013756 0.0111495275 0.026289096 0.012870407
0.02144738 0.028944887 0.047512155 0.06268135 -0.05737944 0.016487136 0.00591567 0.012207151
0.011460249 0.009668111 -0.0031025887 0.008172431 -0.04393761 0.023756715 0.0046874885 0.03006865
-0.05210616
00000000: 47a0 053a fa46 63bd 07b8 533d 5e66 913c
00000010: 2c14 783c d741 ed3c 8d92 8d3c 981e bf3c
00000020: ce57 593c 67d9 053d 32e2 4a3c 9ff5 223d
00000030: 4e7f 6a3d 9e35 cc3c 1f4f 493d fcab b03b
00000040: 7fb2 563d e285 90ba 3599 42b9 ac96 923b
00000050: 2d64 563d c9ca 1f3d 75f4 473d a726 943d
00000060: 9c3d 923d 36aa 363c 517c 913d 5c6a 863d
00000070: 0287 3f3c 4a9f e53c 12f8 7d3d 4e9d 863d
00000080: 30bb 2cbc 1ce6 323d 2963 953d 74ce 973d
00000090: 291f a43d 82ac 363c 3b5c d73c 66de 523c
000000a0: 6ab2 af3c d41d ed3c 1b9c 423d 145f 803d
000000b0: b406 6bbd 0810 873c 3dd8 c13b 8100 483c
000000c0: c5c3 3b3c ff66 1e3c cd54 4bbb a9e5 053c
000000d0: ecf7 33bd 719d c23c 8199 993b 8852 f63c
000000e0: 456d 55bd

_embedding_layer.normalizing_batch_norm.bn.running_var f4 [57]
0.21967582 0.3981777 0.3910935 0.07515347 0.070423804 0.13769005 0.07406739 0.14724468
0.06785106 0.14931414 0.05400322 0.40157714 0.32294697 0.44900942 0.32258543 0.0010061782
0.24450912 0.009978708 0.009827749 0.015641391 0.7021972 0.74316937 0.236635 0.44496208
0.43073758 0.081681006 0.3771552 0.36596057 0.06499123 0.8808606 0.7057033 0.70030236
0.7245143 0.5969894 0.5976815 0.4479796 0.42973214 0.04977258 0.89004254 0.065011196
0.90145326 0.86082333 0.25234783 0.35181916 0.37003112 0.06475957 0.039711393 0.054463767
0.057051998 0.022095833 0.72755164 0.024725955 0.734098 0.10672214 0.05167869 0.1646182
0.2732212
00000000: b3f2 603e f3dd cb3e 683d c83e 10ea 993d
00000010: 5b3a 903d 9ffe 0c3e a5b0 973d 4fc7 163e
00000020: 7ff5 8a3d cee5 183e 7b32 5d3d 859b cd3e
00000030: 4e59 a53e 90e4 e53e eb29 a53e bde1 833a
00000040: 9960 7a3e bc7d 233c 9104 213c 6022 803c
00000050: 32c3 333f 5940 3e3f 7250 723e 12d2 e33e
00000060: a389 dc3e 5f48 a73d 7d1a c13e 2f5f bb3e
00000070: 1f1a 853d 1580 613f f9a8 343f 0447 333f
00000080: c579 393f 4cd4 183f a801 193f 955d e53e
00000090: da05 dc3e 55de 4b3d d4d9 633f 9724 853d
000000a0: a4c5 663f eb5e 5c3f bc33 813e a421 b43e
000000b0: b874 bd3e aaa0 843d 6aa8 223d 6615 5f3d
000000c0: 5baf 693d 5202 b53c d340 3a3f 168e ca3c
000000d0: d9ed 3b3f 2391 da3d 09ad 533d ac91 283e
000000e0: a6e3 8b3e

head.layers.0.weight f4 [2, 32]
-0.10756543 0.14427902 -0.070803404 -0.14949542 -0.039244387 0.13802092 -0.029043196 0.104437165
0.15531437 -0.18227488 -0.012658299 0.19617277 -0.1248862 0.34268668 0.11998636 0.027012577
0.090988494 0.1630786 0.14057325 0.03073078 0.021862775 0.16664214 -0.15500522 0.08471988
0.021599444 -0.060827594 0.083306484 0.18384287 0.03257536 0.08787238 -0.14059289 -0.121893436
-0.18575741 -0.18724264 0.16507958 0.09179083 0.05343577 -0.08615966 0.14909683 0.008907924
-0.021504283 -0.083244234 0.049595505 -0.16412334 0.09187623 -0.11406336 -0.12350302 0.14975987
-0.06844861 -0.09374916 -0.13197061 -0.17905547 0.023229484 -0.33112416 -0.1440155 -0.17121017
0.041131157 -0.14228788 0.16360582 0.022656046 0.23402429 -0.0023316084 0.10817139 0.2118822
00000000: 444b dcbd e1bd 133e 6001 91bd 5415 19be
00000010: b9be 20bd 5b55 0d3e ffeb edbc 27e3 d53d
00000020: bb0a 1f3e 44a6 3abe c164 4fbc 84e1 483e
00000030: 56c4 ffbd a174 af3e 69bb f53d 7b49 dd3c
00000040: 2d58 ba3d 14fe 263e 6ff2 0f3e 1ebf fb3c
00000050: 9019 b33c 3da4 2a3e b0b9 1ebe 9e81 ad3d
00000060: 51f1 b03c 5b26 79bd 979c aa3d 4e41 3c3e
00000070: be6d 053d 6ff6 b33d 95f7 0fbe 44a3 f9bd
00000080: 3137 3ebe 89bc 3fbe 9f0a 293e d5fc bb3d
00000090: 77df 5a3d 7a74 b0bd d7ac 183e 8bf2 113c
000000a0: c029 b0bc f47b aabd a824 4b3d f30f 28be
000000b0: 9b29 bc3d 0d9a e9bd 27ef fcbd a75a 193e
000000c0: c92e 8cbd 8fff bfbd 4e23 07be 515a 37be
000000d0: c24b be3c 1b89 a9be cd78 13be b851 2fbe
000000e0: 2579 283d eab3 11be 4988 273e 2c99 b93c
000000f0: 10a4 6f3e e6cd 18bb f688 dd3d a6f7 583e

head.layers.0.bias f4 [2]
0.06896609 0.10908105
00000000: 183e 8d3d e365 df3d

exp_avg f4 [128, 84]
-0.00048476638 4.667943e-05 -0.0005774925 -9.58693e-05 8.6731625e-06 -0.00023408006 0.00022491922 -0.00014134796
-3.291694e-05 -0.00013681455 -1.4049032e-05 -0.0002048039 -0.0002525093 0.00025093352 -0.00013728757 -3.965389e-07
-1.38294345e-05 2.3928076e-05 3.679641e-06 8.2967e-06 -0.00011503292 -0.0002870533 -0.00010282301 -0.00032311367
-0.00019293833 -0.00044282025 -0.00026914186 -0.00017184624 -0.0004543474 9.36048e-06 0.00014502625 0.00013157353
2.1375317e-05 0.0002665259 -7.7228266e-05 4.3735075e-05 -3.7639955e-05 2.7216884e-05 6.277696e-05 2.3710798e-05
4.790456e-05 -2.0225807e-06 8.886743e-05 -6.6872315e-05 3.542382e-05 3.071577e-05 0.00047130988 -1.3029869e-05
-0.00014706604 -0.0001064293 -6.962038e-05 0.00010292595 0.0003112912 1.44219375e-05 2.7079719e-05 7.137824e-05
-0.00012077908 1.0391472e-05 0.00032489197 -8.4216435e-06 0.00018067053 -0.0005411351 -0.00010729175 2.1576827e-05
0.00059761404 -5.7754587e-05 5.2519285e-05 6.923586e-05 -4.2715816e-05 4.155488e-05 0.00027275048 3.4678127e-05
-7.622544e-05 7.142437e-05 0.00034955223 0.00013102758 0.00030380042 0.00041645326 -0.00010291809 0.00016834291
-0.00015322663 0.0005083194 -0.00011972567 -9.73578e-05 0.00061000866 -0.00017820443 0.0008706031 -3.3721597e-05
0.00012346852 -1.4513308e-05 -0.0001308864 2.291068e-05 -6.468273e-05 -1.5322163e-05 -9.078943e-05 -9.17966e-05
0.0002842137 -0.00029212938 0.00013408651 4.8522816e-07 8.7237415e-05 -0.0001331429 -7.461355e-06 -9.978729e-06
0.00026669103 0.0004214803 0.00013255724 0.0010394754 0.0008557392 0.0005644348 0.001006061 0.00090787036
0.0005982227 0.00015708765 0.0003855565 0.00039027224 1.0235476e-05 -8.8793495e-05 0.00013471616 9.316403e-05
-2.2906754e-06 3.932038e-06 -7.219673e-05 -0.00014833701 -5.1699077e-05 -8.33338e-06 -0.00020069761 0.00012934954
-0.00017685619 -0.00018313288 -2.5275107e-05 0.00018918826 -3.1394007e-05 -7.931747e-06 -0.00012897134 -2.764009e-05
-0.00026644714 -0.0004095494 -4.035157e-05 -6.6691166e-05 0.00014278015 0.00012589949 -0.00062916515 0.00011401755
-0.000108182154 0.0007962794 6.079736e-05 -5.1215786e-05 -0.0009855181 5.668807e-05 -0.0002154721 -0.00015760948
0.0001165292 -9.596583e-05 -0.0003955837 -3.5937326e-05 5.1866096e-05 -6.335392e-05 -0.0003348916 -0.00014506324
-0.00041224112 -0.0006467362 0.00015316463 -7.420073e-05 0.00012821042 -0.0003787462 7.677397e-05 0.00016036745
-0.0004552029 -0.00014190501 -0.00086042966 6.6274e-05 2.8291352e-05 -1.1102103e-06 0.00030288377 9.4911804e-05
0.00012167031 0.00012629924 0.00014858457 -0.00031335195 -0.00034924163 0.0005212535 -0.00025597648 -1.6301606e-06
0.00017058606 0.00010931364 3.848527e-06 0.00012735916 0.00018422029 -1.0697984e-06 0.00025776416 -0.000115218965
-0.00016683138 0.00016571378 -0.00016004434 -0.00018610015 5.2425534e-05 -0.00042203476 0.00010464038 2.8914608e-05
0.000436275 0.0006130695 -0.00060566363 -0.00016371724 0.00017198474 0.00010810553 -0.00015802777 2.1151653e-05
-0.00025870826 -0.00023108505 9.219906e-05 0.00017507357 -0.00023842702 9.5134994e-05 2.5365252e-05 2.0024414e-05
7.7075165e-05 3.940537e-06 -0.00019169402 -1.8462861e-06 -0.0001487397 2.681199e-05 9.543227e-07 -2.8521059e-05
-8.947919e-05 -0.00025863736 0.00052491075 5.9418908e-05 -3.4970595e-05 -0.00048044257 0.00016133171 0.00041582552
0.00066660077 -1.8346349e-05 -0.00022254583 -4.1635765e-05 4.9777456e-05 0.00011118242 7.104338e-05 -2.3318054e-05
-5.718281e-05 9.7705844e-05 -7.107028e-05 -0.0002316399 0.00010235107 0.00011350097 -2.0822712e-05 -0.00016942191
0.00014010252 0.0004560012 -0.00024616564 -0.00025424245 0.0007903986 0.00012184447 0.0005808841 0.00019725092
00000000: 3e28 feb9 a8c9 4338 de62 17ba 700d c9b8
00000010: f382 1137 6373 75b9 4bd8 6b39 ce36 14b9
00000020: 4c10 0ab8 e075 0fb9 22b4 6bb7 a1c0 56b9
00000030: 3963 84b9 ba8f 8339 daf4 0fb9 e4e3 d4b4
00000040: f804 68b7 27b9 c837 c0ef 7636 0e32 0b37
00000050: d43d f1b8 a47f 96b9 afa2 d7b8 9567 a9b9
00000060: 7d4f 4ab9 542a e8b9 9c1b 8db9 a031 34b9
00000070: 7a35 eeb9 f50a 1d37 3012 1839 00f7 0939
00000080: 254f b337 80bc 8b39 9cf5 a1b8 2e70 3738
00000090: 98df 1db8 d04f e437 20a7 8338 8de6 c637
000000a0: 21ed 4838 acbb 07b6 575e ba38 cd3d 8cb8
000000b0: 0994 1438 cfd4 0038 241a f739 dc9a 5ab7
000000c0: bd35 1ab9 cc32 dfb8 2801 92b8 f3d9 d738
000000d0: cc34 a339 c0f5 7137 4129 e337 e7b0 9538
000000e0: c64a fdb8 0857 2e37 4356 aa39 af4a 0db7
000000f0: 6072 3d39 f6da 0dba d201 e1b8 e2ff b437
00000100: 33a9 1c3a 843d 72b8 2748 5c38 b832 9138
00000110: c229 33b8 364b 2e38 f3ff 8e39 5b73 1138
00000120: 39db 9fb8 abc9 9538 1b44 b739 7364 0939
00000130: 6747 9f39 6957 da39 bbd5 d7b8 3585 3039
00000140: 76ab 20b9 bd40 053a 3b15 fbb8 922c ccb8
00000150: fde8 1f3a 63dc 3ab9 2f39 643a 4a70 0db8
00000160: 5477 0139 2f7e 73b7 8d3e 09b9 5030 c037
00000170: 47a6 87b8 1888 80b7 3466 beb8 ed82 c0b8
00000180: 8402 9539 f128 99b9 9399 0c39 a040 0235
00000190: 3bf3 b638 469c 0bb9 8d5c fab6 516a 27b7
000001a0: aad2 8b39 21fa dc39 10ff 0a39 023f 883a
000001b0: b053 603a 94f6 133a cedd 833a 26fe 6d3a
000001c0: 0cd2 1c3a e5b7 2439 8424 ca39 749d cc39
000001d0: 09b9 2b37 a536 bab8 9842 0d39 0f61 c338
000001e0: 81b9 19b6 f3ef 8336 5368 97b8 ea8a 1bb9
000001f0: 76d7 58b8 98cf 0bb7 5b72 52b9 01a2 0739
00000200: 7972 39b9 5c07 40b9 e105 d4b7 d660 4639
00000210: 0fad 03b8 9812 05b7 7b3c 07b9 a4dc e7b7
00000220: eeb1 8bb9 cab8 d6b9 2b3f 29b8 8cdc 8bb8
00000230: 41b7 1539 e303 0439 8fee 24ba b51c ef38
00000240: dadf e2b8 68bd 503a ab00 7f38 88d0 56b8
00000250: 802c 81ba 5ac4 6d38 5af0 61b9 f943 25b9
00000260: 2361 f438 4341 c9b8 5866 cfb9 69bb 16b8
00000270: cc8a 5938 e0dc 84b8 6494 afb9 1e1c 18b9
00000280: 1122 d8b9 bb89 29ba d19a 2039 379c 9bb8
00000290: 3970 0639 7492 c6b9 b601 a138 4f28 2839
000002a0: 4da8 eeb9 56cc 14b9 758e 61ba 95fc 8a38
000002b0: 3753 ed37 8902 95b5 5fcc 9e39 630b c738
000002c0: 4029 ff38 326f 0439 5ecd 1b39 6349 a4b9
000002d0: 6b1a b7b9 bba4 083a 9534 86b9 e4cb dab5
000002e0: 59df 3239 503f e538 9822 8136 b78b 0539
000002f0: 422b 4139 fe95 8fb5 8524 8739 b6a1 f1b8
00000300: 75ef 2eb9 74c3 2d39 93d1 27b9 e123 43b9
00000310: 7de3 5b38 8c44 ddb9 6072 db38 a68d f237
00000320: d7bb e439 66b6 203a 66c5 1eba 83ab 2bb9
00000330: cd56 3439 b7b6 e238 42b4 25b9 d46e b137
00000340: 3ca3 87b9 6c4f 72b9 fe5a c138 f493 3739
00000350: 4402 7ab9 3683 c738 77c7 d437 1afa a737
00000360: 6aa3 a138 f538 8436 7901 49b9 e8cd f7b5
00000370: 02f7 1bb9 4fea e037 4716 8035 8240 efb7
00000380: c6a6 bbb8 b899 87b9 2a9a 093a 9138 7938
00000390: 64ad 12b8 e9e3 fbb9 272b 2939 2803 da39
000003a0: d2be 2e3a 7ce6 99b7 315b 69b9 10a2 2eb8
000003b0: 23c8 5038 9b2a e938 20fd 9438 249b c3b7
000003c0: 93d7 6fb8 6de7 cc38 910b 95b8 5de4 72b9
000003d0: 50a5 d638 5f07 ee38 6fac aeb7 d9a6 31b9
000003e0: 7ce8 1239 7213 ef39 cb0f 81b9 d84b 85b9
000003f0: c132 4f3a c086 ff38 7946 183a 24d5 4e39

exp_avg_sq f4 [128, 84]
9.592056e-08 1.1648475e-07 7.946037e-08 7.83738e-08 3.1223085e-08 1.2634867e-07 1.313457e-07 1.1745391e-07
1.05056465e-07 1.070879e-07 1.4866282e-07 2.953947e-08 8.4130406e-08 4.5798522e-08 2.9051883e-08 6.571424e-12
4.5189704e-08 1.08879625e-07 6.893328e-10 1.0397347e-08 6.310542e-08 5.1511783e-08 1.6090067e-07 8.652429e-08
7.824305e-08 1.7181183e-07 8.252951e-08 8.1544584e-08 1.736469e-07 6.949329e-08 4.2807226e-08 4.367299e-08
5.4949414e-08 5.072938e-08 3.450345e-08 3.1563427e-08 1.3654257e-07 3.8289825e-09 6.7136114e-08 7.1806344e-10
6.9320556e-08 7.267168e-08 3.5009176e-08 1.5343996e-07 1.8647145e-07 7.6210355e-08 3.1443182e-08 3.9808693e-08
9.3307754e-08 3.090386e-08 7.091432e-08 1.1419127e-08 6.3617556e-08 3.5294525e-09 1.152016e-09 3.2140262e-09
1.04666114e-07 3.050267e-08 4.3962554e-08 1.5005918e-08 2.7142875e-08 7.391343e-08 1.0506771e-07 7.250891e-08
6.86636e-08 1.2521214e-09 1.4897083e-07 1.2425878e-08 2.7443711e-08 3.700032e-08 5.1530176e-08 3.0519776e-09
3.8065835e-09 4.530691e-09 1.1557317e-07 1.0877805e-07 4.4599062e-08 8.53004e-08 3.4662346e-08 9.323776e-08
3.427121e-08 1.3646981e-07 2.132573e-08 3.4885254e-08 3.0971918e-07 3.3655954e-07 5.316267e-07 3.2895882e-09
1.9528879e-07 2.2138029e-07 3.7681153e-07 2.2126088e-07 4.1487365e-07 2.1173217e-07 5.037943e-07 1.8658643e-07
2.951109e-07 2.1726794e-07 1.9510456e-07 5.671329e-11 2.4830916e-07 3.5037405e-07 2.5079458e-10 2.7530636e-10
3.0002695e-07 2.6841724e-07 5.24185e-07 4.243225e-07 3.5064315e-07 6.5112454e-07 3.8709157e-07 3.3384552e-07
7.580181e-07 3.9950316e-07 4.397969e-07 4.0068292e-07 3.726948e-07 2.4012664e-07 3.5975958e-07 4.4270303e-07
2.625939e-07 4.0869203e-08 4.226383e-07 3.3610036e-08 4.1089504e-07 4.0571533e-07 1.8752606e-07 3.63096e-07
5.3680446e-07 2.0651242e-07 1.2341538e-09 2.7275237e-07 3.1299456e-09 1.2643986e-09 4.9240754e-07 1.7971119e-09
2.875955e-07 1.4542621e-07 8.431299e-09 3.8463725e-08 3.012328e-07 2.7793075e-07 3.2060422e-07 1.302321e-07
1.7829046e-07 3.9242852e-07 5.860395e-07 4.338074e-07 4.749671e-07 1.8124782e-08 4.071584e-07 4.3877527e-08
8.174453e-08 1.217937e-07 4.1355918e-07 9.437141e-09 1.15979635e-08 1.5006327e-08 7.3176665e-07 7.7298876e-07
2.6513987e-07 5.584774e-07 1.9643974e-07 2.4282548e-07 8.7721524e-08 8.4538107e-07 1.4664607e-07 2.5934852e-07
6.5117206e-08 3.1342047e-08 1.3563366e-07 7.737836e-09 5.9113945e-09 5.866936e-08 7.6829636e-08 6.7873636e-08
6.773493e-08 5.988114e-08 7.5844206e-08 4.359548e-08 5.4524527e-08 6.053174e-08 4.9637592e-08 6.1590086e-12
5.1527312e-08 7.957093e-08 2.8933782e-09 3.470135e-08 5.1680757e-08 4.385917e-08 2.3528797e-08 4.47602e-08
4.5882956e-08 8.635389e-09 3.7872645e-08 4.212131e-08 3.9055252e-09 5.6695136e-08 9.290834e-08 9.097554e-08
6.614228e-08 1.017701e-07 9.918469e-08 1.4858742e-07 2.0759016e-08 5.600006e-08 4.516479e-08 3.6226069e-09
4.1008217e-08 5.3451352e-08 5.9241216e-08 2.1496763e-08 2.6959986e-08 5.3107115e-08 3.3776583e-08 6.925469e-09
9.884861e-09 8.941682e-11 6.0671425e-08 4.1406767e-10 4.088663e-08 3.2278342e-09 3.3364855e-09 5.340128e-09
1.5136717e-08 5.2451806e-08 5.847591e-08 1.816338e-08 3.289868e-08 1.586202e-07 1.5431618e-07 1.0728725e-07
1.4181984e-07 6.2870638e-09 1.9760174e-08 8.1702645e-09 4.6638133e-09 1.7453067e-08 1.071204e-07 1.648701e-09
1.4441086e-09 2.1291833e-09 1.8864978e-07 1.9332384e-07 7.273475e-08 1.4771135e-07 4.2497568e-08 4.0994102e-08
1.610363e-08 1.5791348e-07 3.6684504e-08 7.2198844e-08 2.494149e-07 2.0333837e-07 1.3404511e-07 1.8869189e-07
00000000: e3fc cd33 2b26 fa33 cda3 aa33 744e a833
00000010: 251a 0633 75aa 0734 0808 0d34 f83a fc33
00000020: 679b e133 32f8 e533 20a0 1f34 fbbd fd32
00000030: 2eab b433 02b4 4433 c48d f932 2036 e72c
00000040: 9b16 4233 35d1 e933 7c7b 3d30 04a0 3232
00000050: 9284 8733 ce3d 5d33 0ac4 2c34 3bcf b933
00000060: 9206 a833 477b 3834 143b b133 9c1d af33
00000070: b273 3a34 573c 9533 0bdb 3733 f692 3b33
00000080: 8501 6c33 8be1 5933 f230 1433 5b90 0733
00000090: 899c 1234 1690 8331 782c 9033 3961 4530
000000a0: 61dd 9433 ae0f 9c33 ff5c 1633 41c1 2434
000000b0: e238 4834 16a9 a333 250c 0733 1ffa 2a33
000000c0: 7b60 c833 27bb 0433 8f49 9833 da2d 4432
000000d0: 1f9e 8833 c98a 7231 f654 9e30 bfdd 5c31
000000e0: cec4 e033 0a02 0333 57d1 3c33 5de6 8032
000000f0: d027 e932 56ba 9e33 96a1 e133 32b6 9b33
00000100: 3774 9333 1b17 ac30 caf4 1f34 9779 5532
00000110: 5cbd eb32 48ea 1e33 0752 5d33 f5ba 5131
00000120: 10cb 8231 61ac 9b31 0631 f833 5e99 e933
00000130: 308d 3f33 642e b733 a7df 1433 003a c833
00000140: 9831 1333 8988 1234 c72f b732 bed4 1533
00000150: 7b47 a634 64b0 b434 1cb5 0e35 0c0f 6231
00000160: 93b0 5134 8db4 6d34 954c ca34 ba93 6d34
00000170: cdbb de34 7f58 6334 7b3c 0735 7d58 4834
00000180: bc6f 9e34 284a 6934 ef7d 5134 7d6d 792e
00000190: 5a4f 8534 0b1b bc34 33e0 892f ed59 972f
000001a0: 6413 a134 fc1a 9034 b8b5 0c35 71ce e334
000001b0: 0740 bc34 f0c8 2e35 76d1 cf34 613b b334
000001c0: 9b7a 4b35 4c7b d634 3a1d ec34 711d d734
000001d0: c916 c834 c1ea 8034 fb24 c134 a4ac ed34
000001e0: a1fa 8c34 2a88 2f33 f7e6 e234 a05a 1033
000001f0: fc98 dc34 17d1 d934 c55a 4934 89ef c234
00000200: ec18 1035 b4bd 5d34 ed9e a930 cd6e 9234
00000210: 9616 5731 12c7 ad30 fd2d 0435 41fe f630
00000220: d366 9a34 7426 1c34 3fd9 1032 5033 2533
00000230: 1fb9 a134 8336 9534 821f ac34 edd5 0b34
00000240: 1c70 3f34 f7ae d234 5450 1d35 09e6 e834
00000250: fbfe fe34 d1b0 9b32 6d97 da34 da73 3c33
00000260: 888b af33 66c6 0234 2407 de34 fc20 2232
00000270: 6240 4732 43e7 8032 9f6e 4435 627f 4f35
00000280: 8c58 8e34 46ea 1535 f2ec 5234 ae5d 8234
00000290: 6b61 bc33 25ee 6235 c475 1d34 973c 8b34
000002a0: 90d6 8b33 f29c 0633 b2a2 1134 5def 0432
000002b0: 2d1d cb31 a5fb 7b33 8afd a433 edc1 9133
000002c0: ac75 9133 0198 8033 cbdf a233 bd3d 3b33
000002d0: 5a2e 6a33 adfd 8133 1c31 5533 6bb3 d82c
000002e0: e14e 5d33 95e0 aa33 d9d4 4631 8a0a 1533
000002f0: 98f7 5d33 ab5f 3c33 5f1c ca32 5c3e 4033
00000300: d810 4533 d85a 1432 6aa9 2233 dfe8 3433
00000310: 5d31 8631 f680 7333 e684 c733 555e c333
00000320: 1a0a 8e33 b48c da33 5cff d433 668b 1f34
00000330: 8f51 b232 b884 7033 36fb 4133 93f1 7831
00000340: 0321 3033 6292 6533 6870 7e33 e2a7 b832
00000350: a395 e732 e417 6433 bf11 1133 12f5 ed31
00000360: 14d2 2932 32a1 c42e 784a 8233 d8a2 e32f
00000370: 539b 2f33 a9d0 5d31 1348 6531 437c b731
00000380: fe05 8232 5f47 6133 f126 7b33 b205 9c32
00000390: 7b4c 0d33 3051 2a34 1cb2 2534 ca65 e633
000003a0: 2447 1834 9905 d831 15bd a932 345d 0c32
000003b0: 563f a031 b3eb 9532 100a e633 8298 e230
000003c0: 0e7a c630 fd50 1231 a88f 4a34 7494 4f34
000003d0: 5a32 9c33 969a 1e34 9286 3633 7e11 3033
000003e0: 4254 8a32 ed8e 2934 0a8f 1d33 bc0b 9b33
000003f0: 53e7 8534 3a55 5a34 0aee 0f34 3b9b 4a34
