Eunho/pytorch_stacking/saved_models/classification-21_epoch=7-valid_loss=0.49.ckpt (torch, 317359 bytes, 56 tensors)

_backbone.linear_layers.0.weight f4 [128, 84]
0	0x3d857892	0.065171376
1	0x3dc74450	0.097298265
2	0x3b82227b	0.0039713955
3	0x3cfa5e94	0.030562676
4	0x3d3d1a88	0.04616788
5	0xbc969a64	-0.018384166
6	0x3db86930	0.09004438
7	0x3d2f2ac6	0.0427654
8	0x3d5bf749	0.053702626
9	0xbdbf98b3	-0.09355297
10	0xbacc20c9	-0.0015573736
11	0xbd422532	-0.047398753
12	0x3cc9463d	0.024569625
13	0xbd271179	-0.040788148
14	0x3c734bc3	0.014849606
15	0x3bb0c3f4	0.005394453
16	0x3d437de4	0.04772748
17	0xbb14f329	-0.0022727943
18	0xbd1e8736	-0.038703166
19	0x3d97b555	0.07407633
20	0xbd0da3fb	-0.034580212
21	0xbd5abe22	-0.05340398
22	0xbd812695	-0.06306187
23	0xbcfba86b	-0.030719956
24	0xbd144a84	-0.036203876
25	0xbc6f856d	-0.0146192135
26	0x3d763808	0.06011203
27	0x3daff644	0.08591893
28	0x3c7a6cbe	0.015284715
29	0xbd63166d	-0.05544131
30	0xbd82196e	-0.063525066
31	0xbdb44668	-0.088024914
32	0x3dbf97d3	0.0935513
33	0xbd0ad472	-0.03389401
34	0xbe06b8a0	-0.13156366
35	0xbdd2322e	-0.10263477
36	0xbd921c3d	-0.07134292
37	0x3d50e5b6	0.05100032
38	0xbc8eed5b	-0.017447164
39	0x3de246ed	0.11048684
40	0xbdc99c6d	-0.09844289
41	0xbc81aa82	-0.015828375
42	0xbd577ed1	-0.052611176
43	0x3d758e28	0.059950024
44	0xbdb7655e	-0.08954881
45	0xbcebf782	-0.028804544
46	0x3d3a2d85	0.045453567
47	0x3d1b5222	0.037920125
48	0x3d369f2b	0.04458539
49	0xbda67e93	-0.08129611
50	0x3d281a68	0.041040808
51	0xbdbcbf47	-0.09216171
52	0xbc98ab6e	-0.018636432
53	0x3d25f08f	0.040512618
54	0x3d992e6d	0.07479558
55	0xbcc0dd81	-0.023543121
56	0x3de48436	0.1115803
57	0x3ded0418	0.115730464
58	0x3d5f783b	0.05455802
59	0xbd78e483	-0.0607648
60	0x3dce4c5e	0.1007316
61	0x3d7a5705	0.061118145
62	0x3e2f1498	0.170977
63	0x3dd4a76e	0.10383497
64	0x3dc560b0	0.09637582
65	0x3d50599b	0.050866704
66	0xbc6b817b	-0.014374132
67	0x3d9e0425	0.07715634
68	0x3e08c1b1	0.13355137
69	0xbd860634	-0.06544152
70	0x3c16eaac	0.009211224
71	0xbd1fe953	-0.039040875
72	0x3d18ebec	0.037334368
73	0x3bbd57d6	0.005778293
74	0xbb77ac61	-0.0037791955
75	0x3d0e2cb7	0.034710612
76	0x3db4022f	0.08789479
77	0xbd5f92ea	-0.054583468
78	0x3d6bcb67	0.057567026
79	0x3db42b43	0.08797314
80	0xbdfdc53b	-0.12391134
81	0xbdc8e866	-0.098099515
82	0x3d907141	0.070528515
83	0xbb9582d9	-0.0045627174
84	0xbe29c350	-0.16578412
85	0x3daa2b50	0.083090425
86	0x3d489359	0.048968647
87	0x3c792c6c	0.015208345
88	0xbdd099c5	-0.10185579
89	0x3dfea2eb	0.12433418
90	0xbde509a7	-0.11183482
91	0xbda6d781	-0.08146573
92	0xbc0bf03f	-0.008541166
93	0xbdb1b5f4	-0.08677283
94	0x3cd105db	0.025515487
95	0xbd0455e6	-0.03230848
96	0xbd5c6750	-0.053809464
97	0xbcf113c1	-0.029428365
98	0x3dd0f57c	0.102030724
99	0x3d318b5c	0.043345794
100	0xbd25467c	-0.040350422
101	0x3d9fae48	0.077969134
102	0x3db510b4	0.088410765
103	0xbdac4337	-0.08411258
104	0xbcafbca6	-0.02145226
105	0xbd6b2800	-0.057411194
106	0x3cdb1a7e	0.02674603
107	0x3d161efd	0.036650646
108	0x3ce22b8e	0.02760866
109	0x3da99095	0.0827953
110	0xbccba68a	-0.024859685
111	0xbd6214c4	-0.055195585
112	0xbc76ca9d	-0.015062955
113	0x3d584a39	0.05280516
114	0x3c338fca	0.010959575
115	0xbd03dc1c	-0.032192335
116	0x3d833177	0.06405919
117	0xbd014624	-0.031561032
118	0x3e38e27f	0.18055151
119	0x3db35b74	0.08757678
120	0x3dc5fff5	0.096679606
121	0xbc7b64cc	-0.015343856
122	0x3cb8dc23	0.022565907
123	0x3e08fcef	0.13377737
124	0x3c916c9d	0.017751986
125	0xbd55b076	-0.05217024
126	0x3d5f9634	0.054586604
127	0xbd462112	-0.048371382
128	0x3d34b729	0.044119988
129	0x3d93c6e3	0.07215669
130	0x3db9eec0	0.09078741
131	0xbd9d26db	-0.07673427
132	0xbdef76b2	-0.11692561
133	0x3db659b4	0.08903828
134	0x3e6d6311	0.23182322
135	0x3d8b8ac1	0.068135746
136	0x3b85bff0	0.0040817186
137	0x3d178449	0.03699139
138	0xbd94a190	-0.07257378
139	0x3cb91d7b	0.022597065
140	0xbe04a412	-0.12953213
141	0xbdc1883d	-0.094498135
142	0x3df22115	0.11822716
143	0x3bf377c6	0.0074300496
144	0x3d4a677b	0.049415093
145	0xbd43a4e2	-0.047764666
146	0xbdc0caf2	-0.09413709
147	0xbda2afc6	-0.079436824
148	0xbda5fef9	-0.08105273
149	0xbc42587e	-0.0118619185
150	0x3c3f4d3e	0.011676131
151	0x3d6af235	0.057359893
152	0x3ce13bb3	0.027494287
153	0x3d29c21d	0.041444886
154	0xbcd1eafd	-0.025624746
155	0x3d9abfc1	0.075561054
156	0x3d910d05	0.070825614
157	0xbcc27cb7	-0.02374111
158	0xbd8bf8e1	-0.06834579
159	0x3d3dbf8c	0.04632525
160	0x3d8647f9	0.065566964
161	0x3d58b231	0.05290431
162	0x3da09b73	0.078421496
163	0xbde5a8a4	-0.11213806
164	0x3db65de2	0.089046255
165	0x3d3eb791	0.04656178
166	0x3de8cf26	0.113676354
167	0x3d84b93d	0.06480644
168	0x3b7d5ad9	0.0038658886
169	0x3d91885a	0.07106085
170	0xbd229a47	-0.03969791
171	0x3cebd56f	0.028788297
172	0xbda055d6	-0.07828872
173	0x3d4c98aa	0.04995028
174	0x3d69b3c4	0.057056203
175	0xbd0ba429	-0.034092102
176	0x3c551738	0.013006024
177	0xbbcc33be	-0.006231754
178	0x3d4f9b61	0.05068529
179	0xbe04d565	-0.12972029
180	0x3cc42f82	0.023948435
181	0x3c3f7571	0.011685715
182	0xbd03597f	-0.032067772
183	0x3d8bdcde	0.068292364
184	0xbcea4b4d	-0.02860036
185	0x3bee170e	0.007265932
186	0xbdcde655	-0.10053698
187	0x3c250197	0.01007118
188	0x3dee072d	0.116224624
189	0x3da35850	0.07975829
190	0xbd3ab9c9	-0.045587335
191	0x3c844093	0.016144073
192	0x3a611f2b	0.0008587713
193	0x3cba9462	0.022775833
194	0xbd96b19f	-0.07358097
195	0xbbcccae7	-0.006249774
196	0x3d1bd7e7	0.038047697
197	0xbd917c5d	-0.071037985
198	0xbc587230	-0.013210818
199	0xbe0813f4	-0.13288862
200	0x3d44ef17	0.048079576
201	0x3dcd8dbd	0.100368
202	0x3c2ee00b	0.010673533
203	0x3d4831a3	0.048875462
204	0x3d9a0dff	0.07522201
205	0xbcfd9cc6	-0.030958544
206	0x3c2f0ef2	0.010684716
207	0xb9b6f1a2	-0.00034893776
208	0xbce71fea	-0.02821346
209	0xbe1c7a24	-0.15280968
210	0xbc3c5cae	-0.011496706
211	0xbe026217	-0.12732731
212	0x3de7d235	0.11319391
213	0xbd613a87	-0.054987457
214	0xbd05ee3c	-0.0326979
215	0xbde63fb9	-0.11242623
216	0xbd90f9bb	-0.07078882
217	0x3d0b5cab	0.034023922
218	0xbd43776f	-0.047721323
219	0x3c61ac6d	0.01377402
220	0x3d72d820	0.059288144
221	0xbd90d22a	-0.070713356
222	0x3d6fadf5	0.058515508
223	0xbd5546e9	-0.05206958
224	0x3c17d04d	0.009265971
225	0x3cbf4027	0.02334602
226	0xbc3ce33b	-0.011528785
227	0x3db087cd	0.08619652
228	0xbc7d7c8e	-0.015471591
229	0x3e1f1c9e	0.1553826
230	0x3de01827	0.10942107
231	0x3dd6abb5	0.10481969
232	0x3e00bd38	0.12572181
233	0xbd858d0f	-0.065210454
234	0xbd51bfdd	-0.051208366
235	0xbd7aee58	-0.06126246
236	0x3df7b6fc	0.120954484
237	0x3c0d30d3	0.008617598
238	0x3c7c10b5	0.015384843
239	0x3b493dbc	0.0030706963
240	0x3c92de8a	0.01792838
241	0x3c0b5a58	0.008505426
242	0xbd811abe	-0.06303929
243	0x3d8249c8	0.06361729
244	0x3db46457	0.08808201
245	0xbbb883ef	-0.005630962
246	0xbca2dfc6	-0.019882094
247	0xbcb8036b	-0.022462567
248	0x3da4fd03	0.08056071
249	0xbda788fd	-0.08180425
250	0x3dc82f80	0.09774685
251	0xbd916aaa	-0.07100423
252	0x3cef88a1	0.029239954
253	0xbcea8323	-0.028626984
254	0xbd013b21	-0.03155053
255	0xbbc0d289	-0.0058844727

_backbone.linear_layers.0.bias f4 [128]
0	0xbda5b0f8	-0.08090395
1	0xbd816219	-0.06317539
2	0x3c39ee7e	0.011348365
3	0xbc1bc8fe	-0.0095083695
4	0xbde41e2c	-0.11138567
5	0xbc871149	-0.016487734
6	0x3c1af141	0.0094569335
7	0xbdc18444	-0.09449056
8	0x3be90563	0.007111238
9	0xbdd49e2d	-0.10381732
10	0x3d04a23b	0.032381278
11	0x3c211fa9	0.0098342085
12	0xbd10b750	-0.03533107
13	0xbd3bb4af	-0.04582661
14	0xbdb362fd	-0.08759115
15	0xbdaa838c	-0.08325872
16	0xbd2f667a	-0.04282234
17	0xbd8b3cf2	-0.06798734
18	0x3ae2eceb	0.0017313039
19	0xbd070e18	-0.032972425
20	0xbcb4d819	-0.0220757
21	0x3dfc5085	0.123200454
22	0x3dc7b201	0.097507484
23	0x3d3cb96f	0.04607528
24	0xbcc80f3b	-0.024421325
25	0x3e09412a	0.13403764
26	0x3cb270ec	0.021782361
27	0xbd3b7ccf	-0.045773324
28	0x3d7943de	0.06085574
29	0x3d119984	0.035546795
30	0xbd43b90e	-0.047783904
31	0x3db72366	0.089422986
32	0x3dd28218	0.1027872
33	0xbdc88f8a	-0.09793003
34	0xbd8d82dd	-0.06909726
35	0xbdd9f889	-0.106431074
36	0x3db8516e	0.089999065
37	0xbc87918c	-0.016548894
38	0x3da40b58	0.08009976
39	0x3dc7c9a3	0.09755256
40	0x3d6dd363	0.058062922
41	0xbdb9fe24	-0.090816766
42	0x3d8d7601	0.06907273
43	0xbd76ba70	-0.060236394
44	0xbdc7003b	-0.09716841
45	0xbdc32b89	-0.09529788
46	0x3db6d110	0.08926594
47	0xbd05ee3e	-0.03269791
48	0x3c56b088	0.013103612
49	0xbd3611f3	-0.04445071
50	0x3d4178c1	0.0472343
51	0x3d17d9be	0.03707289
52	0x3d210882	0.039314754
53	0xbc91ba58	-0.017789051
54	0xbdaee425	-0.08539609
55	0x3d5c5b23	0.053797852
56	0xbc65ebc0	-0.014033258
57	0x3d84aa77	0.06477826
58	0x3da7a028	0.08184844
59	0xbda82eeb	-0.08212074
60	0x3ccd5da8	0.025069073
61	0x3c392c30	0.011302039
62	0xbd036e77	-0.03208777
63	0xbdce9c73	-0.10088434
64	0x3ccd1b2c	0.02503737
65	0xbd5a3c48	-0.053280145
66	0xbd9efa2c	-0.0776256
67	0xbc1462d3	-0.009056765
68	0x3cf7ba89	0.030240314
69	0x3c5274a3	0.012845191
70	0xbb4a5443	-0.0030872978
71	0xbdc218b0	-0.09477365
72	0xbdc14a90	-0.0943805
73	0x3d61a50e	0.05508905
74	0x3cd5a0f2	0.026077721
75	0x3deca6c1	0.11555243
76	0x3dcbc662	0.09949948
77	0xbd534a1e	-0.051584356
78	0xbb1dd10c	-0.00240809
79	0x3d22a2d5	0.03970607
80	0xbccd574c	-0.02506604
81	0xbd8d71fd	-0.06906507
82	0xbde02a38	-0.109455526
83	0x3da02bbc	0.07820842
84	0x3db430bf	0.0879836
85	0x3dc901da	0.09814806
86	0x3df69c6d	0.120415546
87	0xbd9699c6	-0.07353549
88	0x3db27c1a	0.08715077
89	0xbd998823	-0.07496669
90	0x3d7986ef	0.0609197
91	0x3d2ecd7d	0.042676438
92	0x393fcc30	0.00018291245
93	0xbd235eb2	-0.03988523
94	0x3c031b02	0.008002045
95	0xbdcb1801	-0.09916688
96	0x3dfe733b	0.12424322
97	0x3e0856eb	0.13314407
98	0x3dcb66a8	0.099316895
99	0x3df2e20c	0.11859521
100	0x3d54023c	0.051759943
101	0x3c949a98	0.018140122
102	0x3d218577	0.039433923
103	0xbd9daffa	-0.076995805
104	0x3cd737f3	0.026271796
105	0xbdd2897b	-0.102801286
106	0x3d84d09b	0.06485101
107	0x3d94e750	0.07270682
108	0x3d9e588a	0.07731731
109	0xbbab1465	-0.005220937
110	0x3d4f2d36	0.050580226
111	0xbd8645a9	-0.06556255
112	0xbd0f0acd	-0.03492241
113	0xbdd7f4d7	-0.10544746
114	0x3d98aef2	0.07455243
115	0xbd35a8cd	-0.044350434
116	0x3d7bb852	0.06145508
117	0xbb94c32f	-0.0045398693
118	0xbd9abc8a	-0.07555492
119	0xbdadfbb1	-0.08495272
120	0xbd7c4013	-0.061584543
121	0xbc44176b	-0.011968474
122	0xbc260dd4	-0.010135133
123	0x3db2f9bd	0.0873904
124	0xbcbd036a	-0.023072917
125	0x3d85a31e	0.06525253
126	0x3dc0307e	0.09384249
127	0x3db13924	0.08653477

_backbone.linear_layers.2.weight f4 [64, 128]
0	0xbdb5f4dd	-0.088845946
1	0xbd58b890	-0.052910388
2	0x3ca5fa08	0.020260826
3	0x3c816e67	0.015799714
4	0xbdb1c30a	-0.08679779
5	0x3cec8f1a	0.02887683
6	0x3d8a480d	0.06752024
7	0xbca36909	-0.019947546
8	0xbd99dfc6	-0.075133845
9	0x3cc192da	0.023629595
10	0xbbba77c5	-0.005690547
11	0xbdbefa9a	-0.09325142
12	0xbc8f38b9	-0.017483102
13	0x3bf90068	0.0075989254
14	0x3d4a33fe	0.04936599
15	0xbcdb80ec	-0.026794873
16	0x3d9f5553	0.07779946
17	0x3afb7f3c	0.0019187699
18	0x3d895f0d	0.067075826
19	0xbce213f9	-0.027597414
20	0xbbc23ba5	-0.0059275203
21	0xbd7fd139	-0.06245539
22	0xbd31511e	-0.04329025
23	0xbd5d729f	-0.05406439
24	0x3cfded38	0.030996904
25	0x3d8dc38f	0.069220655
26	0x3c2be05c	0.010490503
27	0x3cb2245b	0.021745851
28	0x3d494e49	0.049146924
29	0xbdc182d3	-0.09448781
30	0xbca5f696	-0.020259183
31	0xbd4ed912	-0.050499983
32	0xbd6d89fb	-0.057992917
33	0xbd237133	-0.039902877
34	0xbcf02bbf	-0.029317735
35	0xbdb7a25e	-0.08966516
36	0x3d2aeefe	0.041731827
37	0xbcadae07	-0.021201147
38	0x3d9dc376	0.07703297
39	0xbda9b024	-0.08285549
40	0x3ca94b7a	0.020665873
41	0xbd8212e2	-0.06351258
42	0xbd7e56ad	-0.06209438
43	0xbd055e27	-0.032560494
44	0x3d6608ea	0.056160845
45	0x3d1912b2	0.037371345
46	0x3d9ff2de	0.07809995
47	0x3d5d823a	0.05407927
48	0xbd396b6a	-0.045268454
49	0x3d68f637	0.056875434
50	0x3d5de8c4	0.05417706
51	0x3d29b16a	0.04142896
52	0xbda43dd5	-0.08019606
53	0x3d53aafe	0.051676743
54	0x3d1ea410	0.03873068
55	0xbd5f3c93	-0.054501127
56	0xbd8a7bdf	-0.06761908
57	0x3d0b188b	0.033958953
58	0xbdb8fb31	-0.09032286
59	0xbd46ccea	-0.048535265
60	0xbdb31c7d	-0.08745668
61	0x3d88fb7c	0.06688592
62	0xbda6236c	-0.08112225
63	0x3ba1c3a6	0.004936653
64	0xbc4fd894	-0.012685914
65	0x3d2d444b	0.042301457
66	0xbc668281	-0.0140692005
67	0xbdc5e412	-0.096626416
68	0x3cb73875	0.022365788
69	0x3d2b1aef	0.041773733
70	0x3cdbcdd7	0.02683155
71	0x3d82f947	0.06395202
72	0xbdc115f4	-0.09428015
73	0x3d0cf449	0.034412656
74	0xbd2aad04	-0.041668907
75	0x3d864a83	0.06557181
76	0x3b564491	0.0032694677
77	0x3d8131dd	0.06308339
78	0xbd733d4b	-0.059384625
79	0xbd6a36c8	-0.05718115
80	0xbdbdf0c7	-0.0927444
81	0xbc73ec40	-0.014887869
82	0x3cc3e285	0.023911724
83	0xbcafdcc0	-0.021467566
84	0x3d23e9e9	0.040017996
85	0xbdcc36b9	-0.09971375
86	0x3ca94333	0.020661926
87	0x3d75b7bc	0.059989676
88	0xbd5a1a8c	-0.053247973
89	0xbd86409a	-0.065552905
90	0xbd884efc	-0.0665569
91	0xbd6e3e05	-0.058164615
92	0x3cc69f27	0.024245812
93	0xbd00dcd7	-0.03146061
94	0xbd673808	-0.05644992
95	0x3d3d3196	0.046189867
96	0xbd4fb1fb	-0.050706845
97	0xbda4df0a	-0.08050354
98	0x3d947e91	0.07250703
99	0xbd837258	-0.06418294
100	0xbdc7f3ae	-0.09763275
101	0xbdc2d159	-0.09512586
102	0xbd0304b6	-0.031986915
103	0x3ca062c0	0.019578338
104	0xbd7a7d3c	-0.06115459
105	0xbd468b47	-0.04847267
106	0x3c63b844	0.013898913
107	0xbd02e7c7	-0.03195932
108	0xbd7f8770	-0.062385023
109	0xbd6dfced	-0.058102537
110	0xbd22bfae	-0.03973358
111	0xbd2f5489	-0.04280523
112	0x3d51037e	0.05102872
113	0x3da6f3b2	0.0815195
114	0xbdbaa5f3	-0.091136836
115	0x3d973a21	0.07384134
116	0x3d8d1c58	0.06890172
117	0x3d4b35f1	0.04961199
118	0xbcb7f1a4	-0.02245409
119	0x3c60d734	0.013723183
120	0x3b13de21	0.002256282
121	0xbd02c18e	-0.03192287
122	0xbd99ecef	-0.075158946
123	0xbd0486ee	-0.03235524
124	0x3d4c42ee	0.049868517
125	0xbd99c969	-0.07509119
126	0xbdb3d845	-0.087814845
127	0x3c8b1452	0.016977463
128	0xbd00e8cf	-0.031472024
129	0xbc5633fa	-0.013073916
130	0xbc0aad58	-0.00846418
131	0xbd310c6a	-0.04322473
132	0x3d4926de	0.049109332
133	0xbd08c7f6	-0.033393823
134	0x3cf0b817	0.029384656
135	0xbd98292e	-0.074297294
136	0xba2ef7c2	-0.0006674492
137	0xbcc37bb8	-0.023862705
138	0xbdaed834	-0.08537331
139	0x3ccd951b	0.025095513
140	0xbbe83342	-0.0070861885
141	0x3a6050f5	0.00085569854
142	0x3ce722a3	0.028214758
143	0xbdc1d9b5	-0.094653524
144	0xbcbb5376	-0.022866946
145	0x3d8fafb1	0.07015932
146	0x3c941ef1	0.01808116
147	0xbd714258	-0.05890116
148	0xbdb2717b	-0.08713051
149	0x3ce46854	0.027881779
150	0xbd7e177f	-0.062034126
151	0xbd8af725	-0.0678542
152	0xbd907229	-0.07053024
153	0xbb075e26	-0.0020655482
154	0x3c3f7bae	0.011687202
155	0xbd3ef46a	-0.04661981
156	0xbd6aaf6b	-0.057296198
157	0xbdbbbdbf	-0.091670506
158	0xbd586e1a	-0.052839376
159	0x3d7ea0c1	0.062165026
160	0x3c4f906f	0.012668713
161	0x3b2cf2bf	0.0026389805
162	0xbd9bb3bf	-0.07602643
163	0x3d023da8	0.03179708
164	0x3c09eed5	0.008418758
165	0x3c46c71e	0.012132434
166	0x3d3b0635	0.045660216
167	0x3d1c7fe6	0.03820791
168	0xbcdc0f5d	-0.026862795
169	0x3d37e676	0.04489752
170	0x3c9c0a71	0.019047948
171	0x3c4ef93a	0.012632662
172	0xbcb72a94	-0.02235917
173	0xbc6a8b75	-0.014315476
174	0x3d38a32c	0.045077488
175	0xbdc3b9c1	-0.09556914
176	0xbd8b6605	-0.06806568
177	0x3d2a653c	0.04160045
178	0x3d07f5be	0.033193342
179	0x3d86f701	0.06590081
180	0x3d12b0be	0.035813086
181	0x3badca2a	0.005303641
182	0x3aa1620e	0.0012312548
183	0xbcd2e02c	-0.02574166
184	0x3c17c511	0.009263293
185	0xbdcd8b50	-0.100363374
186	0x3d1c5776	0.038169347
187	0x3d4974e6	0.04918375
188	0x3d99c4cf	0.075082414
189	0x3d58ce07	0.052930858
190	0xbd88f986	-0.06688218
191	0xbd39bc27	-0.04534545
192	0xbd7951f5	-0.060869176
193	0xbd81d058	-0.063385665
194	0x3d920c80	0.071312904
195	0xbd766ff5	-0.060165364
196	0xbd8d3763	-0.0689533
197	0x3cc3e633	0.023913478
198	0xbd849605	-0.064739265
199	0xbdace353	-0.08441796
200	0xbccfa988	-0.025349393
201	0xbd9b2db2	-0.07577075
202	0xbd0e0385	-0.034671325
203	0xbd0bea80	-0.034159184
204	0x3c72da47	0.014822549
205	0xbcbedb73	-0.023298
206	0x3c87e19f	0.016587077
207	0xbd4b7b49	-0.04967812
208	0xbc4b85e1	-0.012422056
209	0xbc64d3ef	-0.0139665445
210	0x3d71fdeb	0.059080046
211	0xbb1c8ff3	-0.0023889511
212	0xbd4e04d1	-0.050297562
213	0x3d535ac0	0.051600218
214	0x39678fbe	0.00022083425
215	0xbdb4ac50	-0.088219285
216	0x3bcc687f	0.006238043
217	0xbd938fb9	-0.07205147
218	0xbda026e4	-0.07819918
219	0xbcd4b524	-0.02596528
220	0x3d1d6324	0.038424626
221	0x3cc271be	0.023735877
222	0xbda20971	-0.07911957
223	0xbd242325	-0.04007258
224	0x3d8719bc	0.06596705
225	0xbd4a3b5b	-0.049373012
226	0x3cd45933	0.02592144
227	0xbdb94631	-0.09046591
228	0x3d523960	0.05132425
229	0xbdb3fe54	-0.087887436
230	0x3da4553c	0.0802407
231	0xbdb5befc	-0.08874318
232	0x3a9ab843	0.0011804182
233	0x3cff417a	0.031159151
234	0x3d899e96	0.06719701
235	0xbca3a868	-0.019977763
236	0x3c11c7ac	0.008897703
237	0xbda9d1f0	-0.082919955
238	0x3cd5804d	0.026062155
239	0x3dfa3704	0.12217525
240	0x3caaa2f0	0.020829648
241	0x3d7c6257	0.06161722
242	0x3d907ef0	0.070554614
243	0x3d99ca08	0.075092375
244	0xbdc686ed	-0.09693704
245	0xbd31180e	-0.04323583
246	0x3c96ce0b	0.018408796
247	0xbd893ed1	-0.067014344
248	0xbc9bb163	-0.019005483
249	0x3d96dac7	0.07365947
250	0x3d7503de	0.05981814
251	0x3b56aafe	0.0032755728
252	0x3d40be9b	0.047056776
253	0xbd868b36	-0.06569521
254	0xbdb571ca	-0.08859594
255	0x3d958c8a	0.07302196

_backbone.linear_layers.2.bias f4 [64]
0	0xbdb4d20d	-0.088291265
1	0x3d801fd4	0.06256071
2	0xbc6306d2	-0.013856607
3	0x3c101b4e	0.008795572
4	0x3d81abd3	0.06331601
5	0xbdb85f2b	-0.09002527
6	0x3d54162d	0.05177896
7	0x3d71ca2a	0.05903069
8	0xbd8e9014	-0.069610745
9	0x3d019fdc	0.031646594
10	0x3d130ce2	0.035900958
11	0xbb728fcd	-0.0037011981
12	0xbdc5399e	-0.0963013
13	0xbcf39d9a	-0.029738236
14	0x3d3ab56c	0.045583174
15	0x3d249097	0.040176954
16	0xbdb66096	-0.08905141
17	0xbcf6ed82	-0.03014255
18	0x3d39381e	0.045219533
19	0xbd82ec62	-0.06392743
20	0xbda8f1c2	-0.08249237
21	0xbd84b3dc	-0.06479618
22	0x3d46e9e6	0.048562907
23	0x3da78ebe	0.08181523
24	0xbd2c26d1	-0.042029206
25	0xbcacb5c1	-0.02108276
26	0xbd9c2cc0	-0.07625723
27	0x3d3c84ef	0.046025213
28	0x3dbf253e	0.09333275
29	0xbc93d205	-0.018044481
30	0xbc07996b	-0.008276324
31	0xbd3fad41	-0.046796087
32	0x3d83ffd3	0.06445279
33	0xbd3da20e	-0.046297126
34	0xbce1118c	-0.027474187
35	0xbd5750cd	-0.052567292
36	0xbdc3a04b	-0.09552058
37	0xbdce31b6	-0.10068075
38	0xbc46c7ff	-0.012132644
39	0xbd2a6a7f	-0.04160547
40	0xbd96132f	-0.07327878
41	0x3d0f3beb	0.03496925
42	0xbc0b22c7	-0.008492178
43	0x3d82b5c6	0.06382327
44	0x3d95b934	0.07310715
45	0xbd88d1eb	-0.06680664
46	0x3d13fa34	0.036127284
47	0x3d3023ee	0.043003015
48	0xbdcaf3d9	-0.099097915
49	0x3d0ec5cb	0.0348566
50	0x3d1da407	0.038486507
51	0x3d891cdc	0.066949576
52	0x3d23b828	0.039970547
53	0x3d540f3f	0.051772352
54	0x3b260577	0.0025332847
55	0xbcfb3f9b	-0.030669978
56	0x3d6e2bc3	0.058147203
57	0xbd9b7271	-0.07590187
58	0xbde1fa8e	-0.11034118
59	0xbcaf5b98	-0.02140598
60	0xbd69408f	-0.056946333
61	0xbd374103	-0.044739734
62	0xbb14a061	-0.00226786
63	0xba48f87a	-0.00076664204

_backbone.linear_layers.4.weight f4 [32, 64]
0	0x3bedd770	0.007258348
1	0xbd353c7c	-0.044247136
2	0x3df53c6a	0.11974414
3	0x3c931156	0.017952602
4	0x3d841682	0.064496055
5	0xbd8db487	-0.069191985
6	0x3dbb6aae	0.09151207
7	0x3dda9281	0.10672475
8	0x3d5d2af4	0.05399604
9	0x3dffb33b	0.124853574
10	0x3de85791	0.11344827
11	0x3db78cea	0.08962424
12	0xbdfbf3d2	-0.123023644
13	0xbca55d32	-0.02018604
14	0x3c981909	0.018566625
15	0xbdc9dbda	-0.098563865
16	0x3cb2c8a1	0.021824183
17	0xbb7648f2	-0.00375801
18	0xbdbc2fe6	-0.091888234
19	0xbc1389f7	-0.009005061
20	0x3c31192f	0.010809227
21	0x3e0c900d	0.13726826
22	0x3db4e4c2	0.088326946
23	0x3d95e552	0.0731913
24	0xbcb4e090	-0.022079736
25	0x3e087c52	0.13328674
26	0xbd785045	-0.060623426
27	0x3db899c0	0.090137005
28	0x3d57e19b	0.05270539
29	0x3cfca0a3	0.030838316
30	0x3920682f	0.000152976
31	0xbc716a04	-0.014734749
32	0xbd866782	-0.06562711
33	0xbd802983	-0.06257918
34	0x3d2f92c8	0.04286459
35	0x3ce489a0	0.027897656
36	0x3dc42582	0.095774665
37	0xbb73df2a	-0.0037211874
38	0xbc0a6da9	-0.008448997
39	0x3da54ac4	0.08070901
40	0x3e4412f1	0.1914785
41	0x3da39402	0.079872146
42	0xbda92c65	-0.08260421
43	0x3c934320	0.017976344
44	0x3d83043b	0.06397291
45	0x3dbd406c	0.09240803
46	0x3d1fe859	0.039039943
47	0x3c9d580a	0.01920702
48	0x3d38f67f	0.045156952
49	0xbce3dd99	-0.027815627
50	0xbcd59cd7	-0.026075764
51	0xbdc03ccc	-0.09386596
52	0xbdd771a0	-0.10519719
53	0xbc5197a1	-0.012792499
54	0x3d9ef38b	0.07761296
55	0x3d2d5cda	0.04232488
56	0x3d46a228	0.048494488
57	0x3e477d84	0.19481474
58	0x3e84dd94	0.259503
59	0xbdb6503d	-0.08902023
60	0x3e33f863	0.17575221
61	0xbdf3f0f4	-0.119111925
62	0xbe0cae1a	-0.1373829
63	0x3dd2b4ff	0.102884285
64	0x3da94a39	0.0826611
65	0x3b8032f0	0.003912322
66	0x3cb86e40	0.022513509
67	0x3d8bfabc	0.06834933
68	0x3da243b5	0.0792307
69	0x3de42128	0.111391366
70	0xbd6b293c	-0.05741237
71	0x3c967ebd	0.01837098
72	0x3dcf48d2	0.10121311
73	0x3c6bd86c	0.014394861
74	0x3dea1044	0.11428884
75	0xba160db1	-0.0005724086
76	0xbdb05329	-0.086096115
77	0xbd2526a8	-0.04032007
78	0x3d8bc9d3	0.06825604
79	0xbcf887f9	-0.030338274
80	0xbe0390cc	-0.12848204
81	0x3d3ece0e	0.046583228
82	0x3e33b00b	0.17547624
83	0x3d877d13	0.06615653
84	0xbd10c565	-0.0353445
85	0x3d3dba17	0.046320047
86	0x3d59c690	0.05316788
87	0xbdd27f69	-0.10278208
88	0x3dbf8dcf	0.0935322
89	0xbd2780b3	-0.04089422
90	0xbdcb6a60	-0.09932399
91	0x3dc5ecdf	0.0966432
92	0x3d47f06e	0.048813276
93	0x3d956136	0.07293932
94	0x3d3e04d6	0.04639133
95	0xbcef114c	-0.029183052
96	0xbe02333f	-0.12714861
97	0xbd44e05c	-0.04806553
98	0xbd5dbd0c	-0.054135367
99	0x3cf94d35	0.030432323
100	0x3d5140b3	0.051087093
101	0xbd98224e	-0.07428418
102	0xbd90a675	-0.07062999
103	0x3cdd0d5b	0.026983907
104	0xbca3bb05	-0.019986639
105	0xbcb07c04	-0.02154351
106	0x3dad6612	0.08466734
107	0x3de5ebc9	0.11226613
108	0xbdb8155a	-0.089884475
109	0xbd493e26	-0.049131535
110	0xbdd3fbc6	-0.10350756
111	0xbc665a23	-0.014059576
112	0xbe07c4b9	-0.13258637
113	0x3de08c41	0.10964251
114	0xbd4e86e6	-0.050421618
115	0xbe09a916	-0.13443407
116	0x3df24217	0.11829012
117	0x3cdaaa72	0.026692603
118	0xbd763fc3	-0.0601194
119	0x3b8bc16f	0.0042650024
120	0x3cd02518	0.025408313
121	0x3df2b043	0.118500255
122	0xbcec709a	-0.028862286
123	0xbdd25f24	-0.10272053
124	0xbdc7dd53	-0.09759011
125	0x3dd512a0	0.10403943
126	0x3e0dac84	0.1383534
127	0x3d3dca7e	0.04633569
128	0x3cd5d1bd	0.026100988
129	0x3d63d070	0.055618703
130	0xbd8da38c	-0.0691596
131	0xbd7c93a0	-0.061664224
132	0x3cbfb26c	0.023400508
133	0x3cbfd1db	0.023415497
134	0xbd92de47	-0.07171302
135	0x3d75a3ac	0.059970543
136	0xbd6795b8	-0.056539267
137	0xbdaa9d09	-0.08330733
138	0xbd62f51b	-0.055409532
139	0x3dd476b3	0.103742026
140	0xbe0a7f58	-0.1352514
141	0x3dad1925	0.084520616
142	0xbd087bb0	-0.033321083
143	0xba45f8f1	-0.0007552049
144	0x3d8d926e	0.06912695
145	0xbc979e38	-0.018508062
146	0x3d8a432e	0.06751095
147	0xbd86c5ce	-0.06580697
148	0xbd8fe9e0	-0.0702703
149	0xbde618c6	-0.11235194
150	0xbd84f40b	-0.0649186
151	0x3d727ed9	0.059203003
152	0x3e2bfc09	0.16795363
153	0xbca37594	-0.019953527
154	0x3cb51529	0.022104817
155	0xbdc262b9	-0.09491486
156	0xbdc21ffe	-0.09478758
157	0x3d67af9f	0.05656397
158	0xbb166ae2	-0.002295189
159	0xbe124449	-0.14283861
160	0x3d134384	0.03595306
161	0x3d9712c6	0.073766276
162	0xbbcb7735	-0.006209279
163	0x3da2267c	0.079174966
164	0xbd9acb55	-0.07558314
165	0xbdd5be7c	-0.10436723
166	0x3c258530	0.010102555
167	0xbd4f3b37	-0.05059358
168	0xbdee5ee1	-0.116391905
169	0x3d70ebb9	0.058818553
170	0xbe080e18	-0.13286626
171	0xbccef428	-0.025262907
172	0xbc4a9656	-0.012364944
173	0xbd04040b	-0.03223042
174	0xbde786ba	-0.11304994
175	0x39cf8b2c	0.00039585808
176	0xbcb92e30	-0.022605032
177	0x3e1709a0	0.14749765
178	0xbc913ac4	-0.017728217
179	0xbe1d2637	-0.15346609
180	0x3da976fe	0.08274649
181	0xbdf582e9	-0.1198786
182	0xbcbff6c9	-0.023433106
183	0xbdead730	-0.11466825
184	0xba8b4a11	-0.0010626932
185	0x3d93fbc1	0.072257526
186	0x3d5be80e	0.0536881
187	0xbe07aa30	-0.13248515
188	0xbe3410c0	-0.17584515
189	0x3ca420d7	0.02003519
190	0x3e04ce79	0.12969388
191	0x3d84cd52	0.06484474
192	0x3da7471f	0.08167862
193	0x3dbf7fce	0.09350549
194	0x3d834d26	0.06411199
195	0xbce489f5	-0.027897814
196	0xbdb51f4d	-0.08843861
197	0xbdff8c49	-0.12477929
198	0xbd49889f	-0.049202558
199	0xbd958e6c	-0.073025554
200	0x3df826a2	0.121167436
201	0xbdd95240	-0.10611391
202	0xbe035c7a	-0.12828246
203	0xbd35c19f	-0.044374105
204	0x3cfbaf2f	0.030723182
205	0xbdb008ad	-0.08595405
206	0xbd5a16e1	-0.053244475
207	0xbcfeb8f2	-0.031094048
208	0xbde75aa0	-0.11296582
209	0x3d3dc8c5	0.046334047
210	0x3d699adc	0.05703245
211	0x3d57c1f5	0.052675206
212	0x3d598ea9	0.053114567
213	0x3ddd2827	0.10798674
214	0xbdea387b	-0.11436554
215	0xbc50199a	-0.012701416
216	0x3da16525	0.0788062
217	0xbdeb6a1b	-0.114948474
218	0xbdc2332c	-0.094824165
219	0x3d251d6b	0.04031126
220	0xbdc4e301	-0.0961361
221	0x3d8922ae	0.06696068
222	0x3d8c51f8	0.06851572
223	0xbd1c2dad	-0.038129497
224	0x3cf11b77	0.029432042
225	0x3d9e8046	0.0773931
226	0x3d222c91	0.039593283
227	0x3d0716f8	0.03298089
228	0xbdae25b7	-0.08503287
229	0xbd4d0bc8	-0.050060064
230	0x3d89e9ef	0.067340724
231	0xbd634271	-0.055483285
232	0x3cc75321	0.024331631
233	0xbdf16209	-0.11786277
234	0xbde5f073	-0.11227503
235	0x3d52dffe	0.051483147
236	0x3d733699	0.05937824
237	0x3c939562	0.018015567
238	0xbdf7b46f	-0.12094962
239	0x3db860e2	0.09002854
240	0x3d851833	0.06498756
241	0x3e24a14e	0.16077158
242	0x3d183eb4	0.037169173
243	0xbd92ebe2	-0.07173897
244	0x3d4897da	0.048972942
245	0x3cc5686e	0.024097648
246	0x3d0e61b9	0.034761164
247	0x3dc218df	0.094774
248	0xbd02c412	-0.03192527
249	0xbc2d8d6a	-0.010592798
250	0xbd143875	-0.036186654
251	0xbdaf66d9	-0.085645385
252	0xbc6a2cda	-0.01429292
253	0x3dec86f1	0.115491755
254	0x3a194877	0.0005847285
255	0x3d9215c0	0.07133055

_backbone.linear_layers.4.bias f4 [32]
0	0xbcb986b2	-0.022647236
1	0x3ccaeb78	0.024770483
2	0xbd2b916f	-0.041886743
3	0x3dd1e407	0.10248571
4	0x3dae8ce4	0.085229665
5	0xbd61c766	-0.0551218
6	0xbc4c5f71	-0.012473927
7	0xbcd63f2c	-0.02615317
8	0x3c5bcbd8	0.013415299
9	0x3df52571	0.11970032
10	0xbdcb4c09	-0.09926612
11	0xbe0c5d21	-0.13707401
12	0xbd423baf	-0.0474202
13	0x3d846338	0.06464237
14	0x3da3f1d6	0.08005111
15	0x3c815eb6	0.015792232
16	0xbdf76790	-0.120803
17	0xbd0dcfb9	-0.034621928
18	0xbd485a33	-0.048914146
19	0xbd6a9992	-0.057275362
20	0x3d33118b	0.043717902
21	0x3d138f8b	0.036025565
22	0x3e00c93d	0.12576766
23	0xbd9dc44f	-0.077034585
24	0x3dadb601	0.0848198
25	0x3de09ec0	0.10967779
26	0xbe013c73	-0.12620716
27	0xbd46071d	-0.048346628
28	0xbdeed515	-0.11661736
29	0x3db1619c	0.08661196
30	0x3b645ef2	0.003484663
31	0x3c79bf0b	0.015243302

_embedding_layer.cat_embedding_layers.0.weight f4 [8, 4]
0	0xbffae527	-1.9601182
1	0xbe95fd81	-0.2929497
2	0xbfc77e9e	-1.5585515
3	0x3fb32fca	1.3998959
4	0x3fbe781c	1.4880404
5	0xbe61f9da	-0.22067967
6	0x3f42efc7	0.7614712
7	0xbf1f5827	-0.62243885
8	0xbf9420e6	-1.157254
9	0xbed5056c	-0.416057
10	0x3db2c516	0.087289974
11	0xbf72dea4	-0.9487097
12	0xbe937113	-0.28797206
13	0x3e818d6e	0.25303215
14	0xbefcc465	-0.49368587
15	0x3f098e1f	0.53732485
16	0xbed7be4d	-0.42137375
17	0x3da79f3e	0.0818467
18	0x3fc9c1f3	1.5762314
19	0xbf2bf3e3	-0.67169017
20	0x3e176688	0.14785206
21	0x3f27d682	0.6556169
22	0x3f9c5165	1.221234
23	0xbfd749d0	-1.6819401
24	0xbf5f949a	-0.87336123
25	0x3f37ffa8	0.71874475
26	0xbf2beff2	-0.67163
27	0xc0098591	-2.1487772
28	0x3eebf563	0.46085653
29	0xbf3415e0	-0.7034588
30	0x3e258f0b	0.16167848
31	0x3f46337a	0.77422297

_embedding_layer.cat_embedding_layers.1.weight f4 [8, 4]
0	0x3f1e69d3	0.61880225
1	0xbec7b6a3	-0.39006528
2	0xbfab9cd0	-1.340723
3	0x3e2e114c	0.16998786
4	0x3faec91d	1.3655125
5	0xbe1c3cca	-0.15257564
6	0xbf682182	-0.9067613
7	0x3f4d6ffe	0.8024901
8	0xbf806d1f	-1.0033301
9	0xbeb221bd	-0.34791365
10	0xbf534a84	-0.82535577
11	0x3e996baf	0.2996497
12	0x3dd42a6b	0.10359653
13	0xc0082264	-2.127099
14	0xbf580ed5	-0.8439763
15	0xbf86c88b	-1.0529951
16	0x3f837794	1.0270867
17	0x3ec593d0	0.38589334
18	0xbf525017	-0.8215346
19	0xbf5e7d60	-0.8691006
20	0x3d232774	0.039832547
21	0xbf1f86f0	-0.62315273
22	0xbfaca6de	-1.3488424
23	0x402c7130	2.6944084
24	0xbefa44d3	-0.48880634
25	0x3f9b0524	1.2110944
26	0x3f858ffa	1.0434563
27	0x3f8d27a1	1.1027719
28	0xbe584ac1	-0.21122266
29	0xbf73cffe	-0.95239246
30	0xbeca2a21	-0.39485267
31	0x3fc62200	1.5479126

_embedding_layer.cat_embedding_layers.2.weight f4 [3, 2]
0	0x3fca0a00	1.5784302
1	0x3ec4bccc	0.3842529
2	0x3ff819b3	1.9382843
3	0x3ef57dae	0.47947448
4	0x3f45fc12	0.77337754
5	0xbeefabfc	-0.468109

_embedding_layer.cat_embedding_layers.3.weight f4 [4, 2]
0	0x3fe7bc3f	1.8104323
1	0xbf85f637	-1.0465764
2	0xbedc6b86	-0.43050784
3	0x3f1b7876	0.60730684
4	0x3e84e429	0.25955322
5	0xbfaf35d1	-1.3688298
6	0xbf5de08d	-0.8667076
7	0xbf58b383	-0.84648913

_embedding_layer.cat_embedding_layers.4.weight f4 [5, 3]
0	0xbefa381b	-0.4887093
1	0xbfc91cc8	-1.5711908
2	0x3f95a210	1.1690083
3	0xbf66fd78	-0.9023051
4	0xbf004e01	-0.50119025
5	0x3e9cdb84	0.30636227
6	0xbee01409	-0.43765286
7	0x3c65e002	0.014030458
8	0xc0021616	-2.032598
9	0xbf9844ac	-1.1895957
10	0xbf2f432f	-0.6846189
11	0x3f191114	0.59791684
12	0x3f970a5c	1.1800036
13	0x3f1b8e71	0.60764223
14	0x3eadbf07	0.33934805

_embedding_layer.cat_embedding_layers.5.weight f4 [6, 3]
0	0xbf39ef14	-0.7263043
1	0x3ee46630	0.44609213
2	0xbf2337c3	-0.6375696
3	0x3f619de4	0.88131547
4	0x3f805607	1.0026253
5	0xbe3920d8	-0.18078935
6	0x3f682073	0.90674514
7	0x3f836689	1.0265666
8	0x3f9636e9	1.1735507
9	0x3ead7cc0	0.3388424
10	0xbe4b633d	-0.19862075
11	0xbf02401a	-0.5087906
12	0x3f33d1de	0.70242107
13	0x3fa3b30e	1.2789018
14	0xbd9da5c4	-0.07697633
15	0xbe584848	-0.21121323
16	0x3dda405b	0.10656806
17	0x3f480e3a	0.7814671

_embedding_layer.cat_embedding_layers.6.weight f4 [8, 4]
0	0xbf3dddf5	-0.74166805
1	0xbeda93be	-0.42690843
2	0x3f31143f	0.6917152
3	0x3ef159a0	0.4713869
4	0xbd893f31	-0.06701506
5	0xbf0503ec	-0.5195911
6	0xbf935bfb	-1.1512445
7	0x3e1a55a0	0.15071726
8	0x3f379d18	0.7172408
9	0x3f3c856a	0.73641074
10	0x3f86cefe	1.0531919
11	0x3fa7e9ed	1.3118263
12	0x3ec1dada	0.37862283
13	0xbf888653	-1.0665992
14	0xbe30f932	-0.1728256
15	0xbf4158fc	-0.75526404
16	0xbf8c99e5	-1.0984465
17	0xbead3d47	-0.33835813
18	0x3f1f954f	0.623372
19	0x3f629cb9	0.8852039
20	0x3f1a9def	0.6039724
21	0xbdc773ee	-0.09738909
22	0x3fbe99e8	1.4890718
23	0xbf709f44	-0.9399302
24	0x3e29473b	0.16531079
25	0x3dc3d0a1	0.09561277
26	0x3fbe54f2	1.4869673
27	0x3fb43ff5	1.4082018
28	0x3e916fc9	0.28405598
29	0x3e593d16	0.21214709
30	0xbfcbf733	-1.5934814
31	0x3ff4512d	1.9087273

_embedding_layer.cat_embedding_layers.7.weight f4 [10, 5]
0	0x3f5cb16b	0.8620822
1	0x3ff8f070	1.9448376
2	0xbe5f0afc	-0.21781534
3	0xbe82d7c8	-0.25555253
4	0xbfca7dcd	-1.5819641
5	0x3e950821	0.29107764
6	0xbe6eed7e	-0.23332784
7	0xbe4d77ba	-0.20065203
8	0x3f83a1ea	1.0283787
9	0xbec465ee	-0.38359016
10	0x3f57cb7c	0.8429487
11	0x3fc2d9bd	1.5222698
12	0x3c89c28f	0.016816406
13	0xbecbdd90	-0.39817476
14	0xbea8b5aa	-0.329511
15	0xbf925e46	-1.143502
16	0x3ff637e9	1.9235812
17	0xbfbfc896	-1.4983089
18	0xbf6ebe18	-0.9325881
19	0xbf8a66cc	-1.0812621
20	0xbfb4de87	-1.413041
21	0x3fe11b23	1.7586406
22	0xbed1b20e	-0.40956157
23	0xbeedf905	-0.4647905
24	0x3f62a877	0.88538307
25	0xbee7588a	-0.45184737
26	0x3f591403	0.8479616
27	0x3f823db8	1.0175085
28	0x3ffa80d9	1.9570571
29	0x3e3ee832	0.18643263
30	0x3f87877c	1.0588222
31	0xbf088d17	-0.53340286
32	0x3ecf3e27	0.40477106
33	0x3f49b55f	0.78792375
34	0x3f32bbba	0.698177
35	0xbf6d9584	-0.9280627
36	0x3efef5c7	0.49796888
37	0xbf977236	-1.183173
38	0x3eabb9e7	0.3354027
39	0x3fd9934d	1.6998078
40	0xbf5ab3a5	-0.85430366
41	0x3fd74c58	1.6820173
42	0x3f1561f6	0.583526
43	0x3f264a32	0.64956963
44	0xbf78a32f	-0.97124
45	0xbf36254d	-0.71150666
46	0x3e95e244	0.2927419
47	0x3dcbe94d	0.09956608
48	0x3e06925e	0.13141772
49	0x3f4a0046	0.7890667

_embedding_layer.normalizing_batch_norm.bn.weight f4 [57]
0	0x3f6f7807	0.9354252
1	0x3f84168a	1.0319378
2	0x3f8463df	1.0342978
3	0x3f774eb4	0.96604466
4	0x3f7aaed7	0.97923034
5	0x3f76da81	0.9642716
6	0x3f796d9a	0.97432864
7	0x3f791e09	0.97311455
8	0x3f77cc34	0.96795964
9	0x3f717538	0.94319487
10	0x3f746601	0.95468146
11	0x3f76e566	0.96443784
12	0x3f7b3dae	0.9814099
13	0x3f7af8cb	0.9803588
14	0x3f7411cd	0.9533966
15	0x3f821410	1.0162373
16	0x3f750264	0.9570677
17	0x3f73cc97	0.95234054
18	0x3f753491	0.95783335
19	0x3f729e1a	0.94772494
20	0x3f789977	0.9710917
21	0x3f7f9362	0.99834263
22	0x3f7428db	0.9537484
23	0x3f76f8d8	0.96473455
24	0x3f792b7a	0.97331965
25	0x3f694440	0.91119766
26	0x3f789c89	0.97113854
27	0x3f7876d8	0.9705634
28	0x3f6e969a	0.9319855
29	0x3f883eb6	1.0644138
30	0x3f7e538e	0.99346244
31	0x3f7fc872	0.9991523
32	0x3f98a78b	1.192613
33	0x3f8869a9	1.0657245
34	0x3f8eca90	1.1155567
35	0x3f81cda6	1.0140884
36	0x3f80ec4d	1.0072113
37	0x3f75cf87	0.96019787
38	0x3f80f753	1.0075477
39	0x3f7b15d1	0.98080164
40	0x3f7bb349	0.9832044
41	0x3f81eaac	1.0149741
42	0x3f78fd13	0.9726116
43	0x3f84f995	1.0388666
44	0x3f828392	1.0196402
45	0x3f74157a	0.9534527
46	0x3f779a14	0.9671948
47	0x3f770422	0.9649068
48	0x3f7830a6	0.9694923
49	0x3f739214	0.9514477
50	0x3f8bbfbc	1.0917888
51	0x3f799798	0.9749694
52	0x3f77e35f	0.96831316
53	0x3f7514ea	0.9573504
54	0x3f8371b5	1.0269076
55	0x3f841dc9	1.032159
56	0x3f835f48	1.0263453

_embedding_layer.normalizing_batch_norm.bn.bias f4 [57]
0	0xbc18a81b	-0.009317423
1	0xbcd99bb8	-0.02656351
2	0x3c3723ff	0.011178016
3	0x3b2b0fe3	0.0026101999
4	0xbcee26a7	-0.029071165
5	0x3d5859ff	0.052820202
6	0x3d0d540e	0.03450399
7	0x3bf62bc3	0.007512541
8	0xbb81e44b	-0.003963982
9	0x3ca53331	0.020166012
10	0x3c3a80a0	0.011383206
11	0x3a3603b1	0.0006943299
12	0xbd14d146	-0.03633239
13	0x3c4233dc	0.011853185
14	0xbbc9557c	-0.0061442237
15	0xbcac9140	-0.021065354
16	0x3c00329a	0.007824564
17	0x3ce03373	0.027368283
18	0x3b7b587e	0.0038352306
19	0x3c0c8a7d	0.00857794
20	0xbb49b1f4	-0.0030776234
21	0xbcb74c73	-0.022375321
22	0x3d36d897	0.04464015
23	0x3cc90235	0.024537185
24	0x3c69933d	0.014256296
25	0x3d832dd6	0.06405227
26	0x3be7d375	0.007074768
27	0x3d00d100	0.031449318
28	0x3d0aba15	0.033868868
29	0x3c85d289	0.016335743
30	0xbab09f42	-0.0013475197
31	0x3b2e7c7e	0.0026624496
32	0x3cff80d2	0.031189356
33	0x3cd54a72	0.026036475
34	0x3ccfd516	0.025370162
35	0xbc08039d	-0.008301643
36	0x3c449b32	0.011999892
37	0x3cfc882a	0.030826647
38	0xbc999057	-0.018745584
39	0xbca18133	-0.019714927
40	0x3c182273	0.009285557
41	0x3ae87e98	0.0017737923
42	0xbc0c71ef	-0.008572086
43	0xbb0922e1	-0.002092533
44	0xbd1c249e	-0.03812086
45	0x3b0ff37e	0.00219652
46	0x3c596ed9	0.013271057
47	0x3bf3619b	0.007427407
48	0x3d347fe7	0.04406729
49	0x3cbe690e	0.023243453
50	0x3cbd02cb	0.02307262
51	0x3c0142b3	0.0078894375
52	0x3d265f22	0.04061807
53	0x39b92d76	0.0003531982
54	0xbacf27e9	-0.0015804741
55	0xbd270fcc	-0.04078655
56	0x3c55f1a3	0.013058099

_embedding_layer.normalizing_batch_norm.bn.running_mean f4 [57]
0	0xbaca57ff	-0.0015437602
1	0xbd4aaadd	-0.049479354
2	0x3d421139	0.047379706
3	0x3c63d48c	0.013905656
4	0x3c8669c2	0.016407851
5	0x3cf685ed	0.030093158
6	0x3c99c872	0.018772338
7	0x3cdae0f4	0.026718594
8	0x3c68f1f1	0.01421784
9	0x3d0bd48b	0.034138244
10	0x3c60313e	0.013683615
11	0x3d33108c	0.043716952
12	0x3d5bbb6c	0.053645536
13	0x3cc9a21b	0.02461343
14	0x3d5100da	0.051026203
15	0x3bb2129a	0.0054343464
16	0x3d3d0110	0.04614359
17	0xba814910	-0.0009863693
18	0xb90090a3	-0.00012260913
19	0x3b89db36	0.00420704
20	0x3d567aaa	0.052363075
21	0x3d377260	0.04478681
22	0x3d216d85	0.039411087
23	0x3d99e456	0.07514255
24	0x3d92f85e	0.071762785
25	0x3c4034f5	0.011731376
26	0x3d830d2b	0.06398996
27	0x3d6a661f	0.057226297
28	0x3c3ac3ac	0.011399191
29	0x3ccd7592	0.025080476
30	0x3d884f2b	0.06655725
31	0x3d8993b1	0.06717623
32	0x3a0fb740	0.00054823235
33	0x3d560ab4	0.0522563
34	0x3d8cbee2	0.068723455
35	0x3da07424	0.07834652
36	0x3d9a7eef	0.07543742
37	0x3be62899	0.0070238826
38	0x3ceadf1e	0.028670844
39	0x3c851138	0.016243562
40	0x3c9531ba	0.018212188
41	0x3d0c280d	0.034217883
42	0x3d27910d	0.040909816
43	0x3d6df6b2	0.058096595
44	0xbd481293	-0.04884584
45	0x3c64cae7	0.013964391
46	0x3b905994	0.00440521
47	0x3c48c65f	0.012254327
48	0x3c11f2c3	0.008907977
49	0x3c3677f9	0.011137002
50	0x3c6c2fa5	0.014415656
51	0x3bca00cd	0.0061646462
52	0xbd232d33	-0.039838027
53	0x3cf0ffb0	0.029418796
54	0x3bf2fc54	0.0074153338
55	0x3cd9dd59	0.026594805
56	0xbd575120	-0.0525676

_embedding_layer.normalizing_batch_norm.bn.running_var f4 [57]
0	0x3e62ce5a	0.2214903
1	0x3ec949ee	0.39314216
2	0x3ec782db	0.38967022
3	0x3d845017	0.064605884
4	0x3d9b8a9a	0.075947955
5	0x3e0e185e	0.13876483
6	0x3da1a95d	0.078936316
7	0x3e19c24c	0.15015525
8	0x3d8fc5d4	0.070201546
9	0x3e1b6b86	0.15177736
10	0x3d6d9abf	0.058008906
11	0x3ecd4d67	0.40098116
12	0x3ea4eb27	0.32210657
13	0x3ee34904	0.44391644
14	0x3ea46f01	0.3211594
15	0x3a67d87b	0.0008844209
16	0x3e706496	0.2347587
17	0x3c2bf025	0.010494267
18	0x3c22972f	0.00992374
19	0x3c71d37f	0.014759897
20	0x3f34bbd5	0.7059911
21	0x3f3f56e5	0.74741966
22	0x3e5df8cd	0.21676941
23	0x3ee2a820	0.44268894
24	0x3ede5601	0.4342499
25	0x3da8256d	0.082102634
26	0x3eb9014e	0.36133808
27	0x3eb44af6	0.3521344
28	0x3d82d264	0.06387785
29	0x3f5e7565	0.8689788
30	0x3f354a28	0.7081628
31	0x3f339ebf	0.701641
32	0x3f3747a6	0.715937
33	0x3f1b1742	0.60582364
34	0x3f1705eb	0.58993405
35	0x3ee6668f	0.4500012
36	0x3ed92085	0.42407623
37	0x3d254398	0.040347666
38	0x3f5f98b7	0.873424
39	0x3d981f64	0.07427862
40	0x3f624c68	0.88397837
41	0x3f58a686	0.84629095
42	0x3e6d5d76	0.23180184
43	0x3eafc060	0.34326458
44	0x3ebb42b8	0.3657434
45	0x3d6eb92a	0.058282055
46	0x3d165e4c	0.036711022
47	0x3d5e9686	0.05434277
48	0x3d4cbe26	0.049986027
49	0x3cdd773b	0.027034393
50	0x3f3bccd6	0.7335943
51	0x3c9ab77b	0.018886318
52	0x3f3dd184	0.7414782
53	0x3df22bb7	0.11824744
54	0x3d74ce52	0.059767075
55	0x3e214de9	0.15752377
56	0x3e895d44	0.2682897

head.layers.0.weight f4 [2, 32]
0	0x3e1e7035	0.15472491
1	0xbdee84be	-0.11646412
2	0xbdc1088e	-0.0942546
3	0xbe0e6f06	-0.1390954
4	0xbdc18f83	-0.09451201
5	0xbdb65710	-0.089033246
6	0xbdc61509	-0.09671981
7	0x3e3b9859	0.18319835
8	0xbd87d300	-0.06632042
9	0x3da5a338	0.08087772
10	0xbd8c7744	-0.068586856
11	0xbdb4494c	-0.08803043
12	0xbd8de64c	-0.06928691
13	0x3d10e916	0.035378538
14	0x3cfc9eb3	0.030837392
15	0x3e53aafe	0.20670697
16	0xbdca3b41	-0.09874583
17	0xbcc6f97c	-0.024288885
18	0xbd8b4d90	-0.06801903
19	0x3e3e88b8	0.18606842
20	0x3da96a96	0.08272283
21	0x3cf08238	0.029358968
22	0x3db6d7bc	0.08927867
23	0xbd9df595	-0.07712857
24	0x3e283a99	0.16428603
25	0x3e066e11	0.13127925
26	0x3e619b78	0.22031963
27	0x3e469498	0.19392622
28	0xbdec6a1b	-0.115436755
29	0x3d5cd4dd	0.05391394
30	0x3e3baaa0	0.18326807
31	0xbacd2308	-0.0015650699
32	0x3d725dd6	0.05917152
33	0x3e44d470	0.19221663
34	0x3db9e997	0.09077757
35	0x3d7b738a	0.061389484
36	0x3e0eff52	0.13964584
37	0x3d71a33b	0.05899356
38	0xbe3d1e4a	-0.18468586
39	0x3d4998fc	0.049218163
40	0x3c88a045	0.016677985
41	0xbdbacb97	-0.09120863
42	0xbd6db64f	-0.05803519
43	0x3d02d6b3	0.031943034
44	0xbe26b869	-0.16281284
45	0x3dcbc086	0.0994883
46	0xbe009f0b	-0.1256067
47	0x3db36776	0.08759968
48	0xbc56e1b5	-0.013115336
49	0xbe4d163b	-0.20028012
50	0xbe34388e	-0.17599699
51	0xbe8387e8	-0.25689626
52	0xbd7ec031	-0.062195007
53	0x3e6cfa09	0.23142256
54	0xbb6f4ba4	-0.0036513591
55	0x3c189943	0.009313884
56	0x3ca18862	0.019718353
57	0x3d94c966	0.07264976
58	0x3dd4c8b5	0.10389844
59	0x3dec2268	0.1153
60	0x3e16c505	0.14723594
61	0x3e194707	0.14968501
62	0x3d953467	0.072853856
63	0xbe46a9ac	-0.19400662

head.layers.0.bias f4 [2]
0	0x3d81219d	0.06305239
1	0xbe398ced	-0.18120165

exp_avg f4 [128, 84]
0	0x3751bb14	1.2500928e-05
1	0x382fd6d3	4.1923322e-05
2	0xb901aae6	-0.00012366063
3	0x3821e5d2	3.8599428e-05
4	0xb7b4f782	-2.1572927e-05
5	0xb87c89d0	-6.020983e-05
6	0xb7e315f3	-2.707073e-05
7	0xb902347a	-0.00012417315
8	0x38a19cb8	7.7062694e-05
9	0xb8ea65d9	-0.0001117696
10	0x388ee7af	6.814242e-05
11	0x38dd39c3	0.0001054886
12	0x385473a1	5.0652427e-05
13	0xb73e82ef	-1.1355368e-05
14	0xb8884dc2	-6.499469e-05
15	0xb5be19f1	-1.4163653e-06
16	0x38d8aaec	0.00010331519
17	0x3607b193	2.021993e-06
18	0xb78ccb8a	-1.678408e-05
19	0xb8afcef4	-8.383198e-05
20	0x36abc2c1	5.1188695e-06
21	0x388098c7	6.1319726e-05
22	0x37d6d449	2.5609641e-05
23	0xb8002020	-3.0547497e-05
24	0xb8160595	-3.5767986e-05
25	0x37ddb38a	2.6428857e-05
26	0xb7c103db	-2.3009188e-05
27	0xb7d4e1a6	-2.5377445e-05
28	0x37e8d0e1	2.7753822e-05
29	0x3893f2a7	7.054704e-05
30	0xb86db6eb	-5.667556e-05
31	0xb85f506c	-5.3242242e-05
32	0x388cdba8	6.7166344e-05
33	0xb8d992ed	-0.000103747334
34	0x38356782	4.3250162e-05
35	0xb79040ad	-1.7196255e-05
36	0xb72c5f4b	-1.0274186e-05
37	0x38d04acd	9.9321456e-05
38	0xb71fb940	-9.52027e-06
39	0xb7bb5f66	-2.233656e-05
40	0x38161904	3.5786084e-05
41	0x36c1052a	5.7524494e-06
42	0x3888f039	6.52973e-05
43	0x34c07c04	3.585302e-07
44	0x3592de32	1.0942515e-06
45	0x37de6b53	2.6514439e-05
46	0xb94b9609	-0.00019415481
47	0xb7d236a7	-2.50594e-05
48	0x3849b967	4.8094804e-05
49	0x35c06cb6	1.4336754e-06
50	0x3824a573	3.9254734e-05
51	0x37a0d023	1.9170408e-05
52	0xb881e5ca	-6.194001e-05
53	0xb90e3324	-0.00013561227
54	0xb66cb0da	-3.5269682e-06
55	0xb7670197	-1.3769043e-05
56	0x38cd60a9	9.793166e-05
57	0x389ba519	7.421728e-05
58	0xb674fe9d	-3.6507038e-06
59	0x36bcb0e3	5.623429e-06
60	0x384238b9	4.630603e-05
61	0x39413651	0.00018426149
62	0x37015362	7.708413e-06
63	0xb8ed6cdb	-0.000113213166
64	0x38d42451	0.00010115712
65	0x3859e8d0	5.1953655e-05
66	0xb803faaf	-3.14663e-05
67	0xb7b3361d	-2.1363661e-05
68	0x3782367a	1.5522575e-05
69	0xb87fc3df	-6.0979157e-05
70	0xb80e879a	-3.3981727e-05
71	0x37bb1411	2.2301481e-05
72	0x3869ed3b	5.5772467e-05
73	0x3893ae71	7.0419985e-05
74	0x36cda7ad	6.128996e-06
75	0xb68d2825	-4.206801e-06
76	0xb81da9fe	-3.7590034e-05
77	0xb8858cd3	-6.368165e-05
78	0x36957efa	4.455328e-06
79	0x387a014b	5.960585e-05
80	0xb6af4b11	-5.2241453e-06
81	0x362c213f	2.564935e-06
82	0x389a1768	7.347652e-05
83	0xb86b6e4f	-5.61311e-05
84	0xb89bf12a	-7.435896e-05
85	0xb88666da	-6.4087755e-05
86	0x3a00d752	0.0004914898
87	0xb8055630	-3.178994e-05
88	0x3831a4a7	4.2353433e-05
89	0x38e701ee	0.00011015298
90	0xb8a1c936	-7.714557e-05
91	0x39074d6d	0.00012903447
92	0xb8773645	-5.893993e-05
93	0x3909e7be	0.00013151669
94	0xb89edfaf	-7.5756914e-05
95	0x3881cd4f	6.189441e-05
96	0x3987fa09	0.00025935497
97	0x38223f61	3.8682836e-05
98	0xb93484d6	-0.00017215623
99	0x36b8d7b5	5.508739e-06
100	0xb83b40de	-4.4644687e-05
101	0xb63fac09	-2.8561356e-06
102	0xb82ce5e4	-4.1222098e-05
103	0xb8197955	-3.6591042e-05
104	0x3a2a638a	0.0006499818
105	0x3a099b53	0.00052492804
106	0x38aef7a5	8.343094e-05
107	0x39d3e370	0.0004041451
108	0x39b4779e	0.00034421397
109	0x3981dbcb	0.00024768556
110	0x39c5ba85	0.00037713736
111	0x39c12d6b	0.00036845668
112	0x37e1c1e0	2.691237e-05
113	0xb9c398c8	-0.0003730713
114	0xb9253b2f	-0.00015757674
115	0xb9486d0e	-0.00019114112
116	0xb8a00727	-7.630727e-05
117	0x386b29c2	5.6067256e-05
118	0xba66fc2f	-0.0008811382
119	0xba1e1b8f	-0.0006031328
120	0x391f6e2d	0.00015204465
121	0xb8897e97	-6.556248e-05
122	0xb785bb69	-1.5942105e-05
123	0x389e75e1	7.555984e-05
124	0xb9864b3c	-0.00025614526
125	0xb93d0ec7	-0.0001802995
126	0xb96b5a65	-0.00022445021
127	0x39615195	0.00021488064
128	0xb9767bf8	-0.0002350657
129	0xb755dc4f	-1.2747084e-05
130	0x39565092	0.00020438645
131	0x3724e671	9.828816e-06
132	0xb8550400	-5.0786883e-05
133	0x382a2ece	4.057475e-05
134	0xb8b6c3f4	-8.7149354e-05
135	0xb8e3160d	-0.00010828311
136	0xb9d97a32	-0.00041480508
137	0x3931fc19	0.00016973949
138	0x381ac0e2	3.6896097e-05
139	0x3848c5c1	4.786789e-05
140	0xb9863534	-0.0002559811
141	0xb952d364	-0.0002010591
142	0xb906a9fd	-0.00012842561
143	0x39145b4d	0.00014148392
144	0xb934d30f	-0.00017244763
145	0x3889728d	6.554006e-05
146	0x39de588f	0.0004240912
147	0x3990916c	0.00027574168
148	0xb75736aa	-1.2827726e-05
149	0xb985460f	-0.00025419935
150	0x38ea24a9	0.00011164818
151	0x38a278f3	7.7472905e-05
152	0xb8933e2b	-7.021086e-05
153	0x397a40ae	0.00023865953
154	0x38f9c3fe	0.000119097516
155	0x37ee36cc	2.8397328e-05
156	0xb97ddbd2	-0.0002420985
157	0xb99b014c	-0.0002956487
158	0xb71fb4d1	-9.519238e-06
159	0x38329d28	4.258487e-05
160	0x390baa3d	0.00013319492
161	0x38b403dc	8.583788e-05
162	0xb8c15722	-9.219187e-05
163	0x38e5d726	0.000109596454
164	0xb8dd894d	-0.000105636755
165	0x38b4b617	8.616986e-05
166	0xb9187257	-0.00014538445
167	0xb8749b90	-5.8319012e-05
168	0x3a0bed9d	0.00053378363
169	0x3957bcd3	0.0002057434
170	0xb97dcd8c	-0.00024204532
171	0xb873e1d5	-5.8146037e-05
172	0xb82f2df3	-4.1766045e-05
173	0xb957c651	-0.00020577876
174	0xb9399a99	-0.00017700567
175	0xb9aa29c5	-0.00032456047
176	0x37a56847	1.971809e-05
177	0xb99d7277	-0.00030030656
178	0x378daabd	1.6888016e-05
179	0x3a099da3	0.0005249625
180	0x388f1500	6.822683e-05
181	0xba2cb1bf	-0.00065877655
182	0xb8ccf200	-9.772554e-05
183	0xb702c70e	-7.79495e-06
184	0x39c38c71	0.00037297935
185	0x383f074e	4.554475e-05
186	0x34aaa6fc	3.1786465e-07
187	0xb8f45046	-0.00011649779
188	0xb88ce393	-6.718109e-05
189	0x38e8e26d	0.00011104797
190	0xb968e136	-0.00022209142
191	0xb7776f82	-1.474831e-05
192	0x386fd061	5.717611e-05
193	0xb9719e35	-0.00023042488
194	0xb87d0d8c	-6.0332517e-05
195	0xb7badef5	-2.227675e-05
196	0xb8b6c476	-8.71503e-05
197	0x387b382f	5.989539e-05
198	0xba03fef0	-0.0005035242
199	0xb9ce8422	-0.00039389828
200	0x372c8613	1.02832155e-05
201	0xb97a027b	-0.00023842782
202	0x38033f48	3.129177e-05
203	0xb962888c	-0.00021603907
204	0xb8abad87	-8.1862374e-05
205	0x385494dc	5.0683375e-05
206	0xb9af3f27	-0.00033425653
207	0xb89d928d	-7.5136406e-05
208	0xb9423f4d	-0.00018524863
209	0xb992f1cd	-0.00028027446
210	0x39889d4b	0.00026057134
211	0xb8fe646e	-0.0001213037
212	0x393304c1	0.00017072541
213	0x379431c5	1.766615e-05
214	0xb5c01e13	-1.4313867e-06
215	0xb72846bd	-1.003005e-05
216	0xb84e5586	-4.9193877e-05
217	0x376c93ac	1.4101079e-05
218	0x38b16727	8.459231e-05
219	0x3916f3ce	0.00014395939
220	0xb85be0df	-5.2423096e-05
221	0xb88f57ba	-6.835112e-05
222	0xb82c543a	-4.1086438e-05
223	0xb897ddaa	-7.241529e-05
224	0x39420738	0.00018503971
225	0x39089d30	0.00013028528
226	0x390b9c5b	0.0001331432
227	0x39afcb6b	0.0003353016
228	0xb9912b1a	-0.00027688668
229	0x37fb20c2	2.9936786e-05
230	0xb94eaa5b	-0.00019709153
231	0xba241514	-0.00062592444
232	0x3a59f425	0.00083142734
233	0x39950355	0.00028421977
234	0xb92d3ee5	-0.00016521996
235	0xb90ac1ad	-0.00013232855
236	0x3952b907	0.00020096089
237	0xb9a5b545	-0.0003160631
238	0xb931b063	-0.00016945745
239	0x387c7f50	6.020005e-05
240	0x399d316c	0.00029982196
241	0x39bd0ca3	0.00036058304
242	0xb876df0a	-5.885869e-05
243	0xb8a144d0	-7.6898956e-05
244	0xb938cd0f	-0.00017623998
245	0xb9a1eaff	-0.000308834
246	0x3908e8fe	0.00013056767
247	0x37ac70de	2.0556556e-05
248	0xb8e470e8	-0.000108929176
249	0xb8edf553	-0.00011346736
250	0x39b9d78d	0.00035446548
251	0xb8980725	-7.2492556e-05
252	0x37a14c7b	1.922831e-05
253	0x38057035	3.1814172e-05
254	0xb8eec102	-0.00011384675
255	0x37d6276d	2.5529147e-05
