Eunho/pytorch_stacking/saved_models/classification-22_epoch=8-valid_loss=0.49.ckpt (torch, 858814 bytes, 138 tensors)

_backbone.add_cls.weight f4 [32]
000000 ad 19 2e 3e c4 1a 14 3d 9a 47 19 be 96 a9 3e 3d
       0.17001982 0.03615834 -0.1496872 0.04654845
000010 49 96 e8 bd 57 be 2c 3e 41 0c 2d 3d 9e fe 34 3e
       -0.113567896 0.16869484 0.042248014 0.17675254
000020 ab 2b 13 3d 0e 41 95 3d 8e e4 19 3d 5e 71 80 3b
       0.035930317 0.07287799 0.037571482 0.0039197644
000030 ce 65 9c 3d 55 f7 9e 3d a3 cc 4f bd 06 23 00 be
       0.07636605 0.077620186 -0.050732266 -0.1251336
000040 1c 2f 0f 3e 18 42 15 3e fd 0f 23 3e 98 9c 9c bd
       0.13982815 0.14575994 0.15924068 -0.076470554
000050 d7 63 ca 3d 06 a7 cc bd e9 dc b0 3c 2d c3 27 3e
       0.09882324 -0.09992795 0.021589713 0.16383047
000060 22 ec a3 3d 3f 6d 3a be 30 89 67 bd 1a 73 85 bd
       0.08004023 -0.18205737 -0.056527317 -0.065160945
000070 ca 3f b4 bd e4 6a 39 3e f5 43 44 3a fb 67 33 be
       -0.08801229 0.18107182 0.0007486933 -0.17520134

_backbone.transformer_blocks.mha_block_0.mha.to_qkv.weight f4 [384, 32]
000000 3b 40 55 3d ed e4 3b be a2 89 20 3e 2a 1f 15 be
       0.052063208 -0.18349047 0.15677503 -0.1456267
000010 65 99 3b 3d 25 49 69 3d 73 4f d8 3d 92 5f ac bd
       0.045800585 0.05695452 0.10562029 -0.08416666
000020 7f cb f8 bd f6 11 21 be 1f 14 11 be 9a bf 6d be
       -0.12148189 -0.15729508 -0.14167832 -0.23217621
000030 21 00 c3 bd 93 93 55 3d a9 18 e6 bd d8 b7 04 bb
       -0.09521509 0.05214269 -0.11235172 -0.002025118
000040 9e da 1b be f6 7b 58 be 95 b6 5b be 96 37 1e 3e
       -0.15220115 -0.21141037 -0.21456368 0.15450892
000050 37 e4 c3 bd f5 b7 0c 3d b8 55 02 be b4 96 8a bc
       -0.09565013 0.034355123 -0.12728012 -0.016917564
000060 81 3a 31 be 8d 0c 0f 3e 60 83 4e 3e ba 5f db 3d
       -0.17307474 0.13969631 0.20167303 0.10711618
000070 1c 57 a0 3d 6c c0 04 be 2d ee b0 3d 1f 7e 5c 3d
       0.07829115 -0.12964028 0.086391784 0.053831216
000080 a8 77 08 3e 0c d5 14 bd 9c 41 3e bd 97 8c 4c bb
       0.13326895 -0.03633599 -0.04644929 -0.0031211728
000090 e4 ad 65 be ee 30 0a 3e 1d bf 0d 3e 06 e9 87 3e
       -0.22429615 0.13495228 0.13842435 0.2654497
0000a0 b5 ed 08 bd 69 3d 6f 3e 71 b8 27 bd 53 f0 c8 3d
       -0.03342982 0.2336327 -0.04094738 0.09811463
0000b0 c2 88 91 3e bd a8 d0 3d 00 57 f4 bc 55 f3 9a be
       0.2842465 0.10188434 -0.029826641 -0.30263773
0000c0 6e 72 d2 3d c1 8d 27 3d 6b 61 43 3d 68 04 a2 bd
       0.10275732 0.04090667 0.047700327 -0.07910997
0000d0 65 a4 38 3e b4 ec 4e be 0f 20 07 3c 6d 89 18 3e
       0.18031462 -0.20207483 0.008247389 0.14896174
0000e0 d5 6c b2 3d 20 3c e0 3c 42 b3 6c be 9b c0 70 be
       0.08712164 0.02737242 -0.23115256 -0.23510973
0000f0 b8 25 49 3d 8a 78 e2 3d ae ae 68 3e cd 6f 82 bd
       0.049108237 0.11058147 0.22722885 -0.063689806
000100 4d e2 33 39 08 cb 3e bd 4d be 8d be c8 02 46 bd
       0.00017155074 -0.046580344 -0.2768425 -0.048342496
000110 94 9a 3f be 8d ab 81 3d e9 be 14 bd 1c b0 42 3d
       -0.1871131 0.06331549 -0.03631488 0.047531232
000120 60 65 d4 3d e8 39 7a 3e e3 81 87 3e 91 e7 24 3e
       0.10370898 0.24436152 0.26466283 0.1610396
000130 c6 c7 88 3e 93 35 37 bc dd c0 14 3d 4a d3 9a be
       0.26714915 -0.011182207 0.03631674 -0.30239326
000140 ea 90 07 3e 04 cf 31 3d 03 bb 85 3e 0d 9b 57 be
       0.13238874 0.043410316 0.2611924 -0.21055241
000150 c8 2c fa 3d f7 db d2 bd bc 42 0e bc 5d e8 1c 3d
       0.122155726 -0.10295861 -0.008682903 0.038307536
000160 be 4f 93 3e 01 75 46 be 67 4c 1f be 76 fa 86 be
       0.28771776 -0.19380571 -0.15556489 -0.26362962
000170 01 7f 22 bd 4c c8 44 3e bf 91 5b bd 0c 6b b9 bd
       -0.0396719 0.19217032 -0.05360579 -0.09053621
000180 ce 6f 6e be 6e 67 71 3d 2b 4f 77 3e ad e1 77 be
       -0.23284838 0.05893653 0.24151294 -0.24207182
000190 c7 f8 35 3e e9 f4 35 be ff 44 17 3d 26 0a 88 be
       0.17770682 -0.17769207 0.036931034 -0.26570243
0001a0 0f c0 01 be c7 ee 4f be ff a0 13 be 9e be 2e 3d
       -0.12670921 -0.2030593 -0.14416884 0.042662255
0001b0 e7 32 c0 bd 4d 1b 20 be 31 29 47 3e b6 f6 d6 bb
       -0.09384709 -0.15635414 0.19449307 -0.006560172
0001c0 78 8f d7 bd 17 49 76 be a6 11 88 be 91 10 78 3e
       -0.10525411 -0.24051319 -0.26575965 0.2422507
0001d0 cc cc 7d bd 82 6c 70 3e 16 04 8e be 9d d2 f7 bc
       -0.061962888 0.23478892 -0.27737492 -0.030251795
0001e0 58 3b b0 bc f2 25 fa bb 49 a6 06 bd 79 10 eb 3d
       -0.021512672 -0.007633918 -0.032873426 0.11477751
0001f0 96 61 0a bd 81 b2 2a be 0a 85 4f be 53 4f 88 bc
       -0.03378447 -0.16669656 -0.20265594 -0.016639387
000200 16 04 27 be 54 58 1c 3d 53 91 35 3e 75 4f 01 be
       -0.16310152 0.038170174 0.17731218 -0.12627967
000210 7f 06 40 3e fe 7a 14 be 4e 93 f5 3d e5 13 e6 3d
       0.18752478 -0.14500043 0.11990987 0.11234263
000220 dd 45 48 be 95 33 09 3e ed 20 a1 3d 56 af ba 3c
       -0.195579 0.13398583 0.07867608 0.022788685
000230 66 ec f7 bd 5d c1 12 be ef 98 b8 bd f1 87 20 3e
       -0.12105636 -0.14331575 -0.09013545 0.15676858
000240 a7 d9 ae bd 8d 17 47 3c 0e c0 f3 bb ea cc 82 3d
       -0.08537608 0.012151611 -0.007438666 0.063867405
000250 ce df 0e be de a1 13 bd 46 ec 0d be 9e 10 0e be
       -0.13952562 -0.03604304 -0.13859662 -0.13873526
000260 a4 bc de 3b ba 19 3b 3c c6 6b 05 be 4a 32 20 3e
       0.00679739 0.011419708 -0.13029394 0.15644184
000270 3c 94 54 bd 39 ef 84 3d 62 a4 bd 3d 1f d6 22 bd
       -0.05189918 0.064909406 0.09259869 -0.039754983
000280 a1 8e f3 bd 3b 52 90 bd e0 79 fc 3d 20 e1 a7 3d
       -0.11892439 -0.07046934 0.12327933 0.08197236
000290 8e 3c d7 3d 51 3c 10 bc d0 1e c2 bc aa c4 82 bd
       0.10509597 -0.008803443 -0.023696333 -0.06385167
0002a0 72 70 08 3d 81 5d ed bd 75 60 12 be 94 b7 fd bc
       0.03331036 -0.115901 -0.14294608 -0.030971326
0002b0 5a 95 37 be 27 2f 19 bd 81 29 96 bc 21 bf e2 bd
       -0.17928067 -0.037398484 -0.018330337 -0.11071611
0002c0 8d 2d 83 bd 8d 60 2a be 39 e8 ba bd 81 4f 1e 3e
       -0.064051725 -0.16638394 -0.09126324 0.15460016
0002d0 53 8f 56 bc 2b f8 69 bc 48 e5 35 3d b8 dc 0e bc
       -0.013095695 -0.014280359 0.044408113 -0.008719616
0002e0 54 27 44 3d f5 7b b7 bd cd b4 47 3e 1a 9c 35 3e
       0.04788907 -0.0895919 0.19502564 0.1773533
0002f0 8f b7 f9 bd 79 d0 82 ba 05 fb 6e 3d b7 55 c7 bd
       -0.12193214 -0.0009980343 0.05834486 -0.09733146
000300 53 31 3c 3e 40 41 42 3e 5c 65 8f be e6 21 80 3e
       0.1837819 0.18970203 -0.2800702 0.25025862
000310 1d c8 5d be 39 4d 4a 3e ae 1e 36 3d 02 03 47 3e
       -0.21658368 0.1975602 0.044462852 0.19434741
000320 52 35 d3 bc 39 84 ee 3c 63 72 af 3d 2f 57 fa bc
       -0.025782261 0.029115783 0.085667394 -0.03055915
000330 a7 d6 f3 3d e4 d9 b1 3d 8e 89 85 be 41 25 8e bd
       0.11906176 0.086841375 -0.26081508 -0.06940699
000340 77 e9 17 3e 5b 80 5f 3e 31 f2 98 3b 06 d3 2f be
       0.14835154 0.21826307 0.0046675433 -0.17170343
000350 79 7f 30 bd 6f 54 7a 3c 27 52 4c bc 3a a5 89 bc
       -0.043090317 0.01527892 -0.0124707585 -0.016802419
000360 d8 f3 6d 3e 12 54 57 be 66 f7 9d 3c b1 82 5e bb
       0.2323755 -0.21028164 0.019283008 -0.003395241
000370 17 8a 8d bd 6b af aa bc 21 0e 82 3e b8 39 f3 bd
       -0.06911104 -0.020835599 0.25401405 -0.11876243
000380 17 d6 89 be fe 06 e2 bd 06 ef 87 3c b8 5d 16 bc
       -0.2692115 -0.1103649 0.016593467 -0.009177618
000390 40 0b a5 3d 20 a0 5d be 8b 5c 19 be a4 4d 0d be
       0.080587864 -0.21643114 -0.14976709 -0.13799149
0003a0 40 34 8d bb 4e d6 8c 3c 56 3c 54 be f7 d2 58 be
       -0.004309207 0.017192032 -0.20726141 -0.21174227
0003b0 84 c1 dd 3c cc 57 69 be dc 82 76 3d ed f3 5e 3e
       0.027069815 -0.22787398 0.06018339 0.21772738
0003c0 f2 ab 06 bd ee 66 b9 bd ae 60 7e be 89 83 40 3e
       -0.032878824 -0.090528354 -0.24841568 0.18800177
0003d0 ac f5 ba 3c 40 a5 59 3e ff d8 51 3d 45 48 7c be
       0.022822224 0.21254444 0.051232334 -0.24636944
0003e0 28 3e 2a be 08 39 73 bb ce 22 ef bc b7 ad 83 bd
       -0.16625273 -0.003711285 -0.0291914 -0.06429618
0003f0 66 89 71 3e 89 4b 03 be 0b 35 71 be d1 6d 95 3d
       0.2358757 -0.12821783 -0.2355539 0.072963364

_backbone.transformer_blocks.mha_block_0.mha.to_out.weight f4 [32, 128]
000000 98 58 4d 3c 17 37 0b 3c 26 dd ac bc 00 1b 8b 3b
       0.012533329 0.008497021 -0.021101546 0.004245162
000010 fd ed aa 3d 74 d9 55 bd e9 2a 8f bd 7f 7d 54 3d
       0.08346174 -0.052209333 -0.06990606 0.051877495
000020 02 69 de 3c 9e 70 75 3c 42 ea 96 bd 0b 72 90 3d
       0.027149681 0.014980463 -0.073689 0.07053002
000030 dc 57 c6 bc 88 3d fb 3d ce 5f 72 3d 0f 92 06 bd
       -0.024211816 0.122675955 0.059173398 -0.032854136
000040 ff 23 59 bd 9a 28 d4 bc 30 b9 48 3c b3 83 7e 3d
       -0.053012844 -0.025898267 0.012251183 0.062137317
000050 b8 9a 6f 3d eb 46 01 3c 91 a4 d4 bb 0f 57 6e 3d
       0.05849716 0.007890443 -0.0064893444 0.058188494
000060 95 ee bc bd 21 5c 8e bd 83 60 c8 bd 8c 35 96 3c
       -0.092251934 -0.06951166 -0.09784033 0.01833608
000070 1b 25 22 bd d3 c9 ae bd 49 37 e5 3b 4d 24 31 bc
       -0.039586168 -0.08534589 0.006995116 -0.010811877
000080 bb 33 33 3d a3 5a a4 3d fe 22 e7 3d d1 3e 8b bd
       0.043750506 0.080251 0.11285971 -0.06799091
000090 e2 d1 90 bd a5 85 36 3d 79 7b 9d bd 4f 45 99 3d
       -0.07071282 0.044561047 -0.07689566 0.07483923
0000a0 9a 0d df 3c b8 41 80 3c e1 fa 19 3d 38 26 0e bd
       0.027228165 0.015656337 0.037592772 -0.034704417
0000b0 4f af 3c bc 7e b7 67 3d 17 c3 57 3d 02 ff 0d 3d
       -0.011516406 0.056571476 0.052676287 0.034667023
0000c0 e6 f8 88 bd be 20 4f 3d 6f 30 9a 3c 44 88 64 bd
       -0.066880986 0.050568335 0.018821923 -0.055794016
0000d0 cd 65 5a bd 98 0d 00 3d f2 45 60 3d 4c a4 8c 3d
       -0.05331974 0.031262964 0.054754205 0.06867275
0000e0 c3 82 59 3c 9f c7 8b ba 94 50 09 bd ca d3 5e bd
       0.013275805 -0.001066435 -0.03352411 -0.054401197
0000f0 8b 8d 9c bc 6e de 2c bc 26 88 e9 3d 77 a1 6e bd
       -0.019110462 -0.010551078 0.114029214 -0.058259454
000100 40 44 29 bc 09 df e3 3a c8 b4 8a 3d 06 c6 a2 3c
       -0.0103312135 0.0017385195 0.067727625 0.019869816
000110 72 d0 9c bc 1f 5a a0 3d 89 2e a3 bc 7b 55 31 bd
       -0.019142363 0.07829689 -0.01991965 -0.04329441
000120 02 2f b8 bd b2 ba 3c 3d 1c c0 5b 3d 17 2b 1e bd
       -0.08993341 0.046076484 0.053650007 -0.038615312
000130 b8 c9 8b 3c 3c 7c 07 3d 2c 81 e3 bc 4b 51 84 3c
       0.01706396 0.033077464 -0.027771555 0.016152045
000140 a0 ff a8 bb b2 ad 55 3d d8 7a 0e 3d 7c cf 7e 3d
       -0.005157426 0.052167602 0.03478512 0.06220959
000150 1f e8 aa 3d 0b d3 8b bc 72 dd 4c 3a 1e db 96 bd
       0.08345055 -0.017068407 0.00078149803 -0.07366012
000160 36 9b 8e bc 26 29 8a bd e7 a4 88 bd 5e 1a 8a 3c
       -0.017407995 -0.0674613 -0.066720776 0.016858276
000170 7d f3 7b bd da 34 00 bc 7f 37 e7 bc 4f 75 85 3d
       -0.061511505 -0.007825101 -0.028224705 0.065165155
000180 2c 87 03 bc 40 04 ac 3d ef d1 53 bc 31 1d df 3c
       -0.008027833 0.08399248 -0.01292847 0.0272356
000190 4a 9b 8b bb 6b e5 49 3d 05 3c 9c 3c e7 3f d6 3c
       -0.0042604553 0.049291056 0.019071588 0.026153518
0001a0 6e de cb 3b a7 25 c1 bd d2 b8 0b bc ca 95 7d bd
       0.006221584 -0.0943101 -0.008527951 -0.061910428
0001b0 33 8c b5 bc 54 fb 5b bd 7d a4 a5 3d d0 ad ea 3c
       -0.022161579 -0.053706482 0.08088014 0.028647333
0001c0 e2 eb 77 3d 79 75 6f 3c 0f 16 2c bd e0 ff b9 bd
       0.06052769 0.01461541 -0.042013224 -0.090820074
0001d0 96 34 b9 bd e7 7c 4f bd d4 f1 3a bd 7b 48 6d bc
       -0.09043233 -0.050656226 -0.04564078 -0.014482613
0001e0 b4 df 2a 3b 71 86 90 bd b0 e2 69 3d 91 9e bd bb
       0.002607328 -0.07056893 0.05710095 -0.005786725
0001f0 a6 98 c0 ba 64 b7 96 3c 1a a0 a9 bd 9c 73 60 3d
       -0.001469393 0.018397994 -0.0828249 0.054797754
000200 d4 0d b4 3c 33 cd c2 bd c5 d0 36 bc 80 48 8b 3d
       0.02197925 -0.09511795 -0.011158173 0.06800938
000210 c7 48 33 3d 45 e8 a8 3d 6b 9f b3 3c 6c 5b 5a bd
       0.043770578 0.08247427 0.021926602 -0.053309843
000220 f2 b2 33 bb 94 4b 9e bb 4a 67 80 3c 64 78 26 bc
       -0.0027419892 -0.004830787 0.015674252 -0.010160539
000230 8c 54 09 bd be 71 1a bd e7 7e 18 bd 61 80 5f bd
       -0.033527896 -0.03770613 -0.0372304 -0.05456579
000240 06 6a ad 3d a5 3f 91 bd 86 5b a6 bd 36 9e 27 3b
       0.08467488 -0.07092217 -0.081229255 0.0025576479
000250 65 fc 8a 3b e2 9e 0b 3c 54 02 34 bc 3f 26 c1 3d
       0.0042415136 0.008521767 -0.010986883 0.09431123
000260 60 36 44 bd b3 23 c5 3c 46 96 68 bb c7 45 20 3c
       -0.04790342 0.024064874 -0.003548996 0.009782261
000270 3d 8c 6c 3d 8d da 3e bd f8 6b 50 bd d4 31 b3 3d
       0.05775093 -0.046595145 -0.050884217 0.08749738
000280 85 c5 23 bd d5 e6 a7 39 05 90 a5 bd 48 aa 87 bd
       -0.03998329 0.00032024705 -0.0808411 -0.066242754
000290 44 3f 0c bd f5 9a 0f bd 0d 2f 9b bc f7 50 20 3c
       -0.034240022 -0.035059888 -0.018943334 0.0097849285
0002a0 32 e6 88 bd e2 4f a1 bd db 2e a6 bd fa 1d 23 bc
       -0.06684531 -0.078765646 -0.08114406 -0.009955877
0002b0 a5 c7 00 bd 4c 84 c7 3b 6d 07 58 3d e2 91 01 3d
       -0.031440396 0.006088769 0.052741457 0.031633265
0002c0 ba b6 76 3d 61 81 1d 3d 20 3a a0 3c 47 7d 3f 3d
       0.060232855 0.038453463 0.019558966 0.046750333
0002d0 66 65 65 3d a7 91 b7 bd dc 7f e9 bd a1 95 6c 3d
       0.056004904 -0.08963328 -0.1140134 0.057759885
0002e0 8d b2 42 3c 67 1e 41 3d 8f a0 6e bd 4a 4d 94 3d
       0.01188339 0.047148135 -0.05825859 0.07241304
0002f0 ae 4e 81 3d 34 7a 5a bd 15 19 1c 3d cc 9a 86 bd
       0.06313835 -0.0533392 0.038109858 -0.06572494
000300 d6 d1 a8 ba 27 ba bf 3d d1 35 96 bd 47 1a ae 3c
       -0.0012879919 0.093616776 -0.073344834 0.021252764
000310 a0 e3 e8 bc 8a 53 88 3c aa f6 63 3d 56 f9 83 3d
       -0.028428853 0.016641397 0.05565516 0.064440414
000320 9a 4e 9d 3d 94 2f a0 bd c1 af 4a bd 78 dc 9a bd
       0.07681008 -0.07821575 -0.04948402 -0.07561582
000330 10 50 ff 3c cd 58 0b 3c 7a 90 91 bb bf 2a dc bc
       0.031166106 0.0085050585 -0.004442272 -0.026875852
000340 67 c7 07 bd ed 12 cf bc 3f a8 7e 3d 85 4c d6 3d
       -0.03314915 -0.02527758 0.06217217 0.10463814
000350 32 a0 75 bd d6 8d 25 3c 51 62 b6 3c 0f 49 06 bd
       -0.059967227 0.010104617 0.022263678 -0.032784518
000360 f3 1d 8d 3d 9e e7 54 bd eb b7 8b bd db 5c 3f bd
       0.06890478 -0.0519787 -0.06822189 -0.046719413
000370 1f 43 66 bc ab 66 93 bd ac ad dc bc 8d 27 44 3b
       -0.014054089 -0.07197317 -0.026938282 0.00299308
000380 83 fb 82 3d 4b 5f b4 bd ce a2 d3 3c 2f 90 6c bd
       0.06395628 -0.08807238 0.025834467 -0.05775469
000390 22 35 22 3d e9 0b 95 3d 65 e4 41 39 e6 85 12 bc
       0.039601453 0.07277662 0.00018490998 -0.008943057
0003a0 6a 79 37 3d d4 27 e0 3c 8d 87 27 3d 5b db 87 3c
       0.044793524 0.027362742 0.040900756 0.016584089
0003b0 c0 60 2e bd 57 72 5b bd 4c 70 97 3d c2 85 83 bd
       -0.042572737 -0.05357584 0.07394466 -0.06421997
0003c0 82 68 52 bd aa d4 8a 3b c8 13 d1 3a f7 ad b2 bb
       -0.051369198 0.0042367773 0.001595133 -0.005452867
0003d0 4d 60 6d bd 6b 10 ab 3b e6 bd bb bd dc 6a a7 bd
       -0.057953168 0.005220463 -0.0916708 -0.08174679
0003e0 49 53 0c bd 53 fb 85 3d 0a 05 2b bc 8c bc b4 bd
       -0.034259114 0.06542077 -0.010438213 -0.08825025
0003f0 a4 09 7c bd ed ac cc 3d 6f c0 d1 3d ce 43 50 bd
       -0.06153263 0.099939205 0.10241782 -0.050845914

_backbone.transformer_blocks.mha_block_0.mha.to_out.bias f4 [32]
000000 5c 10 8e bd 12 38 1a 3c 95 83 15 3d 65 08 a6 3d
       -0.06936714 0.009412782 0.03650244 0.0810707
000010 8b ce 08 3d ad 6b 10 bd 3a 0e ab 3c 4a 16 a5 3d
       0.0334001 -0.035258938 0.020880807 0.08060892
000020 a1 c9 81 3d 22 c5 1f bd e8 10 1f 3d e3 53 28 bd
       0.06337286 -0.03900636 0.038834482 -0.041095626
000030 30 77 17 3d 5c bc 26 bd 9a a9 cf bc 37 91 8b bd
       0.0369789 -0.040706977 -0.025349427 -0.06814807
000040 3c 18 4d 3c 60 60 45 3d 7a e0 ce bc d5 69 00 bd
       0.012517985 0.048187613 -0.025253523 -0.03135093
000050 11 55 16 3d 30 a8 af bc c1 4c 22 bd 8d d9 30 3d
       0.03670222 -0.021442503 -0.03962398 0.043176223
000060 6d 87 4e 3d fa 54 73 bd 74 90 59 3d 83 35 64 bd
       0.05042212 -0.05940721 0.053116277 -0.055715095
000070 88 39 af bd 47 0c 99 ba 6a f8 49 bd 09 7d da bc
       -0.08555895 -0.0011676633 -0.04930917 -0.02667095

_backbone.transformer_blocks.mha_block_0.pos_wise_ff.ffn.layer1.weight f4 [128, 32]
000000 99 82 d2 bc a5 8d 3a be 1f d5 41 3e 3d d2 1c be
       -0.02569704 -0.18218096 0.18928955 -0.15314575
000010 2a bd 08 be 84 3d 13 3e 51 e3 1b be a1 52 2d 3e
       -0.1335341 0.14378935 -0.15223433 0.16926052
000020 9b d6 18 be f1 84 21 3d ef 7a 57 bb 1c 6d dc 3d
       -0.14925615 0.039433423 -0.003287967 0.107629985
000030 cd be 00 be 14 90 f0 bd 37 50 c9 3d d9 cb 1c bb
       -0.12572785 -0.11746231 0.09829753 -0.0023925214
000040 e2 75 1b be 19 45 1e be bf 22 28 be 37 34 8b 3d
       -0.15181687 -0.15456046 -0.16419505 0.067970686
000050 d5 06 89 bd 1d 6c 18 be 4d 58 ef 3d cc f0 bf bd
       -0.06690756 -0.14884992 0.11686764 -0.093721
000060 b3 24 cd bd 0b 15 2f be e0 94 0c be 8e 49 fe bd
       -0.100167654 -0.17097871 -0.13728666 -0.12416373
000070 e1 50 f8 3b a3 23 1c 3e f3 6f 54 bd 1b 66 aa 3d
       0.007578001 0.1524797 -0.051864576 0.08320256
000080 36 d3 f0 3c f2 1d 2f 3e f9 70 e1 3d af d7 ac 3d
       0.029397588 0.17101267 0.11007876 0.08439576
000090 14 81 0c 3e dc 85 13 3b 8c a9 97 bd aa ff d0 3d
       0.13721114 0.0022510206 -0.074053854 0.10205014
0000a0 52 51 96 bd ee 96 9e 3d cc 80 10 3d 2a 87 8f bc
       -0.07339729 0.07743631 0.03527908 -0.017520506
0000b0 03 08 b9 bd ea 58 04 3e 17 fb 4a 3c a6 66 91 3d
       -0.09034731 0.12924543 0.012388966 0.07099657
0000c0 94 83 ea 3d b6 a7 4d bc c5 e2 5e 3d 2e 86 20 3e
       0.11450878 -0.012552192 0.054415483 0.15676185
0000d0 96 f8 c0 3d 80 01 47 3d 21 62 1c be d7 59 f5 bc
       0.09422414 0.048585415 -0.15271808 -0.029950066
0000e0 25 f1 a3 bd 25 97 a7 3d ac af d8 bc 59 41 78 3d
       -0.08004979 0.081831254 -0.026450954 0.060609195
0000f0 e0 05 9e bd 47 33 78 bd 46 2c 0e 3e 51 b4 1c 3e
       -0.07715964 -0.060595777 0.13884076 0.1530316
000100 5f 6d 13 be fc 8a f2 bd 95 cf a5 bd 74 76 fc 3d
       -0.1439719 -0.118429154 -0.08096234 0.12327281
000110 93 2d f5 3d b4 23 a7 bd ea de a2 3b 56 92 0d bb
       0.11971583 -0.08161107 0.004970421 -0.0021602116
000120 b7 b7 02 be 37 06 84 bd a7 6e 9e bc 4c d7 e0 3d
       -0.12765394 -0.06446498 -0.019339873 0.109785646
000130 bd 69 8d bd 19 83 29 3c c6 90 b5 3b 25 4f c6 3d
       -0.069049336 0.0103461975 0.00554094 0.09683064
000140 65 a8 d5 3d cb b1 85 3b 86 83 9c bc e7 da 2b bd
       0.10432509 0.0040800325 -0.019105684 -0.04195681
000150 e1 61 01 bd 0e 86 1d be 19 83 e8 3d ba ec 1a be
       -0.031587485 -0.15383169 0.1135313 -0.15129367
000160 44 c0 0f 3e ff 90 7b bc cc f2 cc bd 23 f7 33 3e
       0.14038187 -0.015354394 -0.10007247 0.17574744
000170 04 27 11 be d4 95 2b be a5 25 84 bd 49 c9 0b 3d
       -0.1417504 -0.16756374 -0.064524926 0.034127507
000180 6d c6 21 3e 33 b0 ae 3c b8 86 39 3e 9a fc 78 3d
       0.1579835 0.021324253 0.18117797 0.060787775
000190 41 5d 22 3d e1 ad 87 3d 4d 74 9d 3d e9 8e d9 bd
       0.039639715 0.06624962 0.07688198 -0.10622961
0001a0 66 a6 13 be 8f 21 b5 3c ce 02 9e 3d c8 e0 1c be
       -0.14418945 0.022110729 0.07715379 -0.15320122
0001b0 7d ed e5 3c ec d7 03 3c 4b 77 d4 3c c3 28 ef bd
       0.028067345 0.008047085 0.02593579 -0.116776966
0001c0 d6 bc c0 3d 05 96 0d 3d 23 7a 00 3e 38 4b 11 3e
       0.094110176 0.034566898 0.12546591 0.1418885
0001d0 18 da 15 3e b7 16 43 be 30 9a b7 3d 07 70 23 3e
       0.14633977 -0.19051634 0.08964956 0.15960704
0001e0 3d c9 00 3d df 82 db bd eb ec f5 bd de 61 fe 3d
       0.031441916 -0.10718321 -0.12008079 0.124210104
0001f0 54 16 d7 bc 80 b6 ed bd d2 18 00 3d 31 39 1b be
       -0.026255764 -0.11607075 0.03127367 -0.15158536
000200 2f e9 22 be f8 cb 51 be 67 73 cc 3d 4f 0b 28 bb
       -0.15909265 -0.20487964 0.09982949 -0.0025641506
000210 ce 55 a0 bd 53 33 5f bc b4 51 d7 3c f7 ed f6 bd
       -0.07828866 -0.0136230765 0.026284076 -0.12057107
000220 b7 a0 d7 3d 53 7a 82 be b2 6f 4b bd f6 0b 1d be
       0.10528701 -0.2548395 -0.049667068 -0.15336594
000230 61 80 70 3e f0 e9 1d 3e 79 87 ce bd 3d e1 16 bd
       0.23486473 0.15421271 -0.10084433 -0.036835898
000240 72 34 a6 3b 19 64 39 3e df 59 14 bc 2e 65 96 bd
       0.00507217 0.1810459 -0.00905463 -0.07343517
000250 32 77 bc bd ae e5 89 be bd 3c 18 3c df 3b 52 3d
       -0.09202422 -0.26933044 0.009291825 0.05132663
000260 5e 97 ab bd e6 d7 4c 3c cc 79 11 be f9 aa 36 be
       -0.083784804 0.012502646 -0.14206618 -0.17838658
000270 83 37 b9 3d ee f0 8a 3e 30 70 92 bd 50 25 41 be
       0.09043791 0.2713694 -0.07150304 -0.1886189
000280 7b 6c 56 3d b1 55 d2 3d 35 bd 88 3d a6 c4 e3 bd
       0.05234955 0.102702506 0.066767134 -0.11121492
000290 c6 a2 c9 3d 29 2c ef 3d 38 1c 27 3e f4 8b 4b bd
       0.098455 0.11678345 0.16319358 -0.049694017
0002a0 dd d2 b4 bc f4 82 b3 bd 83 d3 c5 bd 47 d0 d7 3d
       -0.022073204 -0.08765212 -0.09659483 0.105377726
0002b0 d9 60 1c 3e 4c bb 1c 3d 58 11 42 3e 80 13 3c be
       0.1527132 0.038264558 0.18951929 -0.18366814
0002c0 9b d6 f3 bd 8f e4 3e 3e 90 8a 1f 3e 50 81 16 be
       -0.11906167 0.18641876 0.15580201 -0.14697766
0002d0 77 a4 cf 3b 78 da 0a be 5f ed 0d 3e 3e ed a0 3d
       0.0063367444 -0.13559902 0.13860081 0.0785775
0002e0 92 4e f7 bc 1d ce 00 be 33 c8 8c 3d f1 0e 71 3d
       -0.030188832 -0.12578626 0.068741225 0.05885214
0002f0 f1 a5 73 ba ac 73 1d 3e e6 ce a4 3d 4a 9b 8a 3d
       -0.00092944416 0.15376157 0.08047275 0.067679
000300 2c eb 98 3d 89 fd d6 bd 8c 0a b5 3d 5d 31 ac bd
       0.074667305 -0.10497577 0.08839902 -0.08407853
000310 39 78 5b 3d 54 09 4f bc 78 9e 1f be e1 2b 03 be
       0.05358145 -0.012636501 -0.15587795 -0.12809707
000320 1d 25 a2 bd f6 6d 0e be 70 f3 2c bc f6 a9 2c 3e
       -0.07917235 -0.13909134 -0.010556087 0.1686171
000330 8d 11 de bd 52 4a 70 3d 4a 20 06 3b be c7 de bd
       -0.10843191 0.058664627 0.0020466023 -0.108779415
000340 65 91 28 be 8d 88 e3 bd 20 3e 38 3c 50 0a 08 3e
       -0.16461714 -0.11110029 0.0112452805 0.13285184
000350 a7 2d 16 b9 9a 2c d1 3c 57 e9 f5 bc 0a a0 16 be
       -0.00014322122 0.025533963 -0.030018492 -0.14709488
000360 9a 10 c0 bd 0f e5 9c bd f8 8b c8 bd e4 1e 4f 3c
       -0.093781665 -0.07660877 -0.09792322 0.012641642
000370 e5 38 2e 3e 4c 8d 0f be ff 95 b1 bc 68 ab 2a 3e
       0.17013891 -0.14018744 -0.021677969 0.16666949
000380 c4 af 1f 3e 1a fa 3e bb 23 5c 61 3d 3a d4 04 be
       0.15594393 -0.0029140771 0.05501951 -0.12971583
000390 7c 52 06 3e 50 c6 93 bd 38 47 17 3e 66 7a b4 3d
       0.13117403 -0.072155595 0.14773262 0.08812408
0003a0 cc 86 d1 bd a2 40 c1 bd c4 be c1 3d 5d a0 e8 bd
       -0.102307886 -0.09436156 0.09460214 -0.11358712
0003b0 e3 9c d4 3d 7a 2e fa 3d 4d 68 1b 3d b5 2a 11 be
       0.10381486 0.12215896 0.037941266 -0.14176448
0003c0 81 d5 e1 3d d9 3b 6e 3d 7c 0a ae 3d 4e 76 0a 3e
       0.11027051 0.058162544 0.084980935 0.13521692
0003d0 e0 b7 68 3d 52 34 a5 3c d5 45 3c bd f2 f7 f8 3d
       0.056815982 0.02016655 -0.045965035 0.12156667
0003e0 1a 71 95 bd b4 8d 96 3b ba ae c1 3c cc 13 d8 3d
       -0.07296963 0.004594529 0.023642886 0.10550651
0003f0 45 eb 8a 3d d9 20 0b be f3 a1 43 be 87 e0 12 3e
       0.06783155 -0.13586749 -0.19104747 0.14343463

_backbone.transformer_blocks.mha_block_0.pos_wise_ff.ffn.layer2.weight f4 [32, 128]
000000 e9 05 8c 3d 37 09 47 bd 0d c5 97 bd 01 f6 11 3d
       0.06837065 -0.048592772 -0.07410631 0.035635
000010 41 d8 ab bd cb a8 51 bd 61 99 74 bc 1d e4 a7 bd
       -0.083908565 -0.051186364 -0.0149291465 -0.08197806
000020 fe c1 b1 bd 42 a2 a6 bc e9 b9 76 3d 3d 1e 98 3c
       -0.08679579 -0.020341042 0.06023589 0.018569106
000030 3e bd 3f 3d a1 14 fd 3c de e5 cc bc 7b 61 a1 3d
       0.046811335 0.030893626 -0.025011953 0.07879921
000040 0d 23 51 bd 1b 4d dd bc 9a 38 4a bd 3f ff 1c 3d
       -0.051058818 -0.027014306 -0.049370386 0.03832936
000050 c3 4b ac bd 1c 59 a6 3d 59 88 2d bc 2c 47 91 3d
       -0.08412888 0.08122465 -0.01059159 0.07093653
000060 a7 df ae bc 24 8e 1d 3e 44 b6 89 3d ff 7f c0 bd
       -0.02134688 0.15386254 0.067242175 -0.09399413
000070 4c ff 4e bd d9 35 07 3d 78 10 29 3d 6b 46 e9 3c
       -0.05053644 0.033010338 0.04127547 0.02847596
000080 b3 ab 83 3c c0 49 80 bd 2d 74 58 bd b2 71 b5 bd
       0.016073084 -0.06264067 -0.05284517 -0.08859576
000090 f9 2d 08 bd 94 b1 79 3d d3 01 14 bd fa d6 a5 bd
       -0.033246968 0.060960367 -0.036134552 -0.08097644
0000a0 3b cd 47 bd a2 a4 63 3d f3 6a 64 3d 39 38 b4 3d
       -0.048779707 0.055576928 0.055766057 0.08799786
0000b0 1c 69 d5 3c 7d 0b 90 3d fe bd 9c 3d 08 dd 47 3d
       0.026051097 0.07033441 0.07653426 0.048794776
0000c0 70 3c a3 bd 87 b0 85 3d 99 a2 81 bd 77 f4 36 bd
       -0.07970512 0.065278105 -0.06329841 -0.044666734
0000d0 ea 15 e7 bd 3c 0e d8 3b 63 a0 43 bd 9f fe 90 bd
       -0.11283477 0.0065934937 -0.04776038 -0.07079815
0000e0 b8 63 66 bd 8e 9a b5 be 56 e2 ec 3d 70 da a8 3c
       -0.056247443 -0.35469478 0.11566608 0.020611972
0000f0 62 04 8d bd b7 69 76 bd e8 58 a9 3d 10 5f 1e be
       -0.068856016 -0.06015941 0.08268911 -0.15465951
000100 e5 ce 8c bd 65 92 99 3d 82 45 46 bd 7c a6 9d 3c
       -0.068753995 0.07498626 -0.04840613 0.019244425
000110 48 76 e9 3d 22 48 50 bd f3 dc 10 be 64 f8 89 3d
       0.113995135 -0.05085004 -0.14146785 0.0673683
000120 09 b4 5f 3d da 5b 7f bb 74 97 94 bd 41 70 2d 3d
       0.054615054 -0.003896466 -0.0725545 0.04234338
000130 da bf 98 3d 14 7f 72 bd 6b 98 55 3d 98 3d 8b bd
       0.07458468 -0.059203222 0.05214731 -0.067988575
000140 bc 1d 35 bc cf 9e 92 bb 6c b8 3f bc cf a2 60 3c
       -0.0110544525 -0.004474498 -0.011701684 0.013710692
000150 d1 f1 b6 3d b0 f6 c5 bc ab d2 9a bd a0 6f 81 bd
       0.089328416 -0.024165481 -0.07559713 -0.06320119
000160 06 9c 86 bd 5a a0 06 3c 2d 8c 25 bd f8 08 1e 3d
       -0.06572728 0.008216942 -0.040416885 0.038582772
000170 54 51 57 3c d3 44 8a bb e9 c0 0c 3d 08 9b 28 3d
       0.013141949 -0.0042196303 0.03436366 0.041163474
000180 12 0d 87 bd 83 24 98 bd 83 0a da 3c 84 19 b0 bd
       -0.0659429 -0.07428839 0.02661634 -0.08598617
000190 49 70 a1 3c 1e ef 8e bd 27 05 4d bd db 95 90 bc
       0.019706862 -0.06979202 -0.05005374 -0.017649582
0001a0 fa b0 b2 bd 07 54 b1 3c d3 82 92 bc 20 cb 69 bd
       -0.08725162 0.021646513 -0.017884647 -0.05707848
0001b0 5e 46 ee bc 7c 2e f4 3c aa e2 e2 3d 8e c7 10 be
       -0.029086288 0.029807322 0.11078389 -0.14138624
0001c0 59 b2 9c 3d 93 1e f5 3c fc 6e 8e bd ef f8 a3 3d
       0.076512046 0.029921805 -0.06954762 0.08006465
0001d0 2b 66 00 bd 08 26 26 bd ca 33 dd bb 59 69 b0 3b
       -0.031347435 -0.040563613 -0.0067505585 0.005383652
0001e0 f6 14 a0 3d 82 83 f9 bc da 57 29 be c6 ae 64 3e
       0.07816498 -0.030458216 -0.16537419 0.22332296
0001f0 0f cc ab bd ce b2 a0 bd f5 1b d6 3a 66 04 c4 3d
       -0.083885305 -0.07846604 0.0016335236 0.095711514
000200 57 17 f7 bc 48 24 a0 3d 1f 00 b2 bc e5 9b b1 bd
       -0.030162496 0.0781942 -0.021728573 -0.08672313
000210 7f 2f 61 3e d4 e8 11 3d 39 85 64 bd a6 1d c4 bd
       0.21990775 0.035622433 -0.055791114 -0.095759675
000220 16 2f c8 bc c9 23 13 3c d4 75 ae 3d d1 19 96 3d
       -0.024436515 0.0089807 0.08518568 0.07329143
000230 e7 91 1e 3d 7d 0e 62 3c 58 e7 42 bc 68 92 19 3d
       0.038713362 0.0137974 -0.011895977 0.03749314
000240 68 76 95 3d 48 0a e5 3d 27 f3 80 3d 42 5f c3 bb
       0.07297975 0.111836016 0.06296378 -0.0059622834
000250 bb c4 51 bd a4 89 01 bd 30 66 e6 bd 10 38 da 3c
       -0.051213007 -0.031625405 -0.112499595 0.02663806
000260 61 e9 4e be 62 d8 9c be 08 cc f7 bc 30 65 87 3c
       -0.20206214 -0.30633837 -0.030248657 0.016527742
000270 85 1e 8d bd 4e 85 a4 39 d2 0b c1 bc ba dd 04 be
       -0.06890587 0.00031379837 -0.023565207 -0.12975207
000280 6d 4c 10 3c 3a ae 22 bd 50 9f 72 3d 82 94 bc bb
       0.008807284 -0.039716937 0.059233963 -0.005755008
000290 f9 97 93 bd 4d 7c a6 bd b6 9b ce bc 87 fc 8f bd
       -0.07206721 -0.08129177 -0.025220733 -0.07030588
0002a0 88 45 9d 3b 26 17 01 bc 11 0b 30 be 84 5c ab ba
       0.0047995485 -0.007879054 -0.17191721 -0.0013073836
0002b0 f0 db d4 3d 79 08 9a bc b9 eb cb bb 6f dc 93 bd
       0.10393512 -0.018802868 -0.0062231687 -0.07219779
0002c0 99 27 16 bd 23 e9 75 bd 5e eb 36 3d 00 e1 1e bd
       -0.036658857 -0.06003679 0.044658057 -0.038788795
0002d0 6c 2e d8 3d dd 0d 95 bd 86 16 79 3d 69 fd 95 bd
       0.10555729 -0.07278035 0.060812496 -0.07323725
0002e0 65 17 75 3d b9 b7 cc 3e 23 8c 9e bd 2a 3a 09 bd
       0.059836764 0.3998392 -0.07741573 -0.033502735
0002f0 74 3c c7 bc d6 a0 a3 3d 1c 6f 9a bd fb 53 97 3e
       -0.024320818 0.079896614 -0.07540724 0.2955626
000300 03 5a b8 ba 6c 84 b6 bd 2c f9 9d bc cb 56 fc 3b
       -0.0014064912 -0.08911976 -0.019283853 0.007700776
000310 66 44 b7 bc b0 5a c4 bb a1 59 bc 3d 69 46 82 3d
       -0.022371482 -0.005992256 0.09196783 0.06361086
000320 54 19 e0 bc a8 51 a9 3c f5 7e b4 bd db f2 68 3d
       -0.027355827 0.02066882 -0.08813278 0.05687223
000330 58 d0 4f 3d 32 79 bb 3c 09 eb d0 3c 14 5f 32 bd
       0.0507358 0.022884939 0.025502698 -0.043547705
000340 e6 6a 4a 3c f0 d0 40 3d 35 85 c6 bb 6d e6 ae 3c
       0.012354588 0.04707426 -0.00605836 0.02135011
000350 55 60 84 be c7 d8 8b bd 88 d9 99 3d f7 a5 84 bd
       -0.25854746 -0.06828456 0.07512194 -0.06476968
000360 fc 5a 0b bd 97 e7 f6 bc 93 85 aa 3d 57 d5 3f be
       -0.034022316 -0.030139728 0.083262585 -0.18733726
000370 8b d2 2d bd 27 0b 15 bc ed 3d 43 3b 8c 9b a8 ba
       -0.042437118 -0.009096897 0.002979155 -0.0012863739
000380 9e 25 98 3d 47 cf 11 3c b4 0f e4 3b fb 6b 6b 3c
       0.0742905 0.008899516 0.00695988 0.014369006
000390 9e 60 94 bd 14 99 e7 3c 7a 78 ac bc da 3e a2 3c
       -0.07244991 0.028271236 -0.021053541 0.01980536
0003a0 ce 0a f5 bc 8d 46 39 be 61 b3 a2 3d 1b ac 9f 3d
       -0.029912379 -0.18093319 0.0794437 0.077964984
0003b0 de 06 55 bd c5 04 4d 3d 92 01 d3 bd 95 d8 50 3d
       -0.052008502 0.050053377 -0.10303034 0.0509878
0003c0 33 dc a6 bc d8 4a 7f bc d8 c8 88 3d 1e 8f bb 3d
       -0.020368671 -0.015581809 0.06678933 0.09158157
0003d0 d3 31 ba 3d 8a 3e d1 3c 95 31 62 b9 84 94 f4 3d
       0.090915345 0.025542516 -0.0002157151 0.119423896
0003e0 c2 b8 a0 3a de 8f 00 bc 9c 41 59 3e f1 14 38 be
       0.0012262093 -0.007846801 0.21216434 -0.17976739
0003f0 8c ff 85 bd 3a ac 09 bd 23 d3 a4 bd 56 bf 18 3c
       -0.06542882 -0.033611514 -0.08048084 0.009322962

_backbone.transformer_blocks.mha_block_0.pos_wise_ff.ffn.linear_v.weight f4 [128, 32]
000000 57 7a 10 3e 13 e3 6a 3d e6 75 b4 bc 74 ab 82 bd
       0.14109169 0.05734546 -0.022028875 -0.06380358
000010 16 21 8e bb 29 ae 09 3e e1 0c 71 bd 69 4c 4c 3d
       -0.0043374402 0.13445343 -0.058850173 0.049877558
000020 eb 21 17 be 5d d5 96 3d 1b 2d 19 be 26 5b 26 be
       -0.14759032 0.073649146 -0.14958613 -0.16245708
000030 e0 87 54 bd 65 3d 2b bc e7 39 78 bd 28 ea 54 bd
       -0.051887393 -0.010451649 -0.060602095 -0.05198112
000040 31 38 ac bd b2 9b 85 3c 04 1c 03 3d 7a 05 0a 3d
       -0.08409155 0.016309593 0.03200914 0.03369663
000050 23 d9 7b bc f2 8f 12 3e 7d 0f f5 3d ba 65 ad bd
       -0.015371594 0.14312723 0.11965845 -0.084666684
000060 c8 32 2b 3d 01 c4 f5 3d 2f 22 8c 3d e9 c1 c6 bd
       0.041796476 0.120002754 0.068424575 -0.09704954
000070 4f b9 1b be bd 9b be bc 5e 87 02 be b0 57 ae 3d
       -0.15207408 -0.023267621 -0.12746951 0.08512819
000080 1e 89 08 3e 54 10 98 3b 5e d9 08 be 17 a3 d2 bc
       0.13333556 0.0046406183 -0.13364169 -0.025712533
000090 da d7 5d 3c b4 9e d7 bd 7e 23 0d 3e ca 76 14 3e
       0.013540233 -0.10528317 0.1378307 0.1449844
0000a0 65 c0 30 bb 5b 21 c8 bd e3 7a f5 bc 57 1d fe bd
       -0.0026970145 -0.09771987 -0.029965824 -0.1240794
0000b0 84 8b 0f be 36 b9 1e be 35 84 d1 3c cf fb 2f 3e
       -0.14018065 -0.1550034 0.025575737 0.17185901
0000c0 b5 f0 1e 3c e3 25 01 3e 1d 55 12 bd b2 b8 13 3e
       0.009700944 0.12612109 -0.0357257 0.14425924
0000d0 ce d5 3f 3d aa 4b 63 3c c6 e7 ad bd 0f 38 be bd
       0.04683476 0.01387302 -0.08491473 -0.09288036
0000e0 a1 de 96 bd a6 be df 3d a4 61 e4 bd 4f cc 19 3e
       -0.07366682 0.10925035 -0.11151436 0.15019344
0000f0 80 da 25 be 3a 0f 04 be c2 b6 ed bc f5 a7 23 be
       -0.16196632 -0.12896433 -0.02901781 -0.1598204
000100 a4 12 ba bd b6 58 15 be 85 01 1a be c9 b5 7c bd
       -0.09085587 -0.14584622 -0.15039642 -0.0616968
000110 30 8d 0f 3d ae 6c 7b 3d fd c7 e1 bd 8d 63 d9 bd
       0.035046756 0.061382942 -0.11024473 -0.10614691
000120 06 d6 52 3d a9 13 a2 3d 90 7b 15 3e 47 3b dc 3d
       0.05147364 0.07913906 0.14597917 0.10753494
000130 be dd 2b be 0e c2 2f bd fe 82 d8 bc de dd e4 bd
       -0.16783807 -0.042909674 -0.02642965 -0.1117513
000140 e1 0e d5 bc 17 87 29 3e 49 e7 22 be 22 fc 29 bd
       -0.026008071 0.16555439 -0.15908541 -0.04150022
000150 e1 ad 3c bd fe 87 0a 3e ff 40 15 3e 44 70 11 be
       -0.04606426 0.1352844 0.14575575 -0.14202982
000160 f8 32 d3 3b 64 7f 0f 3e 32 a0 70 bd 1c ba bb bd
       0.006445285 0.1401344 -0.058746524 -0.09166357
000170 f2 db e3 3d d5 20 0e be c7 87 ab bd 41 ea e8 3c
       0.111259356 -0.13879712 -0.08375507 0.028432013
000180 33 0c 8b bd f2 4b 40 3e a9 e5 7f bb 6d 4f 9e bd
       -0.06789436 0.18778971 -0.00390468 -0.07729993
000190 96 01 f5 3d a1 11 2e 3d 7a 85 6f bd 0c d5 79 3d
       0.11963193 0.04249728 -0.058476903 0.060994193
0001a0 a9 5e 0e 3e f0 08 57 bd a3 73 e1 3d 1c d4 69 3d
       0.13903297 -0.052498758 0.11008384 0.05708705
0001b0 7b 88 a1 3d 22 03 22 bc 8d c7 42 bd 60 23 71 3d
       0.0788736 -0.009888442 -0.047553588 0.058871627
0001c0 8d f7 a4 bd 3e 09 be 3d 4b b2 00 3e 40 ff b4 bd
       -0.08055029 0.092791066 0.12568013 -0.088377476
0001d0 92 80 c1 3d 73 be 00 bd f8 b0 47 bd c7 1d 29 3e
       0.09448351 -0.031431627 -0.048752755 0.16515265
0001e0 01 dd 24 be bd d6 32 3e b7 4a 39 3d c5 b5 dc 3d
       -0.16099931 0.17464729 0.04523727 0.10776857
0001f0 2c ff b1 bd e0 ad 72 3d 0f 49 38 3d 73 75 c5 3d
       -0.08691248 0.05924785 0.04499155 0.09641542
000200 41 57 90 3d f0 0b 98 be 36 09 0e 3e c5 83 f0 3d
       0.07047892 -0.29696608 0.13870701 0.11743883
000210 17 6e f9 3d 26 38 3f 3d 59 b4 c1 3d 51 d2 14 3e
       0.12179201 0.046684407 0.09458227 0.14533354
000220 c2 10 78 be 34 34 05 bd c2 7f 30 be 53 b5 49 be
       -0.24225143 -0.032520488 -0.17236236 -0.19698076
000230 ea e0 58 bc 60 fc 53 3e 6d f0 2c 3d fb d0 8d 3d
       -0.013237217 0.20701742 0.042221475 0.069246255
000240 9f d1 8f 3c b9 20 db 3d 3a c8 f6 bd 9f 20 8d be
       0.01755601 0.10699601 -0.12049909 -0.2756395
000250 b7 61 02 be 2d be d1 bd 62 7b 79 be 3d 69 05 be
       -0.12732588 -0.10241351 -0.24363473 -0.13028426
000260 2b c9 a5 bd f9 d1 6b 3e 36 f5 40 bd 45 d0 e2 bd
       -0.0809501 0.23029317 -0.04710885 -0.110748805
000270 32 ed 12 3e 17 1f 57 3e 6b 76 29 be c5 19 63 bd
       0.14348295 0.21007954 -0.16549079 -0.055444498
000280 83 e1 f9 bc 29 ae 06 bd 2a 09 ee bc 21 4e fe bd
       -0.03050304 -0.032880936 -0.029057104 -0.12417246
000290 6e b7 0d 3e 6b 9b 8f 3c cb ff 33 3e a8 da c6 bd
       0.13839504 0.017530164 0.17578046 -0.09709674
0002a0 9e 84 55 bc ad f1 70 3c 84 f1 31 3d c1 e5 55 bd
       -0.013032107 0.0147060575 0.043443218 -0.052221064
0002b0 57 29 26 be 9d ff 54 bd 03 8d b1 3c bc a1 3b be
       -0.16226707 -0.052001584 0.021673685 -0.18323416
0002c0 05 b6 a7 bc 01 cc 06 3e 40 a7 cd 3b 77 f3 86 3b
       -0.020472536 0.13163759 0.0062760413 0.0041183787
0002d0 5f eb b2 bd 05 45 1c be 41 17 49 be d8 05 00 bc
       -0.087363 -0.15260704 -0.19637777 -0.007813893
0002e0 c0 44 b1 3d 32 f3 37 3d 9f 75 53 bc 48 d8 39 3d
       0.08655691 0.044909663 -0.012906461 0.045372277
0002f0 4b 8a 2d 3e 9f 54 aa bd 87 d5 bd bd 5c 3d 97 3d
       0.16947286 -0.083169214 -0.09269243 0.0738475
000300 cc 4a d5 3d 65 ed a3 bd a8 fa ab 3c 85 c2 0b 3e
       0.10414657 -0.08004264 0.020993546 0.13648422
000310 6d 73 40 3d 34 24 d8 3d 05 7a 61 3c 35 a0 e7 bd
       0.04698508 0.1055378 0.013762002 -0.11309854
000320 46 85 21 be f7 b8 90 3d 76 83 29 3e d4 b9 54 bc
       -0.15773496 0.07066529 0.16554055 -0.012983758
000330 32 05 ce bd 18 c8 2e be 87 59 5a 3d 0e 8a f4 bd
       -0.10059585 -0.17068517 0.053308036 -0.11940394
000340 55 ef 04 3e 84 bc 1f 3d fb d2 91 3d 61 fa ca bd
       0.12981923 0.038998142 0.071203195 -0.09911037
000350 35 9b a5 3d b0 12 91 3d e3 0f d9 3d c7 d2 87 bc
       0.08086244 0.070836425 0.10598733 -0.016579999
000360 58 bc aa bc 3b 06 1a be 63 a1 cc 3c a5 59 ad 3d
       -0.020841762 -0.15041439 0.024979299 0.08464364
000370 dd 22 0b be bb 3d e7 3c b3 7c af 3d 39 57 d0 3d
       -0.13587518 0.028227678 0.08568706 0.101728864
000380 02 07 1e be 1d ee 33 3d fe 8c 31 be 70 d2 e3 bd
       -0.15432361 0.043928254 -0.1733894 -0.11124122
000390 55 7f 1e be 75 fd 5d 3c ae fe fb bd c2 01 d7 3d
       -0.15478261 0.013549198 -0.12304436 0.10498382
0003a0 fa 4d 9a 3d 20 c0 33 3d c2 4c 9c bc 94 eb 19 3e
       0.07534404 0.043884397 -0.01907957 0.15031272
0003b0 09 f0 0a be 68 a5 d5 bb db 9e 9b 3d c3 5a f2 bd
       -0.13568129 -0.006519962 0.07598659 -0.11833718
0003c0 01 5d ae 3d 5d 55 85 3d 30 42 40 bd 70 fe db bd
       0.08513833 0.065104224 -0.04693812 -0.107418895
0003d0 09 80 b7 3d 16 e4 0c 3d e5 4d 89 bc 6a d4 96 3d
       0.08959968 0.034397207 -0.016760776 0.073647335
0003e0 83 a5 08 3e 40 de f5 bd 79 e1 35 3e 48 09 ed 3c
       0.13344388 -0.120052814 0.17761792 0.02893509
0003f0 4d 45 1b 3e 97 45 74 bd 40 2b 11 3e 83 49 b0 3d
       0.15163155 -0.05963668 0.14176655 0.08607771

_backbone.transformer_blocks.mha_block_0.attn_add_norm.ln.weight f4 [32]
000000 99 47 7f 3f 21 21 80 3f 8f 86 80 3f 3d 1a 7f 3f
       0.99718624 1.001011 1.0041064 0.9964941
000010 49 02 80 3f e8 de 7d 3f 43 02 7f 3f 09 a7 81 3f
       1.0000697 0.9916825 0.99612826 1.01291
000020 7d 4a 7a 3f 60 de 7c 3f ea e7 7f 3f 2d 1b 7c 3f
       0.9776991 0.9877682 0.9996325 0.98478967
000030 d2 2d 80 3f 50 cb 7e 3f 00 0f 80 3f 44 8a 80 3f
       1.0013983 0.9952898 1.0004578 1.0042195
000040 e0 45 7f 3f 24 c9 7f 3f 24 4d 80 3f a9 e0 7f 3f
       0.99715996 0.9991629 1.0023541 0.9995218
000050 ee 48 80 3f 5d 3e 84 3f ad 65 7e 3f 5f ec 80 3f
       1.0022256 1.0331532 0.99373895 1.0072135
000060 69 a0 7e 3f 7b 9e 80 3f f8 a6 7f 3f be 1e 7e 3f
       0.99463516 1.0048364 0.9986415 0.9926566
000070 a6 a5 80 3f ff e1 83 3f 28 67 80 3f ea 90 82 3f
       1.0050552 1.0303344 1.0031481 1.0200474

_backbone.transformer_blocks.mha_block_0.attn_add_norm.ln.bias f4 [32]
000000 14 50 29 bb cc a2 6f 3b ac 25 8d bb 7c 41 ce 3a
       -0.0025835084 0.003656554 -0.0043074694 0.0015736069
000010 bc 66 8d bb ca 37 cf ba af 8d 5e bb e9 c0 46 3d
       -0.0043152254 -0.0015809473 -0.0033958962 0.048523817
000020 96 7b 85 bc f6 2f 4d 3b 56 ea 57 3b 98 f4 94 3c
       -0.016294282 0.0031309105 0.0032946072 0.018183038
000030 28 6e 6a 3b 74 0b dd ba a8 0d c5 3a 82 f1 d5 b8
       0.0035771225 -0.0016864375 0.0015033977 -0.00010201616
000040 0f 9f b9 ba e1 fd 9f bb c9 32 8c 3b 56 04 82 3b
       -0.0014161783 -0.0048825596 0.004278515 0.003967802
000050 f9 54 69 3b c0 51 33 bc 02 f6 8a 3b 3d f7 a4 3b
       0.0035603626 -0.010944784 0.004240752 0.005034356
000060 af 68 3a bb 94 eb d1 bb 2a 40 50 39 b8 a5 eb 3a
       -0.0028443744 -0.006406257 0.00019860329 0.0017978465
000070 0f 7a 9a bb 0e 9f 86 bb 9b 20 b2 3b 93 bc 23 bc
       -0.0047142575 -0.0041083163 0.005436016 -0.00999369

_backbone.transformer_blocks.mha_block_0.ff_add_norm.ln.weight f4 [32]
000000 bd c3 7d 3f a4 b0 7f 3f 09 85 80 3f 0b 37 7f 3f
       0.991268 0.9987891 1.0040599 0.99693364
000010 82 eb 7f 3f 42 c2 7d 3f 1c d1 7e 3f ed 6c 82 3f
       0.9996873 0.9912454 0.99537826 1.0189492
000020 fe 12 7c 3f 90 b2 7c 3f 65 f5 7f 3f d6 89 7e 3f
       0.9846648 0.98709965 0.9998382 0.9942907
000030 78 1a 80 3f e8 91 7e 3f f9 77 80 3f ff b8 80 3f
       1.0008078 0.99441385 1.0036613 1.0056456
000040 82 4a 7f 3f 1a 12 80 3f 1c 60 80 3f 80 f1 7f 3f
       0.99723065 1.0005524 1.002933 0.99977875
000050 9a 95 80 3f 1a aa 84 3f fb 5b 7e 3f 29 fa 80 3f
       1.0045655 1.0364411 0.993591 1.0076343
000060 73 b9 7e 3f cc e1 80 3f 14 7b 7f 3f 78 29 7e 3f
       0.99501723 1.0068908 0.9979718 0.99282026
000070 7d db 80 3f 0b e4 85 3f ab de 7f 3f d0 66 83 3f
       1.0066983 1.0460218 0.9994914 1.0265751

_backbone.transformer_blocks.mha_block_0.ff_add_norm.ln.bias f4 [32]
000000 00 5c c6 ba f0 92 6d 3b 53 de a6 bb c6 88 24 3b
       -0.0015133619 0.0036250912 -0.005092421 0.0025105937
000010 45 bf 9c bb d1 e1 ac ba cd 48 5a bb e9 50 1f 3d
       -0.0047835433 -0.0013189857 -0.0033307553 0.03889552
000020 0c d2 51 bc e9 51 67 3b 17 92 6e 3b cd 35 66 3c
       -0.012806427 0.0035296625 0.0036402994 0.014050913
000030 8e 98 8a 3b fb 5d cb ba 1f b2 0d b9 14 8b 4e bb
       0.0042296117 -0.0015515679 -0.00013513163 -0.0031516002
000040 fc 0e de b9 3c ea 9f ba 02 18 a3 3b a4 d9 42 3b
       -0.00042354304 -0.0012200545 0.004977227 0.0029731775
000050 c9 5e 9c 3b fa 0f 69 bc 38 51 8c 3b df 07 cf 3b
       0.0047720415 -0.0142250005 0.004282143 0.006318077
000060 d9 5a 29 bb 34 3a 19 bc cb 7a 4e ba 0a 18 cd 3a
       -0.0025841503 -0.009352256 -0.0007876574 0.0015647423
000070 a8 00 b8 bb 77 d4 ad b9 5d 4d a4 3b dc d8 4d bc
       -0.0056153126 -0.0003315543 0.0050141052 -0.01256391

_backbone.transformer_blocks.mha_block_1.mha.to_qkv.weight f4 [384, 32]
000000 15 dc 02 3e a2 71 7d 3d d1 32 ad bd 43 a7 81 bd
       0.12779267 0.061875947 -0.08456958 -0.06330731
000010 bf ec 19 3e dd 15 ef bd a4 d7 68 3c 8a 95 c8 3d
       0.15031718 -0.11674092 0.014211569 0.09794147
000020 bc 51 e3 bd 23 5d 9f bd a5 e9 05 3d 87 99 cd bd
       -0.11099574 -0.07781436 0.032693524 -0.10039049
000030 a4 64 e4 3d ff d2 88 bd c0 45 86 bd 20 82 f0 3d
       0.11152008 -0.06680869 -0.065562725 0.117435694
000040 73 71 c3 3d eb 83 39 3d 03 18 27 be aa ca f0 3c
       0.09543123 0.045291822 -0.16317753 0.029393513
000050 8b 4b db 3c 68 e5 3b 3e b0 76 0b be f6 7f c5 bd
       0.02676942 0.1834923 -0.13619494 -0.09643547
000060 5f 51 09 3e 0a a4 d6 bd 68 78 a8 bc b1 38 b6 3d
       0.13409947 -0.10480507 -0.020565227 0.08897532
000070 80 61 2a 3e 00 c2 a2 bd ad ab 4c 3d 08 89 0b be
       0.16638756 -0.07947159 0.04996841 -0.13626492
000080 c4 36 8a bd a3 ee 9d 3d 05 66 1e 3d dd 25 c4 bd
       -0.06748727 0.07711532 0.038671512 -0.09577534
000090 06 b3 b1 3d 3b 39 ea 3d c1 f1 a2 3d 2c 26 2a be
       0.08676724 0.11436697 0.07956267 -0.16616124
0000a0 3e 27 de 3d 54 8a 82 bd 83 ef 99 3d ef f9 19 3c
       0.108473286 -0.0637404 0.07516386 0.009397968
0000b0 8a 15 25 3e 6e b1 4c bd 18 6f 0a 3e 64 7a 2e be
       0.16121498 -0.049973898 0.13518941 -0.17038876
0000c0 a7 5e b8 bc 07 c9 0f be 3c e9 cc bd c1 d4 10 be
       -0.022506071 -0.1404153 -0.100054234 -0.14143659
0000d0 04 0a 11 3e 39 e3 9c 3c ab b8 ea bd d0 86 90 3d
       0.14163977 0.019151317 -0.11461004 0.070569634
0000e0 52 4c 19 be 9d f4 06 3d a1 f4 0f be 55 c3 69 bd
       -0.1497052 0.032948125 -0.14058162 -0.05707105
0000f0 b0 bc a7 3c 68 1d da bd e5 66 a7 3d 65 f0 ab bd
       0.020475715 -0.1065014 0.081739224 -0.08395461
000100 e5 25 e6 3d 2c f7 20 3e ce 91 1b 3e 64 7a 2a 3e
       0.112376966 0.15719289 0.15192339 0.16648251
000110 3e 9c 30 3d 13 69 f6 bd b8 c7 a4 3d 36 6f 6f 3d
       0.043117754 -0.1203176 0.08045906 0.05845567
000120 85 8d 03 3d 24 ab 81 bc a3 fd 90 bc 0a a6 0a bc
       0.032117385 -0.015828677 -0.017699068 -0.008462438
000130 69 1b 1a 3e 62 c6 a0 bd 2f b8 b6 3d 84 7d 75 bd
       0.15049519 -0.078503385 0.08921849 -0.059934154
000140 6b c6 39 3e f9 aa f8 3d e9 62 2a bc 8f b8 63 3c
       0.18142097 0.121419854 -0.010399559 0.013898983
000150 47 e1 ba 3d bd b9 64 bd 4b dd 0e 3e cb 0f 80 bd
       0.091249995 -0.055841196 0.13951604 -0.06253012
000160 8b 5b eb bd 07 1e 2d be 8e ed ba 3d 12 dd 82 bd
       -0.1149207 -0.16905986 0.09127341 -0.06389822
000170 64 e2 86 3c ba 08 16 be b7 18 12 3e 88 42 15 3e
       0.016465373 -0.14651766 0.1426724 0.14576161
000180 28 ad ba 3c d5 63 ee 3d a6 0c b8 bd 66 26 ef bc
       0.022787645 0.11640135 -0.089867875 -0.029193114
000190 f7 0e 9d bd 32 89 ea 3d 8b 31 4a 3c 70 c0 c3 3d
       -0.0766887 0.11451949 0.0123409135 0.09558189
0001a0 d8 ce 05 bd 90 7b cf 3d 2b be 53 bd d0 22 1d be
       -0.032667965 0.101309896 -0.05169503 -0.15345311
0001b0 7d 44 f9 bd 9e 77 06 3e b8 98 c3 bc a1 43 e6 bd
       -0.12171266 0.13131568 -0.023876533 -0.11243368
0001c0 26 3e 99 bb b0 e2 01 3e 5e af 20 3e 17 ec 17 3e
       -0.004676598 0.1268413 0.15691897 0.14836155
0001d0 7b e5 cf 3d 77 69 18 bd b3 ef a2 bc 5c a8 02 be
       0.10151192 -0.037209954 -0.019889688 -0.12759537
0001e0 63 ee 0e 3d ed d7 ed 3d 9f 98 c8 3c 6c 88 46 bd
       0.034895312 0.1161345 0.024486838 -0.048469946
0001f0 0a 56 03 3e 53 85 db bd 52 8f e0 3d bf b2 e1 bd
       0.1282579 -0.10718789 0.10964836 -0.11020421
000200 32 29 39 3e bc 7b 08 3e 1a c4 8f bd a6 f4 20 be
       0.18082121 0.13328451 -0.07019825 -0.15718326
000210 b0 24 04 be a8 4a c7 3d a9 75 83 3d 4a ad d2 3d
       -0.1290462 0.097310364 0.06418926 0.102869585
000220 6d 4a 00 be 32 85 13 bc 91 84 40 3d 8f 63 17 bd
       -0.12528391 -0.009003924 0.047001425 -0.03696018
000230 5d 6d 98 bd 58 b5 73 3d ef 21 2b 3e 9f cb f1 3d
       -0.074427344 0.059499115 0.16712163 0.11806416
000240 83 e5 74 bc 2c 20 37 3e e8 a9 fa 3d be d8 03 bc
       -0.014947298 0.17883366 0.12239438 -0.008047281
000250 ea 2e 23 be 2b 48 e5 bd 12 94 f3 bc ec cc 22 3e
       -0.15935865 -0.111954056 -0.029733691 0.15898484
000260 67 cc 9d bd 4f bb ff bd a4 f7 10 bd 8b be 15 be
       -0.07705002 -0.12486898 -0.03539242 -0.14623468
000270 bd 39 99 3d 84 77 08 be be 99 8a 3b 7b 74 03 3e
       0.07481716 -0.13326842 0.0042297533 0.12837403
000280 34 29 04 bd 90 1c 2f 3d 50 ea e4 bd af d1 61 bc
       -0.032265857 0.04275185 -0.11177504 -0.013782903
000290 b9 7d 2f 3a e3 6f 76 3c 9e b7 35 be e2 ba 29 3e
       0.00066944544 0.015041324 -0.17745826 0.16575196
0002a0 03 e3 a9 bc 46 15 9d bc d5 8f 4b 3e 35 9e 25 3e
       -0.02073813 -0.019175183 0.19879086 0.16173632
0002b0 57 76 08 bd c8 1d 39 be e7 e2 b9 3d 6c 16 d5 bc
       -0.033315983 -0.18077767 0.09076481 -0.026011668
0002c0 59 35 81 3d 54 7e d6 bd 4d 4a c3 3d 36 b1 a8 bc
       0.063090034 -0.10473314 0.09535656 -0.020592313
0002d0 11 bc 78 bc aa 56 91 bd 43 30 08 be 68 a9 34 3c
       -0.015181557 -0.07096608 -0.1329966 0.011026718
0002e0 12 b5 28 3b e3 52 04 3e df 7a 63 bc c6 62 b7 bd
       0.0025742692 0.12922244 -0.013884275 -0.089543864
0002f0 bd b0 b9 bd eb 67 4c bd e4 82 39 bd bd 35 76 bd
       -0.09066913 -0.04990379 -0.045290843 -0.060109843
000300 58 4f f2 3d 6d 6f ae 3d d7 86 1e 3d 74 c9 02 bd
       0.1183154 0.085173465 0.038702812 -0.031930402
000310 56 06 c5 bd 87 dc 29 bd 4d 24 2b bc 9e 4a c0 3b
       -0.09620349 -0.041470077 -0.0104456665 0.00586827
000320 47 44 1c 3e f7 e1 2b be 3b f6 da bd 4d 1c c5 3d
       0.1526042 -0.16785417 -0.10691496 0.096245386
000330 de 33 98 3d 26 7d 01 be 29 cc 89 3d 2a ad d5 bd
       0.07431768 -0.12645397 0.067283936 -0.10433419
000340 3e b2 67 bd ab 57 fc bd 5f a5 a0 bd 7a 84 15 be
       -0.05656647 -0.12321409 -0.07844042 -0.14601317
000350 43 c7 d8 3d 17 e4 7e bd e9 f5 cd 3c 7b 24 b0 3d
       0.10584881 -0.062229242 0.025141673 0.08600708
000360 54 42 0c 3c 39 07 34 3e 36 61 14 3e 7e 06 88 3d
       0.008560736 0.1758088 0.14490208 0.06641863
000370 b6 04 96 3d e7 9b d9 bd b9 b7 eb bd 7e 5c 0d 3e
       0.07325117 -0.10625439 -0.11509652 0.13804814
000380 a6 43 c5 3c 05 19 13 be b5 ee be bc 15 24 b6 bc
       0.024080109 -0.14365013 -0.023307184 -0.022234002
000390 a3 c4 b3 3d bd 35 c9 3d 9b dc 39 3e 2c 18 04 be
       0.0877774 0.09824703 0.1815056 -0.12899846
0003a0 13 5b 99 bd 70 56 01 3e 82 46 01 3e 67 98 57 bc
       -0.07488074 0.1263063 0.12624553 -0.013158894
0003b0 05 6b 81 3d 07 70 07 be a3 9b 30 bd 72 60 1d 3e
       0.063192405 -0.13226329 -0.043117177 0.15368822
0003c0 46 dc d1 3d dc 34 3e 3e 6f 8f ed bc 26 de 3a ba
       0.10247092 0.18574852 -0.028999059 -0.00071284396
0003d0 b5 93 18 3c b2 d7 e1 3d 33 49 f8 bd 2c d7 b7 bd
       0.00931256 0.11027469 -0.12123337 -0.08976588
0003e0 f2 93 05 be 4f a6 cd bd 4e 27 e9 bd a9 07 e9 bd
       -0.13044718 -0.100414865 -0.1138445 -0.11378414
0003f0 b5 03 d6 3d 52 4b 27 3e 0d e6 9f 3d 50 e4 e0 bd
       0.10449926 0.16337326 0.078075506 -0.10981047
