Eunho/pytorch_stacking/saved_models/classification-22_epoch=10-valid_loss=0.49.ckpt (torch, 858814 bytes, 138 tensors)

_backbone.add_cls.weight f4 [32]
0.22192295 0.03904616 -0.16015396 0.081532285 -0.16484293 0.17016816 0.048337724 0.20470934
0.04211172 0.07481708 0.032843575 0.0047792653 0.08160044 0.0718341 -0.045415908 -0.13292615
0.14776386 0.14902432 0.16776265 -0.074245505 0.107857294 -0.110467546 0.02342579 0.26862064
0.072553225 -0.184229 -0.052018885 -0.066348955 -0.112707265 0.20694743 -0.0057685496 -0.19992311
00000000: c53f 633e deee 1f3d 66ff 23be 66fa a63d
00000010: 96cc 28be 9040 2e3e c7fd 453d 539f 513e
00000020: 577d 2c3d b239 993d fc86 063d 629b 9c3b
00000030: 221e a73d c21d 933d 0806 3abd cb1d 08be
00000040: 694f 173e d599 183e f9c9 2b3e 070e 98bd
00000050: 49e4 dc3d cf3c e2bd 71e7 bf3c a588 893e
00000060: c996 943d 87a6 3cbe c111 55bd f6e1 87bd
00000070: 11d3 e6bd 07ea 533e 1a06 bdbb a5b8 4cbe

_backbone.transformer_blocks.mha_block_0.mha.to_qkv.weight f4 [384, 32]
-0.06882469 0.06800164 -0.05543991 0.04097702 -0.0096263215 0.13927516 -0.13100092 -0.1545819
0.021260653 -0.047916193 -0.14766741 0.0006520186 -0.15639244 0.106765054 0.14054184 0.056776013
0.10454013 -0.15277964 0.06945563 0.05183936 0.072318226 0.15106215 -0.23711798 -0.0010053213
-0.084001556 0.10459193 0.089841984 0.0716248 -0.027875794 -0.16382816 0.2080655 -0.060906846
-0.054708995 0.13581342 0.099996224 0.1283113 0.08520549 -0.07292165 -0.11192804 -0.101025194
0.03897034 -0.06644262 0.19403797 -0.12870465 -0.078151196 -0.031211182 0.019480418 -0.05294777
0.057011943 0.010438912 0.04800687 0.04657822 0.1601882 -0.026601553 -0.15503745 0.052330274
-0.03528197 -0.16696987 0.061924446 -0.046369366 -0.045293745 0.10946265 0.064120606 0.012235325
-0.01173368 0.13456418 -0.2042729 0.16450743 -0.101117276 -0.06867266 0.10976999 0.10593728
0.15217558 -0.12814295 -0.094045796 0.08658531 0.23387267 0.15484674 -0.07718983 0.10343126
0.16751054 -0.11946353 0.043637842 -0.15232696 0.03633964 0.0072594266 0.06856957 0.20762807
0.07169938 0.040483996 -0.19038506 0.06729197 0.122917525 0.16723505 0.02862847 -0.14424163
-0.15468076 -0.029155033 0.041553054 0.21249776 -0.11373325 -0.07805325 -0.075347714 -0.15677273
-0.12299183 0.14974172 -0.14838262 0.09454208 -0.07773252 0.12959452 0.02434014 0.108530305
0.16240816 -0.17295304 0.08909011 -0.079018705 0.1324759 0.17159624 0.07165186 0.1603706
0.050145816 -0.102381535 -0.112087555 -0.124805175 -0.034664318 0.12660164 -7.937837e-05 0.0009352203
-0.14941508 0.064355224 -0.015116525 -0.13364133 -0.08454847 -0.095702164 -0.13610499 0.0006891576
-0.10155659 0.07873116 -0.18519643 -0.09707413 -0.09612039 -0.19236784 0.11780038 0.13193415
0.06441112 -0.1590983 -0.17529571 -0.064014874 0.15452546 0.038807493 0.03970222 0.10480488
-0.17840081 0.20757098 -0.13121904 0.08268238 -0.10995862 0.0030895423 -0.09499738 -0.09515525
0.011926782 -0.14886199 0.16357055 -0.08417805 -0.017907476 -0.13184392 -0.10719964 -0.13335508
0.19140327 0.08554012 -0.09732112 -0.06846166 -0.0031331873 0.0064881765 -0.06726552 0.09438717
0.105316564 0.17680211 0.16117151 0.012149089 -0.09866771 0.10568087 0.13560167 0.13438162
-0.028368862 -0.047726825 0.08627026 -0.040709544 0.11302935 0.13636127 -0.07941424 0.06543597
0.06481404 0.025715727 0.16439947 -0.17390028 0.21310644 0.07188632 -0.21206763 0.02448172
0.09509369 -0.07704714 0.046432845 -0.09717208 -0.20952463 -0.12019387 -0.090497375 0.18123466
-0.08066702 -0.11494616 -0.08392263 0.06763275 -0.14940362 -0.027571332 0.1122146 -0.11958553
-0.019461045 0.10748515 -0.054508843 -0.023599572 0.21793056 0.013797515 0.12099562 0.17816734
0.031250697 -0.15720652 -0.1142302 -0.04894333 0.081840664 0.11609914 0.0383202 -0.0007949101
-0.16137646 0.014024937 -0.01322572 0.08979141 -0.00020323045 6.0773937e-06 0.040466968 -0.058944784
0.12569733 0.10369015 -0.039438136 -8.24331e-05 0.13173054 0.18075332 0.037891936 -0.0645954
-0.0050540525 0.14606987 -0.0799206 0.06986938 -0.11061667 -0.19498329 -0.10739442 -0.0009706013
00000000: f6f3 8cbd 7244 8b3d f614 63bd 85d7 273d
00000010: b8b7 1dbc 269e 0e3e 1b25 06be b84a 1ebe
00000020: d22a ae3c c543 44bd 2036 17be 3aec 2a3a
00000030: 5725 20be a3a7 da3d 33ea 0f3e f78d 683d
00000040: 2319 d63d 4472 1cbe c13e 8e3d 8255 543d
00000050: 941b 943d 09b0 1a3e 0ecf 72be fcc4 83ba
00000060: 0209 acbd 4b34 d63d 13ff b73d 06b0 923d
00000070: c75b e4bc 92c2 27be 1f0f 553e 7579 79bd
00000080: 8a16 60bd ac12 0b3e d2ca cc3d 0a64 033e
00000090: 3780 ae3d f257 95bd 873a e5bd 4ce6 cebd
000000a0: 5d9f 1f3d 1113 88bd e4b1 463e 27cb 03be
000000b0: bc0d a0bd 98ae ffbc 6695 9f3c c3df 58bd
000000c0: 5b85 693d f807 2b3c daa2 443d cec8 3e3d
000000d0: 6008 243e 80eb d9bc 23c2 1ebe 4558 563d
000000e0: d483 10bd 26fa 2abe 7da4 7d3d ceed 3dbd
000000f0: ef85 39bd f42d e03d aa51 833d ac76 483c
00000100: 9f3e 40bc 31cb 093e ea2c 51be a374 283e
00000110: 9316 cfbd 40a4 8cbd 17cf e03d a5f5 d83d
00000120: ead3 1b3e e837 03be 159b c0bd a453 b13d
00000130: 517c 6f3e 2590 1e3e b415 9ebd c5d3 d33d
00000140: e287 2b3e 4ca9 f4bd 98bd 323d 99fb 1bbe
00000150: e0d8 143d 7ce0 ed3b 346e 8c3d 749c 543e
00000160: 20d7 923d 8cd2 253d 4df4 42be 5fd0 893d
00000170: 2fbc fb3d aa3f 2b3e 4186 ea3c 14b4 13be
00000180: a264 1ebe 89d6 eebc 8933 2a3d 0399 593e
00000190: faec e8bd 62da 9fbd e74f 9abd 0889 20be
000001a0: 24e3 fbbd e555 193e 9df1 17be 479f c13d
000001b0: 3a32 9fbd 6db4 043e f964 c73c 2345 de3d
000001c0: 534e 263e 9a1a 31be e074 b63d 8fd4 a1bd
000001d0: c3a7 073e edb6 2f3e 36be 923d 3138 243e
000001e0: b365 4d3d 69ad d1bd 298e e5bd db99 ffbd
000001f0: 2cfc 0dbd dca3 013e f077 a6b8 9229 753a
00000200: 4400 19be accc 833d 4dab 77bc 46d9 08be
00000210: c027 adbd 7fff c3bd 1b5f 0bbe 95a8 343a
00000220: e7fc cfbd cd3d a13d 22a4 3dbe cdce c6bd
00000230: c4da c4bd 13fc 44be 5341 f13d bf19 073e
00000240: fae9 833d aaea 22be b880 33be 3b1a 83bd
00000250: ec3b 1e3e 9bf4 1e3d cc9e 223d f1a3 d63d
00000260: b4ae 36be 7d8d 543e 495e 06be 6155 a93d
00000270: fc31 e1bd eb79 4a3b fd8d c2bd c1e0 c2bd
00000280: 8d68 433c 476f 18be 0a7f 273e 8b65 acbd
00000290: b3b2 92bc 1802 07be 7c8b dbbd 3c8e 08be
000002a0: 38ff 433e a92f af3d 4c50 c7bd a035 8cbd
000002b0: 2956 4dbb c59a d43b 81c2 89bd 104e c13d
000002c0: 36b0 d73d 9d0b 353e 250a 253e f90c 473c
000002d0: 4c12 cabd 366f d83d 2adb 0a3e 569b 093e
000002e0: d165 e8bc 347d 43bd 76ae b03d 0dbf 26bd
000002f0: ef7b e73d 4aa2 0b3e efa3 a2bd 4b03 863d
00000300: 39bd 843d caa9 d23c 5658 283e ea12 32be
00000310: 9338 5a3e 2339 933d 4228 59be e38d c83c
00000320: 7bc0 c23d e4ca 9dbd 5e30 3e3d 2802 c7bd
00000330: a08d 56be 3428 f6bd b056 b9bd 9495 393e
00000340: c034 a5bd e468 ebbd a1df abbd 0a83 8a3d
00000350: 43fd 18be 46dd e1bc c5d0 e53d 42e9 f4bd
00000360: c56c 9fbc 2d21 dc3d aa44 5fbd e453 c1bc
00000370: 3029 5f3e f90e 623c 8dcc f73d 8071 363e
00000380: bb00 003d bffa 20be 86f1 e9bd cd78 48bd
00000390: 149c a73d 63c5 ed3d a4f5 1c3d 8461 50ba
000003a0: df3f 25be d9c8 653c b1b0 58bc 8fe4 b73d
000003b0: 421a 55b9 6aec cb36 b1c0 253d 1670 71bd
000003c0: cdb6 003e 805b d43d e289 21bd efdf acb8
000003d0: 5fe4 063e 6617 393e 9334 1b3d 984a 84bd
000003e0: 779c a5bb 5793 153e 69ad a3bd ad17 8f3d
000003f0: fe8a e2bd b3a9 47be 9bf1 dbbd f36f 7eba

_backbone.transformer_blocks.mha_block_0.mha.to_out.weight f4 [32, 128]
-0.037631378 -0.011965479 -0.029164514 0.012283213 -0.021833094 0.0028074728 -0.0299694 0.0076949103
0.06312669 0.10098307 -0.08878046 0.011026098 0.037710987 0.038172137 -0.056848988 -0.10578632
0.002887132 0.11599569 -0.1028921 -0.027823383 0.07698408 -0.118257254 0.047307014 0.026514938
-0.100951426 0.07090983 -0.12686701 0.06782091 0.116077885 -0.032463912 0.06320768 -0.09781848
-0.068635724 0.04532653 -0.07246527 -0.028754976 -0.024380093 -0.03587076 -0.0069021014 -0.009592087
0.0013666855 -0.090807565 -0.022923788 0.0026902147 0.11361915 -0.0327298 0.028153952 -0.06117531
0.051668435 -0.028386123 0.12671912 0.08546561 -0.02258907 0.04085129 0.046672814 0.015090398
-0.01608671 0.059851676 -0.0014835121 0.0022583965 0.08176165 -0.0650206 -0.076760866 -0.12717888
-0.043395158 -0.058471635 0.041728634 0.048426006 -0.07154911 0.053352844 0.05650372 0.012382577
-0.010054153 0.03813715 -0.010086259 0.007403756 0.029981611 -0.04410458 0.109680794 0.054937858
-0.08791096 -0.06951206 0.090838045 0.04822575 -0.08794526 -0.040319208 -0.121249825 -0.04007864
0.055558305 0.015583095 -0.08703045 0.03740004 -0.06526084 0.028980171 0.015334948 0.013421291
-0.12799262 -0.031095989 -0.012276654 -0.014770658 0.008615676 -0.0472458 0.038994532 -0.024776304
0.05008808 -0.074629895 0.023771077 -0.025723698 -0.08177129 0.08001435 -0.06375216 -0.018787999
-0.048170518 0.052239586 0.007719734 -0.02191363 -0.111572705 -0.11082083 -0.072247036 -0.08013882
-0.020506952 -0.020037688 -0.00410315 0.050960448 -0.06926601 -0.013368709 -0.079766504 -0.04683634
-0.05739674 0.05930677 -0.06389361 0.07198385 -0.038812745 -0.054033656 -0.08928441 -0.06471274
-0.07265728 0.02493632 0.09139427 -0.00096273364 -0.025995588 0.019504922 0.016368078 0.05744362
-0.025012909 0.015779905 0.027220948 -0.062008813 -0.007967335 0.003326175 0.0074437745 0.08658903
-0.008772737 0.045866687 -0.0055281008 -0.035805847 0.03706577 -0.03970042 -0.008618006 0.026136696
0.08473592 0.073378116 0.07845284 0.043300606 0.08676403 -0.04770705 0.07246738 -0.090060465
-0.058373023 0.023090543 0.11928749 0.06187761 -0.09571603 0.07074372 0.09425418 0.021746092
0.020091584 0.019597853 -0.008756996 0.0008695271 0.07621229 0.009083775 -0.053901482 -0.024240172
0.06437737 -0.08990007 0.091584235 0.030960105 -0.065068975 -0.02961602 -0.041853193 0.009984719
-0.044409364 -0.033782307 0.0034404683 -0.070836104 0.04459403 0.016967595 0.052663002 0.061759185
0.028358886 0.055326514 0.008537987 0.047985222 0.03475686 -0.012072131 0.025530206 -0.084834285
-0.010068831 -0.07596494 -0.06662141 -0.08299927 0.033415683 -0.090318464 0.08155765 0.07769508
0.05982692 -0.062190834 -0.04634623 -0.040284656 0.036930975 0.047279436 -0.0010220982 -0.07262541
-0.05968628 -0.05764407 0.030554175 -0.067388356 -0.03276289 0.03888812 -0.018246043 0.068140775
-0.025448253 -0.03879985 -0.04141297 -0.016069964 0.05530288 0.092085354 0.12725021 -0.05328629
0.04857863 -0.09001162 -0.10851992 -0.007630397 0.01929267 -0.01713435 0.009015048 -0.03480133
0.045384906 -0.03566325 -0.013787679 0.029311623 -0.066982254 0.02152297 -0.03689703 -0.0015743015
00000000: 5c23 1abd db0a 44bc 6bea eebc 883f 493c
00000010: 51db b2bc 94fd 373b 6382 f5bc 9625 fc3b
00000020: 9148 813d 36d0 ce3d 88d2 b5bd cfa6 343c
00000030: d676 1a3d 635a 1c3d 7cda 68bd 80a6 d8bd
00000040: 0a36 3d3b 268f ed3d 18b9 d2bd dded e3bc
00000050: d4a9 9d3d dc30 f2bd 00c5 413d db35 d93c
00000060: 9fbf cebd 2c39 913d 6de9 01be b0e5 8a3d
00000070: 3eba ed3d e1f8 04bd 0773 813d 0e55 c8bd
00000080: e390 8cbd 50a8 393d ac68 94bd 8e8f ebbc
00000090: c3b8 c7bc 38ed 12bd 062b e2bb 2128 1dbc
000000a0: 5b22 b33a 51f9 b9bd abca bbbc 504e 303b
000000b0: 28b1 e83d af0f 06bd 1ea3 e63c f692 7abd
000000c0: 48a2 533d 048a e8bc a8c2 013e 9808 af3d
000000d0: b70c b9bc af53 273d fe2b 3f3d b73d 773c
000000e0: 47c8 83bc 0827 753d 6872 c2ba 9b01 143b
000000f0: a772 a73d 8529 85bd cd34 9dbd 2e3b 02be
00000100: 1fbf 31bd f47f 6fbd a5eb 2a3d 595a 463d
00000110: 5788 92bd 8388 5a3d 7270 673d 4be0 4a3c
00000120: 2dba 24bc b335 1c3d d640 25bc 359b f23b
00000130: ff9b f53c 01a7 34bd 53a0 e03d 8506 613d
00000140: a90a b4bd 575c 8ebd 4c09 ba3d 5d88 453d
00000150: a51c b4bd c125 25bd d451 f8bd 8029 24bd
00000160: 1b91 633d 3d50 7f3c 053d b2bd c930 193d
00000170: 7aa7 85bd d367 ed3c 6f3f 7b3c f9e4 5b3c
00000180: 7f10 03be 04bd febc 0524 49bc a100 72bc
00000190: c428 0d3c d084 41bd bbb8 1f3d adf7 cabc
000001a0: 2929 4d3d 8fd7 98bd 90bb c23c 81ba d2bc
000001b0: b577 a7bd 90de a33d 7e90 82bd 4ae9 99bc
000001c0: 734e 45bd 2df9 553d d3f5 fc3b 3784 b3bc
000001d0: 3b80 e4bd 08f6 e2bd 41f6 93bd d21f a4bd
000001e0: 32fe a7bc 1426 a4bc b873 86bb e7bb 503d
000001f0: 56db 8dbd 6e08 5bbc 9f5c a3bd 76d7 3fbd
00000200: d818 6bbd a8eb 723d a7da 82bd 456c 933d
00000210: 1dfa 1ebd 6552 5dbd bfda b6bd 1d88 84bd
00000220: 57cd 94bd 4147 cc3c eb2c bb3d f65f 7cba
00000230: b3f4 d4bc c9c8 9f3c 5916 863c 004a 6b3d
00000240: dfe7 ccbc dc44 813c 77fe de3c f4fc 7dbd
00000250: 6d89 02bc f5fb 593b e8ea f33b 9755 b13d
00000260: 87bb 0fbc b5de 3b3d 1225 b5bb 27a9 12bd
00000270: 47d2 173d e89c 22bd 8932 0dbc a01c d63c
00000280: 078a ad3d 4447 963d e2ab a03d fa5b 313d
00000290: 57b1 b13d 7868 43bd c769 943d 9f71 b8bd
000002a0: 8d18 6fbd 6128 bd3c 004d f43d 6073 7d3d
000002b0: c406 c4bd 15e2 903d 5608 c13d dc24 b23c
000002c0: 1b97 a43c ad8b a03c 8179 0fbc faf0 633a
000002d0: 3015 9c3d 1dd4 143c cdc7 5cbd 5393 c6bc
000002e0: 48d8 833d 871d b8bd 8490 bb3d 0ca0 fd3c
000002f0: e242 85bd 4c9d f2bc 416e 2bbd f296 233c
00000300: 98e6 35bd 515f 0abd 7b79 613b 8512 91bd
00000310: 3ba8 363d a0ff 8a3c 29b5 573d 33f7 7c3d
00000320: e550 e83c 0e9e 623d eae2 0b3c 278c 443d
00000330: 365d 0e3d 30ca 45bc b924 d13c 99bd adbd
00000340: bdf7 24bc 8293 9bbd ce70 88bd 85fb a9bd
00000350: e2de 083d e3f8 b8bd b207 a73d 991e 9f3d
00000360: 130d 753d d1bb 7ebd 8bd5 3dbd 8601 25bd
00000370: ef44 173d 15a8 413d edf7 85ba a2bc 94bd
00000380: 9a79 74bd 301c 6cbd c04c fa3c e802 8abd
00000390: 6132 06bd 2649 1f3d ba78 95bc 648d 8b3d
000003a0: db78 d0bc 97ec 1ebd a5a0 29bd 28a5 83bc
000003b0: 4685 623d 3f97 bc3d e14d 023e ba42 5abd
000003c0: 63fa 463d 0358 b8bd b13f debd 6908 fabb
000003d0: a90b 9e3c 565d 8cbc dab3 133c d78b 0ebd
000003e0: 86e5 393d a113 12bd b8e5 61bc ee1e f03c
000003f0: fe2d 89bd f150 b03c 5721 17bd cb58 ceba

_backbone.transformer_blocks.mha_block_0.mha.to_out.bias f4 [32]
-0.009369188 -0.010609943 -0.015903784 0.044611633 -0.004591731 -0.016194634 -0.0027960984 0.0765604
-0.00453786 -0.0006218008 0.060231846 0.069256276 -0.006132301 -0.017933052 0.016932284 -0.029363832
0.053422615 -0.0434769 0.041741032 0.0543258 0.025623906 -0.019427236 -0.016044477 0.08982639
-0.024075389 0.024517227 0.047060307 -0.0109712025 0.008121215 0.08030721 -0.07323659 -0.09691211
00000000: 3981 19bc 54d5 2dbc a748 82bc b0ba 363d
00000010: 3b76 96bb 9caa 84bc bf3e 37bb b3cb 9c3d
00000020: 54b2 94bb 5800 23ba abb5 763d 3cd6 8d3d
00000030: 78f1 c8bb 56e8 92bc 93b5 8a3c 6b8c f0bc
00000040: acd1 5a3d d514 32bd a5f8 2a3d bb84 5e3d
00000050: 3ae9 d13c de25 9fbc b56f 83bc e6f6 b73d
00000060: c039 c5bc 5ad8 c83c 4fc2 403d 8fc0 33bc
00000070: d80e 053c 1b78 a43d 11fd 95bd db79 c6bd

_backbone.transformer_blocks.mha_block_0.pos_wise_ff.ffn.layer1.weight f4 [128, 32]
-0.035330992 -0.12290896 -0.030179389 -0.01063616 0.112464115 -0.22296458 0.13502817 -0.17781067
-0.020915352 -0.12334259 0.04510152 -0.10945715 -0.05982286 -0.17241845 -0.020945497 0.11538038
-0.18776007 -0.16079801 -0.11230158 -0.041099403 0.05815506 -0.13458556 0.012835437 -0.15975049
-0.14987178 -0.013025638 -0.09150118 0.05757873 -0.13853118 -0.19981316 -0.18559892 0.10274532
-0.060378015 -0.053757586 0.1284792 -0.023217151 0.059506018 0.17773667 -0.076730914 -0.04999185
-0.0047294367 0.11812035 0.050207816 -0.0155457575 -0.024420995 0.119820096 -0.15033518 -0.07727049
0.06294613 -0.048541468 0.030489273 -0.06326183 0.1428025 -0.18761675 -0.04872181 -0.16396026
0.1159805 -0.052918144 0.09882462 0.056280125 -0.11231574 0.11064548 0.016576022 0.025117023
0.102620885 -0.1525455 -0.16066465 -0.06723153 0.06481824 -0.06728284 0.033591367 0.018410908
-0.14836016 -0.05934613 -0.07695997 -0.018205399 -0.07306065 0.012163364 -0.19707943 0.0027887882
0.16097176 0.053991046 -0.015347811 -0.16884671 -0.07055854 -0.049248546 -0.062061284 -0.09989226
-0.04202379 0.14746566 -0.01943669 -0.061898924 -0.016123686 0.11973131 0.14029554 0.04533235
0.07256971 -0.09408919 -0.08693363 -0.115964875 0.046691615 -0.09897872 -0.027066821 0.0321795
0.08791346 -0.055978388 -0.022894839 -0.03279809 0.11609199 0.0005721115 0.11147799 -0.09807537
0.006499536 -0.006348954 -0.1711214 -0.18617277 -0.011293327 -0.0917843 0.09290306 0.030723017
-0.06770225 -0.10795062 -0.12938026 0.121238396 0.036152884 -0.011072216 -0.008814571 -0.118261494
-0.16231212 -0.027972033 -0.15400083 -0.09910964 -0.047736906 0.10961091 -0.044624202 -0.15007281
-0.004874679 -0.09266749 0.0101969605 -0.08094487 -0.07988857 -0.036119558 0.18311429 0.04635235
0.10325877 -0.057293266 0.22075528 0.016385866 0.14494002 0.12197272 -0.005309703 0.053875282
0.11165207 -0.13607904 0.20659542 -0.11650412 -0.050345592 0.107929364 -0.14895682 0.06862875
0.016339382 0.049309157 -0.18373415 0.1332818 0.023896286 0.094302736 0.14626415 0.075482294
-0.013284041 -0.007792831 0.19843097 0.115023725 -0.15509869 0.13702105 -0.10913894 0.13991687
0.053911123 0.09756633 0.12226726 0.09536635 0.11871917 0.03607184 0.018049886 -0.11481661
0.11569824 -0.16352639 -0.059810165 0.12341927 -0.13659129 -0.0115654515 0.06559609 -0.0320607
-0.106097415 4.1799203e-06 0.022620926 0.08793187 -0.011166346 -0.059602868 0.11658359 0.021444216
0.056309886 0.17754783 0.007577514 -0.0068181516 -0.031339638 -0.061725438 0.034171816 0.16545959
-0.083737 0.011789615 0.09159628 0.113841206 0.009894423 0.15328483 -0.093803816 0.03294385
-0.00039227435 0.13033657 -0.0062693027 -0.12896456 -0.049709976 -0.15538862 -0.10809119 0.14898646
-0.113512814 0.14655356 -0.20415121 0.2400907 -0.037653595 0.07187214 -0.12952456 0.13291447
-0.21351992 0.031193735 0.0023838042 0.028591005 0.10142049 -0.075365596 -0.09026351 -0.026645582
0.16999798 0.04770366 0.087051384 -0.04693348 -0.06723523 0.1685557 -0.020817922 0.20533939
-0.07474177 -0.03258315 -0.10970799 -0.15781154 0.050876535 -0.10455482 0.023506925 0.15276131
00000000: 3bb7 10bd b1b7 fbbd c43a f7bc 4a43 2ebc
00000010: 9653 e63d d450 64be d344 0a3e 0014 36be
00000020: ac56 abbc 0a9b fcbd 5fbc 383d 122b e0bd
00000030: d108 75bd 768e 30be e495 abbc 8c4c ec3d
00000040: 2d44 40be 3ca8 24be 5ffe e5bd d957 28bd
00000050: 0034 6e3d ccd0 09be ba4b 523c a295 23be
00000060: fd77 19be 7c69 55bc f864 bbbd add7 6b3d
00000070: 1edb 0dbe d29b 4cbe a50d 3ebe 236c d23d
00000080: f04e 77bd ea30 5cbd 0d90 033e e531 bebc
00000090: 95bc 733d 9a00 363e 1925 9dbd 41c4 4cbd
000000a0: 64f9 9abb 15e9 f13d b6a6 4d3d a2b3 7ebc
000000b0: 8a0e c8bc 3d64 f53d 77f1 19be fe3f 9ebd
000000c0: e7e9 803d 6bd3 46bd a4c4 f93c 6b8f 81bd
000000d0: d23a 123e 9b1e 40be 8590 47bd 33e5 27be
000000e0: 2f87 ed3d b2c0 58bd 9064 ca3d fd85 663d
000000f0: cb05 e6bd 199a e23d 70ca 873c 37c2 cd3c
00000100: e62a d23d e334 1cbe 4685 24be afb0 89bd
00000110: 6dbf 843d 96cb 89bd 1a97 093d 79d2 963c
00000120: baeb 17be ed14 73bd 309d 9dbd 7d23 95bc
00000130: d2a0 95bd d948 473c 31cf 49be 1ac4 363b
00000140: c8d5 243e b725 5d3d 6375 7bbc 27e6 2cbe
00000150: ff80 90bd d8b8 49bd f933 7ebd 5094 ccbd
00000160: 2321 2cbd 3d01 173e b139 9fbc ba89 7dbd
00000170: d215 84bc b035 f53d a2a9 0f3e 6aae 393d
00000180: 6e9f 943d d5b1 c0bd 420a b2bd fe7e edbd
00000190: b53f 3f3d 5bb5 cabd 3dbb ddbc a7ce 033d
000001a0: f90b b43d 9849 65bd f58d bbbc 4a57 06bd
000001b0: a3c1 ed3d c1f9 153a 934e e43d bddb c8bd
000001c0: 0ffa d43b e30a d0bb 733a 2fbe 13a4 3ebe
000001d0: a607 39bc 68f9 bbbd f643 be3d d6ae fb3c
000001e0: 7aa7 8abd 3715 ddbd 427c 04be d64b f83d
000001f0: 0c15 143d 3d68 35bc fe6a 10bc 1533 f2bd
00000200: 2635 26be 9b25 e5bc 65b2 1dbe fff9 cabd
00000210: c687 43bd af7b e03d dec7 36bd b0ac 19be
00000220: c5bb 9fbb 74c8 bdbd 2711 273c 6dc6 a5bd
00000230: 9e9c a3bd 1af2 13bd 5082 3b3e f6db 3d3d
00000240: 5679 d33d 58ac 6abd ac0d 623e a73b 863c
00000250: 286b 143e d5cc f93d 04fd adbb 54ac 5c3d
00000260: d7a9 e43d 4e58 0bbe c08d 533e b699 eebd
00000270: 2e37 4ebd 120a dd3d 2388 18be 3b8d 8c3d
00000280: 2bda 853c 66f8 493d ce24 3cbe 067b 083e
00000290: 25c2 c33c cb21 c13d 45c6 153e 7696 9a3d
000002a0: 4ea5 59bc 015b ffbb 7d31 4b3e 8f91 eb3d
000002b0: 31d2 1ebe 3f4f 0c3e 3d84 dfbd 5e46 0f3e
000002c0: e9d1 5c3d dbd0 c73d 4267 fa3d 6f4f c33d
000002d0: 0923 f33d 11c0 133d 5bdd 933c f924 ebbd
000002e0: 33f3 ec3d 7673 27be 81fb 74bd 3ec3 fc3d
000002f0: 96de 0bbe 057d 3dbc 3e57 863d 1552 03bd
00000300: 9a49 d9bd 3e41 8c36 854f b93c a015 b43d
00000310: 0df3 36bc 2322 74bd 61c3 ee3d c8ab af3c
00000320: 32a5 663d 19cf 353e cb4c f83b cd6a dfbb
00000330: fe5d 00bd d0d3 7cbd bff7 0b3d 3d6e 293e
00000340: 4e7e abbd 3b29 413c d596 bb3d 9425 e93d
00000350: 381c 223c b3f6 1c3e 371c c0bd 21f0 063d
00000360: 2caa cdb9 f376 053e b96e cdbb 490f 04be
00000370: b09c 4bbd 321e 1fbe ea5e ddbd e88f 183e
00000380: 6879 e8bd 2312 163e 040d 51be 56da 753e
00000390: a83a 1abd b331 933d 16a2 04be bb1a 083e
000003a0: f7a4 5abe 018a ff3c 9939 1c3b af37 ea3c
000003b0: 8cb5 cf3d 4759 9abd 13dc b8bd d647 dabc
000003c0: f313 2e3e ea64 433d ff47 b23d 523d 40bd
000003d0: a0b2 89bd de99 2c3e 598a aabc 7d44 523e
000003e0: 3712 99bd e975 05bd 95ae e0bd 5999 21be
000003f0: ea63 503d d620 d6bd 9891 c03c 766d 1c3e

_backbone.transformer_blocks.mha_block_0.pos_wise_ff.ffn.layer2.weight f4 [32, 128]
-0.010376476 0.025679136 -0.08394998 0.0788842 -0.07715416 -0.0083135925 -0.035415623 0.027800238
0.0056786374 0.041498784 0.0016107897 -0.10808106 -0.09820709 0.013083183 -0.00081459596 0.07419053
-0.058645017 0.03787499 0.036808442 -0.03457144 0.12570775 0.032325525 -0.055610046 0.10514589
-0.12083818 -0.05954424 0.059098978 -0.053162366 -0.057894047 -0.06907488 0.051441338 0.026560191
-0.0054015433 -0.021207076 -0.08430773 -0.056359395 -0.0987761 0.08673031 0.1251003 -0.05901291
0.017548455 -0.073535666 0.08815697 -0.0011012706 -0.013799432 -0.005105554 -0.013516071 0.02642523
0.10498663 0.10563798 0.0124087995 0.009686848 -0.08428348 0.036867812 0.057331372 0.04649906
0.07620163 -0.082122 -0.0014537991 -0.02044289 -0.06482694 -0.07097434 0.08012424 0.1080388
-0.067388654 0.11218451 -0.05982777 0.036053177 0.0726625 -0.06362696 0.025151312 0.057538494
0.08441284 -0.085924916 -0.0935167 -0.123750806 -0.004131415 0.03737782 0.0032743807 -0.08070919
-0.04116245 -0.096601896 0.11833321 0.09798795 0.03343496 -0.04966008 -0.07939523 0.009172357
0.116862215 -0.023414137 0.04264435 0.008785091 0.03934313 0.08510628 -0.10351661 -0.03323916
-0.04953916 -0.09934494 -0.034098055 -0.099574074 0.011553366 -0.0771301 -0.06759657 0.024169827
-0.03619254 -0.09554305 -0.053184442 0.08044786 -0.0908103 0.03163561 -0.09259146 -0.016786546
0.041245244 -0.020149564 0.020957876 0.055149153 0.082670815 0.016302362 -0.060314003 -0.12813884
-0.00043248516 -0.027906433 0.07815707 0.027715294 -0.08838121 -0.005393833 0.06719138 -0.030882569
-0.04235386 -0.04594539 -0.033379797 -0.022493904 -0.10338266 0.00030910224 0.07624926 -0.011285054
-0.089869656 0.12020187 0.037087604 0.04749251 -0.03871109 0.031225532 -0.041903626 0.04603321
0.04028478 -0.09212321 -0.048808347 -0.03329701 -0.06269113 -0.0031391238 0.04565365 0.011139215
0.010595744 0.038215064 -0.060928658 -0.024243841 0.06907589 -0.07135756 -0.051908743 -0.03174087
-0.023298485 -0.1004749 0.048491072 0.028102003 -0.022203274 -0.1264058 -0.09244253 0.021050584
0.08111347 0.02860331 0.064390056 -0.041389193 0.09218166 0.009602634 0.046969548 -0.054623738
0.03156184 -0.03916142 -0.024991272 -0.057016615 0.040001012 -0.052068025 0.06266127 0.039456107
0.028424885 -0.037367348 -0.021522647 -0.001214898 0.10511695 0.09050507 0.06059306 -0.030168941
0.044451572 -0.042576928 -0.050645806 0.038484517 -0.008805659 -0.07918922 0.013382067 -0.019564671
-0.015766628 -0.063837424 0.0031046993 0.03996216 -0.099581316 0.10162185 -0.059584577 -0.027670005
0.036545005 -0.022924004 -0.08141137 -0.01057777 0.10211334 -0.020890256 0.06161192 0.10777501
-0.039129987 0.002637814 -0.031952184 -0.035466343 0.05301345 -0.019717949 0.036411274 -0.071024925
0.007923625 -0.008114204 -0.016696876 0.05510184 0.07629697 -0.03982653 -0.0055495705 0.049279116
0.020182619 0.03572095 -0.04311102 -0.05856878 -0.075830214 -0.10193648 0.007922033 0.14680259
0.07877497 -0.020857459 -0.06869073 0.0180623 -0.0021879838 0.08504708 -0.058297977 0.026159098
-0.05633886 0.02585939 0.06706246 0.00078206736 0.055169832 -0.007127941 0.005315533 0.11069615
00000000: 1802 2abc 0d5d d23c f8ed abbd 0a8e a13d
00000010: 0003 9ebd bc35 08bc f90f 11bd 53bd e33c
00000020: dd13 ba3b a1fa 293d 2221 d33a 9a59 ddbd
00000030: cc20 c9bd d95a 563c 9c8a 55ba 34f1 973d
00000040: c235 70bd ce22 1b3d 73c4 163d c89a 0dbd
00000050: 88b9 003e c567 043d 5cc7 63bd ba56 d73d
00000060: 027a f7bd a9e4 73bd c511 723d c8c0 59bd
00000070: 4f22 6dbd 2177 8dbd 27b4 523d c294 d93c
00000080: 6eff b0bb 76ba adbc 88a9 acbd 1cd9 66bd
00000090: 204b cabd a99f b13d 4b1a 003e 85b7 71bd
000000a0: c7c1 8f3c de99 96bd a48b b43d 8258 90ba
000000b0: 0317 62bc 7e4c a7bb 8372 5dbc b979 d83c
000000c0: 3b03 d73d ba58 d83d 474e 4b3c 96b5 1e3c
000000d0: d19c acbd b402 173d 4dd4 6a3d cc75 3e3d
000000e0: 9a0f 9c3d 942f a8bd 678d beba d977 a7bc
000000f0: fdc3 84bd ff5a 91bd 2d18 a43d 7243 dd3d
00000100: 1003 8abd fec0 e53d f70d 75bd 7fac 133d
00000110: 14d0 943d da4e 82bd 200a ce3c 7cad 6b3d
00000120: a4e0 ac3d 67f9 afbd af85 bfbd 1071 fdbd
00000130: d260 87bb 7c19 193d fe96 563b dc4a a5bd
00000140: f599 28bd 37d7 c5bd af58 f23d e8ad c83d
00000150: 19f3 083d 5e68 4bbd f799 a2bd a747 163c
00000160: 7555 ef3d 01cf bfbc d8ab 2e3d 58ef 0f3c
00000170: 4326 213d 344c ae3d 8400 d4bd c925 08bd
00000180: 93e9 4abd 5c75 cbbd 67aa 0bbd 7eed cbbd
00000190: 544a 3d3c 63f6 9dbd 1270 8abd cdff c53c
000001a0: a13e 14bd 13ac c3bd eed7 59bd d9c1 a43d
000001b0: c0fa b9bd 5794 013d 97a0 bdbd f083 89bc
000001c0: c6f0 283d b310 a5bc daaf ab3c 14e4 613d
000001d0: 514f a93d 888c 853c d10b 77bd d436 03be
000001e0: 2dbf e2b9 089c e4bc d010 a03d 2f0b e33c
000001f0: 3501 b5bd c0be b0bb a29b 893d 71fd fcbc
00000200: 3e7b 2dbd 3c31 3cbd 41b9 08bd 2345 b8bc
00000210: 4aba d3bd 000f a239 9228 9c3d f2e4 38bc
00000220: 950d b8bd 662c f63d 2ce9 173d 8287 423d
00000230: 858f 1ebd b0cc ff3c 23a3 2bbd 528d 3c3d
00000240: a701 253d 18ab bcbd 43eb 47bd 7262 08bd
00000250: 3564 80bd c2b9 4dbb 52ff 3a3d 4181 363c
00000260: c599 2d3c 6687 1c3d 5490 79bd 059b c6bc
00000270: a977 8d3d ea23 92bd 439e 54bd b702 02bd
00000280: 77dc bebc c9c5 cdbd 939e 463d 2c36 e63c
00000290: a4e3 b5bc 8670 01be 8252 bdbd 4672 ac3c
000002a0: d21e a63d 7d51 ea3c efde 833d b787 29bd
000002b0: bdc9 bc3d 5e54 1d3c 2463 403d 24bd 5fbd
000002c0: fd46 013d ba67 20bd 7fba ccbc 418a 69bd
000002d0: 1ad8 233d 4845 55bd 8d54 803d ba9c 213d
000002e0: 4edb e83c 810e 19bd 4350 b0bc 363d 9fba
000002f0: 8e47 d73d b95a b93d 6e30 783d db24 f7bc
00000300: da12 363d 2565 2ebd fa71 4fbd f1a1 1d3d
00000310: 9c45 10bc f52d a2bd 7540 5b3c 1746 a0bc
00000320: 0429 81bc 32bd 82bd 3678 4b3b 5daf 233d
00000330: 4af1 cbbd 1e1f d03d f50e 74bd 35ac e2bc
00000340: 37b0 153d 1fcb bbbc 01bb a6bd 624e 2dbc
00000350: cc20 d13d 0b22 abbc c85c 7c3d 25b9 dc3d
00000360: c446 20bd 2ddf 2c3b 4be0 02bd 2845 11bd
00000370: a224 593d 8987 a1bc fd23 153d 8475 91bd
00000380: 18d2 013c 70f1 04bc e3c7 88bc 78b2 613d
00000390: 9641 9c3d 2521 23bd 2cd9 b5bb e6d8 493d
000003a0: 0556 a53c 2250 123d 2e95 30bd d1e5 6fbd
000003b0: df4c 9bbd 13c4 d0bd 6acb 013c 6b53 163e
000003c0: c554 a13d 43dd aabc baad 8cbd 63f7 933c
000003d0: 4764 0fbb 2a2d ae3d dcc9 6ebd 9b4b d63c
000003e0: 94c3 66bd 12d7 d33c 0b58 893d a703 4d3a
000003f0: c3f9 613d 8191 e9bb ec2d ae3b aab4 e23d

_backbone.transformer_blocks.mha_block_0.pos_wise_ff.ffn.linear_v.weight f4 [128, 32]
0.15318081 0.096685186 0.10391889 -0.16684783 0.11761773 0.0033863266 -0.05037058 0.08482663
-0.021477899 0.014960117 0.14653574 0.18362309 -0.1980289 0.061120436 -0.028143033 0.078089245
0.15226237 0.0092842765 0.045941837 -0.0377355 -0.114965394 -0.044328567 0.19058587 0.18166423
0.013551865 -0.23508649 -0.2399149 -0.09664235 -0.043978382 0.111345604 0.11625258 0.19586214
0.14696564 -0.035513822 -0.057993934 -0.031922426 0.08934417 0.048400786 -0.1561333 0.15282576
-0.13043152 0.020425739 -0.055017583 -0.0042777155 0.092333674 -0.096868426 0.122055694 0.06281347
0.1543366 0.0006801 0.10674998 -0.017623315 -0.16984005 0.14435567 -0.028505335 0.1303976
-0.0009689159 0.051594377 -0.052643307 0.008335887 -0.13316257 0.063479625 0.07272517 0.06449628
0.07893847 0.025890753 0.016707374 -0.03210083 -0.118449345 0.051767014 -0.05153626 0.09510862
-0.09282426 0.10788897 -0.08110232 -0.16549523 0.08278258 0.050514065 -0.12719002 0.035421945
0.11608205 -0.02673627 0.0070719784 0.032199297 -0.1410119 -0.02576076 -0.1392682 0.15188763
0.049550474 0.023201386 -0.16401067 -0.19756949 -0.007340305 -0.019851707 0.10674353 -0.033178736
0.048568446 0.053504996 -0.10197417 -0.07974248 0.07842983 0.12514298 -0.11670089 -0.047214285
-0.061748736 -0.13314922 -0.016594864 0.09216119 0.0074609364 -0.1056671 -0.03895732 -0.09946081
-0.16417602 0.11631596 0.028726544 0.07729462 0.13749434 0.18873468 -0.049552266 -0.08111545
0.021277804 -0.17643617 0.07470414 -0.030482851 -0.10810177 -0.09445157 0.09468553 -0.054295693
0.10821969 -0.14921924 0.15022016 -0.0301776 0.029155074 -0.13935713 -0.0010837471 -0.107603215
0.051399995 0.081425935 0.09961155 -0.16238199 -0.06348077 0.12660244 0.15392923 0.011680572
0.11817369 0.13209918 0.06319889 0.16374469 -0.1377205 0.16832116 -0.13459283 -0.07391701
0.07986022 0.028052758 0.19317767 -0.028977273 0.1681847 -0.11763953 0.009282225 0.050194472
-0.09274398 0.045035835 -0.20081796 -0.017861165 -0.2010311 0.083787814 -0.010172646 -0.019893227
-0.11611815 0.056516662 0.2298674 0.08445289 -0.0526897 0.19942085 -0.18295914 0.19071876
-0.02384793 0.06894991 0.12885223 0.047099356 0.022120005 0.16596845 0.056162268 -0.086455874
0.11546496 -0.1801667 -0.12513211 -0.042189166 0.0030012585 0.058367666 0.042652804 0.028028613
-0.14882332 -0.097670175 0.12896655 -0.10987262 -0.01613016 0.03640379 0.22699673 0.13309608
0.1017193 -0.08338783 -0.1864093 -0.045715027 0.032160074 -0.06264984 -0.10119197 0.1310195
-0.02293012 -0.1691866 0.06762692 -0.13149123 0.117186815 0.08402781 0.14012246 0.0059283916
0.1206747 0.1583805 -0.113255195 0.14637871 -0.073091365 -0.14886329 -0.1559944 -0.14683157
-0.091598734 -0.14196208 0.15320088 -0.123885974 0.016486363 0.1548233 -0.16008326 0.040783003
-0.047433212 0.12873417 -0.21781757 -0.19833067 0.03582122 -0.13339761 0.17670988 -0.03592634
-0.07604375 0.04730612 -0.023062669 0.051320788 0.13719192 -0.05734042 -0.10278355 0.18224274
-0.110994294 0.17756759 0.014634559 -0.043732826 -0.11219624 -0.07564323 -0.14512919 -0.06207544
00000000: 6edb 1c3e e202 c63d 6dd3 d43d 28da 2abe
00000010: 90e1 f03d 22ed 5d3b 6251 4ebd 96b9 ad3d
00000020: 6bf2 afbc 471b 753c 770d 163e b107 3c3e
00000030: 17c8 4abe 6c59 7a3d 388c e6bc 41ed 9f3d
00000040: abea 1b3e 141d 183c 822d 3c3d 8a90 1abd
00000050: fa72 ebbd df91 35bd f128 433e 3006 3a3e
00000060: a408 5e3c 83ba 70be 40ac 75be 6dec c5bd
00000070: ad22 34bd 2a09 e43d d515 ee3d 1690 483e
00000080: 297e 163e f176 11bd 0c8b 6dbd 17c1 02bd
00000090: 14fa b63d e73f 463d 68e1 1fbe 5b7e 1c3e
000000a0: d78f 05be e153 a73c 1e5a 61bd 142c 8cbb
000000b0: 7019 bd3d f462 c6bd 56f8 f93d 59a4 803d
000000c0: 6a0a 1e3e bd48 323a bc9f da3d c55e 90bc
000000d0: 8dea 2dbe f9d1 133e 0584 e9bc f386 053e
000000e0: d8fe 7dba a054 533d 82a0 57bd 3f93 083c
000000f0: c55b 08be 9b01 823d eff0 943d a016 843d
00000100: 7eaa a13d d818 d43c e7dd 883c 297c 03bd
00000110: 9295 f2bd a609 543d af17 53bd 4fc8 c23d
00000120: a51a bebd e4f4 dc3d f918 a6bd 9577 29be
00000130: ea89 a93d d6e7 4e3d 1a3e 02be 9a16 113d
00000140: 6dbc ed3d 0606 dbbc 0ebc e73b 69e3 033d
00000150: 6c65 10be 3b08 d3bc 539c 0ebe 6e88 1b3e
00000160: 70f5 4a3d d510 be3c 6af2 27be a84f 4abe
00000170: f186 f0bb 0ca0 a2bc 5a9c da3d 6de6 07bd
00000180: b5ef 463d 0e28 5b3d d5d7 d0bd 0650 a3bd
00000190: d29f a03d 7b25 003e e000 efbd c463 41bd
000001a0: 3eec 7cbd 4558 08be f4f1 87bc 02bf bc3d
000001b0: df7a f43b fe67 d8bd b691 1fbd 1cb2 cbbd
000001c0: c21d 28be 1037 ee3d ee53 eb3c a44c 9e3d
000001d0: 51cb 0c3e aa43 413e 51f7 4abd db1f a6bd
000001e0: ca4e ae3c afab 34be 7cfe 983d 2cb7 f9bc
000001f0: 7664 ddbd d36f c1bd 7dea c13d 2965 5ebd
00000200: 49a2 dd3d eecc 18be 50d3 193e 0437 f7bc
00000210: 9fd6 ee3c a3b3 0ebe 850c 8eba 135f dcbd
00000220: cd88 523d a4c2 a63d 2401 cc3d 7747 26be
00000230: 3502 82bd 12a4 013e a09f 1d3e df5f 3f3c
00000240: 0c05 f23d 0245 073e 6b6e 813d b0ac 273e
00000250: 9a06 0dbe 625c 2c3e b4d2 09be cd61 97bd
00000260: c18d a33d e6ce e53c 5ed0 453e bf61 edbc
00000270: 9c38 2c3e feec f0bd 7914 183c b898 4d3d
00000280: 8ef0 bdbd 7f77 383d 39a3 4dbe 9451 92bc
00000290: 19db 4dbe f298 ab3d 2bab 26bc 1ff7 a2bc
000002a0: 5acf edbd 047e 673d 5c62 6b3e a3f5 ac3d
000002b0: 28d1 57bd fb34 4c3e a459 3bbe c74b 433e
000002c0: bc5c c3bc 9c35 8d3d d7f1 033e 41eb 403d
000002d0: 0335 b53c a2f3 293e 680a 663d c70f b1bd
000002e0: e578 ec3d 9f7d 38be a222 00be 8cce 2cbd
000002f0: c3b0 443b ef12 6f3d b5b4 2e3d 439c e53c
00000300: 2465 18be 4d07 c8bd cf0f 043e e504 e1bd
00000310: 6623 84bc 241c 153d d571 683e 574a 083e
00000320: 3552 d03d 3dc7 aabd 14e2 3ebe ae3f 3bbd
00000330: 48ba 033d 8f4e 80bd bc3d cfbd fa29 063e
00000340: f2d7 bbbc 413f 2dbe fc7f 8a3d a3a5 06be
00000350: a4ff ef3d c616 ac3d 437c 0f3e f442 c23b
00000360: 4c24 f73d 7f2e 223e 57f2 e7bd 4de4 153e
00000370: edb0 95bd 9e6f 18be ffbc 1fbe 045b 16be
00000380: 1e98 bbbd 825e 11be b1e0 1c3e eeb7 fdbd
00000390: 690e 873c 008a 1e3e deec 23be 140c 273d
000003a0: 5449 42bd e4d2 033e 920b 5fbe 3217 4bbe
000003b0: 46b9 123d 6299 08be 6ff3 343e 7f27 13bd
000003c0: d3bc 9bbd 10c4 413d eced bcbc bf35 523d
000003d0: 0a7c 0c3e cadd 6abd 2f80 d2bd d79d 3a3e
000003e0: fa50 e3bd 47d4 353e cac5 6f3c 3121 33bd
000003f0: 24c7 e5bd d6ea 9abd bf9c 14be d142 7ebd

_backbone.transformer_blocks.mha_block_0.attn_add_norm.ln.weight f4 [32]
1.0176458 0.9819265 1.0064934 1.0448867 1.0355477 0.9896198 1.0119656 1.0201223
0.98994523 0.98552316 0.987294 1.0156616 0.9811925 0.98907274 0.9796995 1.0086167
0.99073994 0.9729149 1.0026356 0.96075696 0.99906665 1.0044487 0.999915 1.0701643
0.9642789 0.99850607 0.96459603 0.9956055 0.99165386 1.0277493 0.99236286 1.0203896
00000000: 3842 823f 895f 7b3f c7d4 803f d9be 853f
00000010: d48c 843f b957 7d3f 1788 813f 5e93 823f
00000020: 0d6d 7d3f 3f4b 7c3f 4dbf 7c3f 3301 823f
00000030: 6f2f 7b3f df33 7d3f 96cd 7a3f 5a1a 813f
00000040: 22a1 7d3f f310 793f 5d56 803f 2bf4 753f
00000050: d5c2 7f3f c691 803f 6efa 7f3f 25fb 883f
00000060: fbda 763f 189e 7f3f c4ef 763f 01e0 7e3f
00000070: 07dd 7d3f 4a8d 833f 7e0b 7e3f 209c 823f

_backbone.transformer_blocks.mha_block_0.attn_add_norm.ln.bias f4 [32]
-0.0050691087 0.008085177 -0.008403178 0.021456303 -0.013599493 -0.0023818803 -0.004306784 0.0037555804
0.008437938 -0.010348895 -0.0068169404 0.011431634 0.007888853 -0.004181714 0.008907969 -0.010159059
-0.00056726986 -0.0019219469 0.0051489915 0.0056889364 0.004988821 -0.009390915 -0.006181488 0.0136426855
-0.00713096 0.0031760866 0.0045792386 -2.1996402e-05 -0.003770356 0.01850553 -0.008079251 -0.011527628
00000000: c41a a6bb b177 043c 7cad 09bc 21c5 af3c
00000010: 68d0 5ebc 5219 1cbb ec1f 8dbb 2f20 763b
00000020: 473f 0a3c 698e 29bc a460 dfbb c04b 3b3c
00000030: 3f40 013c c206 89bb bbf2 113c 2f72 26bc
00000040: d6b4 14ba d6e9 fbba dfb8 a83b 426a ba3b
00000050: 4479 a33b 5adc 19bc 148e cabb 9285 5f3c
00000060: d4aa e9bb e425 503b 700d 963b ea84 b8b7
00000070: 1418 77bb e998 973c d65e 04bc 60de 3cbc

_backbone.transformer_blocks.mha_block_0.ff_add_norm.ln.weight f4 [32]
1.0308597 0.97665054 1.0154192 1.0684811 1.0583632 0.9930999 1.0219839 1.0293039
0.9944083 1.0020665 0.9939769 1.0164238 0.9863382 0.9948976 0.9810401 1.0111947
1.0004586 0.99909973 1.0051054 0.96256924 1.0023237 1.008826 1.0106554 1.0781434
0.9802915 1.0001622 0.9729347 1.0040202 1.0085783 1.0365103 0.99284554 1.027301
00000000: 36f3 833f c505 7a3f 42f9 813f fdc3 883f
00000010: 7278 873f cc3b 7e3f 5ed0 823f 3bc0 833f
00000020: 8b91 7e3f b743 803f 4575 7e3f 2d1a 823f
00000030: a980 7c3f 9cb1 7e3f 7225 7b3f d46e 813f
00000040: 070f 803f 00c5 7f3f 4ba7 803f f06a 763f
00000050: 254c 803f 3621 813f 285d 813f 9a00 8a3f
00000060: 62f4 7a3f 5105 803f 4012 793f bc83 803f
00000070: 1819 813f 5fac 843f 202b 7e3f 997e 833f

_backbone.transformer_blocks.mha_block_0.ff_add_norm.ln.bias f4 [32]
-0.0025462178 0.008206551 -0.010332303 0.025240734 -0.019764628 -0.0024165327 -0.004577244 0.0059129847
0.008550989 -0.008070896 -0.0076431674 0.002505767 0.0087619405 -0.004817201 0.009225164 -0.012919725
-0.0012380102 -0.0033523503 0.0058580544 0.0066813026 0.0066871108 -0.010361212 -0.00726835 0.010949589
-0.0066957036 0.002000163 0.005724953 -0.00026450126 -0.0032761148 0.024640445 -0.008878985 -0.016207315
00000000: 72de 26bb c574 063c d248 29bc a8c5 ce3c
00000010: 6ee9 a1bc b15e 1ebb b5fc 95bb b6c1 c13b
00000020: 7319 0c3c cb3b 04bc 8973 fabb cb37 243b
00000030: 3e8e 0f3c 9cd9 9dbb 2425 173c 41ad 53bc
00000040: bb44 a2ba 1bb3 5bbb ecf4 bf3b d4ee da3b
00000050: 8d1f db3b 13c2 29bc 572b eebb e865 333c
00000060: a267 dbbb 2b15 033b 6398 bb3b c2ac 8ab9
00000070: 16b4 56bb c2da c93c 2a79 11bc 34c5 84bc

_backbone.transformer_blocks.mha_block_1.mha.to_qkv.weight f4 [384, 32]
-0.019420603 -0.06870976 0.07574245 0.030735103 -0.058865696 -0.024352575 -0.114961304 -0.13006893
0.015019093 0.09748138 0.07963769 -0.12004453 0.20233911 0.022044173 -0.054293215 0.08273757
-0.066979036 0.16598924 0.036527913 0.03240681 0.08960311 -0.057857424 0.08526954 -0.18613562
-0.13307068 0.11614623 0.08871404 -0.14331262 0.12834486 0.06747781 -0.05727211 -0.011556746
-0.050061785 -0.014763437 -0.0031717138 -0.08146417 -0.15503363 -0.111902885 0.06627727 0.120213255
0.12238799 -0.024451928 0.04082797 0.14695999 -0.030407492 0.04143399 -0.02954647 0.16014089
0.09650975 0.15044707 0.10897406 -0.13518639 0.13777341 -0.054617256 0.11867604 0.12550285
-0.05622482 0.15385035 0.07403079 -0.15632534 0.07692459 -0.070883006 -0.013841416 0.100022
-0.028200293 0.010644324 -0.034153476 -0.10543138 -0.030026866 0.02450505 -0.0669333 0.11787187
-0.0418844 0.08047532 -0.0327985 -0.10571902 -0.011225162 0.12334391 0.03682501 -0.1107267
0.12879902 -0.025516214 0.09019935 -0.05719242 0.06734876 0.17379212 0.10243605 -0.06559094
-0.1437453 -0.17051756 0.11967351 -0.13332334 -0.11517102 -0.015033611 0.022357427 0.10951405
-0.114552036 0.026739651 -0.05795584 -0.10055062 0.1421576 -0.16825314 -0.002886663 -0.1654691
-0.04609332 -0.023537239 -0.035213206 -0.066380255 0.17457892 -0.02084276 -0.14672187 -0.16082332
0.12245362 -0.050976988 -0.045512985 -0.048051093 0.18084559 -0.13823263 0.11010137 0.037947007
-0.11525192 0.1330488 -0.026307803 0.054157894 -0.13453355 -0.018478664 -0.14294097 0.036565866
-0.14748687 -0.16519132 -0.005163525 -0.036654856 -0.044632357 0.060605593 -0.11525338 -0.016340444
0.020971227 0.014815758 0.032381102 -0.028088657 0.027400699 0.15588424 -0.14857951 -0.1707388
-0.06600358 -0.094959356 -0.020977365 -0.08149586 -0.13302216 0.11074845 -0.05753951 0.11945015
0.20094192 0.107301205 -0.0032945056 0.15696493 -0.027456034 -0.1289802 -0.12728857 -0.16255753
-0.13855883 0.2010225 0.09837313 0.17261301 0.15968186 -0.12737443 -0.09478616 -0.1259011
0.11356876 -0.0011761114 0.038569357 -0.17921653 0.056879427 0.16034001 -0.11792227 0.16355027
0.13136098 0.104964435 0.14790516 0.035511386 0.072773956 0.13194223 -0.10673426 -0.009796054
0.07188537 -0.0055876556 -0.087383814 0.08041646 -0.03024996 0.1068823 -0.1353262 0.113966264
-0.14472616 0.07140917 0.046793766 0.0933924 -0.004298623 -0.045315668 -0.16189748 -0.07780145
-0.080134146 0.12338133 0.20000324 -0.11335698 0.13957469 0.035374306 -0.1667819 0.09939773
0.12748566 -0.0046184156 -0.06791775 0.0702709 0.15499175 0.07796362 0.04094271 0.029731944
0.120205134 0.09666845 0.08343363 0.11131541 0.059804328 -0.025178913 -0.2193843 -0.1913069
-0.09217091 0.031335432 0.07154488 -0.054202728 -0.12673503 0.046314076 0.042378034 -0.15255411
-0.12785503 -0.107540056 0.04881813 0.1395069 -0.23815458 -0.13284887 -0.047901873 -0.091442004
-0.14605162 0.0028920136 -0.0023062911 -0.027787559 0.14987983 0.17563137 0.21202382 -0.0564278
0.07219455 -0.019039987 0.09293519 0.05147981 0.0808354 -0.06877185 0.17405619 -0.10453574
00000000: f517 9fbc b4b7 8cbd dc1e 9b3d 2fc8 fb3c
00000010: 281d 71bd 0d7f c7bc d570 ebbd ca30 05be
00000020: a412 763c 51a4 c73d 1619 a33d e8d9 f5bd
00000030: fc31 4f3e fb95 b43c 9062 5ebd 5172 a93d
00000040: 4e2c 89bd 15f9 293e 4b9e 153d 01bd 043d
00000050: d681 b73d e8fb 6cbd cca1 ae3d 569a 3ebe
00000060: ae43 08be 13de ed3d b5af b53d 8bc0 12be
00000070: d66c 033e ce31 8a3d 2996 6abd 8258 3dbc
00000080: 960d 4dbd 58e2 71bc 87dc 4fbb b0d6 a6bd
00000090: 23c1 1ebe 572d e5bd 61bc 873d 5e32 f63d
000000a0: 8ea6 fa3d 694f c8bc 3b3b 273d ae7c 163e
000000b0: 2219 f9bc b0b6 293d 700b f2bc f9fb 233e
000000c0: e7a6 c53d cc0e 1a3e cb2d df3d 4d6e 0abe
000000d0: 7914 0d3e 58b6 5fbd 6c0c f33d d283 003e
000000e0: ff4b 66bd f28a 1d3e 749d 973d c013 20be
000000f0: a48a 9d3d 1c2b 91bd 1bc7 62bc 56d8 cc3d
00000100: 4d04 e7bc 8865 2e3c 84e4 0bbd 68ec d7bd
00000110: e7fa f5bc d1be c83c 5314 89bd cf66 f13d
00000120: fa8e 2bbd 3fd0 a43d b857 06bd 3783 d8bd
00000130: bee9 37bc bb9b fc3d d2d5 163d aec4 e2bd
00000140: e4e3 033e 6107 d1bc 70ba b83d 9942 6abd
00000150: 26ee 893d 90f6 313e fec9 d13d 8b54 86bd
00000160: f831 13be 289c 2ebe 6317 f53d ea85 08be
00000170: c9de ebbd 894f 76bc ec26 b73c e748 e03d
00000180: 429a eabd 1d0d db3c 1a63 6dbd 7ced cdbd
00000190: c391 113e 8d4a 2cbe 2b2e 3dbb bb70 29be
000001a0: 59cc 3cbd 2bd1 c0bc b93b 10bd 5ff2 87bd
000001b0: d1c4 323e 70be aabc 423e 16be deae 24be
000001c0: f7c8 fa3d 3fcd 50bd d36b 3abd 39d1 44bd
000001d0: 962f 393e db8c 0dbe d47c e13d 526e 1b3d
000001e0: 3309 ecbd f23d 083e 7683 d7bc abd4 5d3d
000001f0: 2ac3 09be 9160 97bc 1e5f 12be 17c6 153d
00000200: cc06 17be ea27 29be ca32 a9bb 6723 16bd
00000210: 6bd0 36bd 923d 783d f709 ecbd 65dc 85bc
00000220: dacb ab3c cbbd 723c 0ca2 043d 2f1a e6bc
00000230: 6e77 e03c 1ea0 1f3e 3a25 18be 27d6 2ebe
00000240: e32c 87bd 0d7a c2bd b9d8 abbc 4de7 a6bd
00000250: f636 08be 15d0 e23d 8dae 6bbd 48a2 f43d
00000260: b8c3 4d3e bcc0 db3d a2e8 57bb 6abb 203e
00000270: 7aeb e0bc 6313 04be ef57 02be 7b75 26be
00000280: 5ee2 0dbe d8d8 4d3e da77 c93d 77c1 303e
00000290: a483 233e 716e 02be 3f1f c2bd 38ec 00be
000002a0: bd96 e83d c027 9aba e7fa 1d3d 8a84 37be
000002b0: 67fa 683d 2c30 243e 3b81 f1bd b979 273e
000002c0: 7e83 063e 98f7 d63d 7374 173e 6374 113d
000002d0: 830a 953d dd1b 073e 7e97 dabd a17f 20bc
000002e0: a338 933d a718 b7bb 49f6 b2bd 63b1 a43d
000002f0: c4ce f7bc 1be5 da3d f492 0abe 2567 e93d
00000300: 1833 14be f93e 923d d2aa 3f3d 8444 bf3d
00000310: 77db 8cbb ec9c 39bd 74c8 25be 5e56 9fbd
00000320: 5f1d a4bd 5aaf fc3d a6cd 4c3e b427 e8bd
00000330: abec 0e3e a6e4 103d e0c8 2abe 0991 cb3d
00000340: 9a8b 023e 1456 97bb 7618 8bbd 31ea 8f3d
00000350: 28b6 1e3e 64ab 9f3d 8bb3 273d 6890 f33c
00000360: 1c2e f63d 1cfa c53d 40df aa3d 55f9 e33d
00000370: 62f5 743d 0244 cebc 47a6 60be f5e5 43be
00000380: 1ac4 bcbd 9559 003d 1f86 923d ae03 5ebd
00000390: d4c6 01be d4b3 3d3d 9794 2d3d 2537 1cbe
000003a0: 6eec 02be f63d dcbd 85f5 473d e6da 0e3e
000003b0: cbde 73be 8909 08be c134 44bd f245 bbbd
000003c0: 8e8e 15be f087 3d3b 2525 17bb bca2 e3bc
000003d0: 197a 193e b6d8 333e c61c 593e d620 67bd
000003e0: bcda 933d bff9 9bbc ce54 be3d 7edc 523d
000003f0: 088d a53d 41d8 8cbd c93b 323e d616 d6bd

_backbone.transformer_blocks.mha_block_1.mha.to_out.weight f4 [32, 128]
0.11091053 3.1869902e-05 0.100793205 -0.08251833 0.08115542 -0.060242645 -0.009544564 0.06511238
-0.015388988 0.020361176 0.026354471 -0.09094484 0.006177238 0.0967114 -0.024018204 0.09883857
0.034079634 0.02441792 -0.026945578 -0.010736543 -0.08851535 0.09786737 0.10940579 0.047218505
0.06895866 0.029352346 0.012942188 -0.09411004 -0.105679795 -0.041227873 -0.031079883 0.09320622
0.13016562 0.024504922 0.07752259 0.011650525 -0.036493164 0.09796799 -0.122766085 -0.08044678
-0.075051434 0.07697501 0.060526047 0.05089092 0.0017771394 -0.10702023 -0.0562736 0.012889861
-0.100465104 -0.04248675 -0.0778605 0.0086642895 -0.088584356 -0.029782211 0.022213534 -0.13026012
-0.0036354638 -0.064451754 -0.032003697 -0.16553311 0.002338808 -0.00903337 -0.04572462 -0.11678753
-0.03598989 0.062642924 -0.07045089 0.028606787 0.0144056305 -0.05364792 0.014234293 0.07344507
0.07681469 -0.041616216 0.15371215 -0.037677083 0.01302605 0.009837107 -0.0022184527 0.055755444
0.04053253 0.1036652 0.02519981 0.100301854 0.04881969 -0.017861573 -0.04195595 0.17938747
-0.0966715 0.036083452 -0.056054298 0.085434936 -0.047132105 0.049817245 -0.098400444 0.03301391
-0.08981387 -0.019887166 0.062253203 0.00870785 -0.06792061 -0.010915436 -0.09729687 0.08394237
0.02691563 -0.09457905 0.091055825 0.09554432 -0.05225665 0.10278265 0.0121156005 0.00089711224
-0.02361808 0.004205167 -0.01809171 -0.015419162 0.008325443 -0.020539386 -0.10815509 0.03666113
-0.06277487 -0.07647038 -0.07070981 -0.0014038518 -0.012755403 -0.046784826 -0.09082301 0.0063100834
0.06699383 0.009262511 -0.0659623 -0.013361227 -0.056911066 -0.049351692 0.013566914 -0.059638545
0.013226846 -0.019360246 -0.07495259 0.031367738 0.06989028 -0.048336532 -0.08546461 0.0402684
0.075546846 0.029131103 -0.0343254 -0.027571855 0.019219328 0.032184448 -0.10626207 0.1303227
0.041774113 -0.02932733 0.026716016 0.06841168 -0.0045592324 -0.0032308435 -0.04183538 0.015204227
0.06482313 0.019097803 0.0055899974 0.05200382 -0.10869199 0.040586766 0.04945734 0.052980397
-0.03824806 0.0570032 0.058161896 0.06845265 0.048630156 -0.035371568 -0.032603752 0.045569427
0.074385956 0.09403046 0.011729345 -0.07137556 0.012397291 0.0060659377 0.009047725 0.0054869587
-0.033899415 0.100934215 0.04367846 -0.07230733 0.012573763 -0.09868419 -0.015464633 -0.07710749
0.0373329 -0.023454377 -0.03172865 -0.14341062 -0.017972201 -0.024916144 0.0002938595 -0.10204667
-0.08032094 0.057453502 -0.015973158 -0.06898584 -0.09784733 -0.063689604 0.04145262 -0.077480346
-0.016530275 0.007827026 0.030811433 -0.04543088 0.01635767 -0.049696717 0.031750772 0.0034737599
0.028189046 0.009847647 0.035633795 0.07412502 -0.10733208 -0.03576576 -0.005430803 0.053627074
0.05367941 0.023859521 0.07823162 0.010043422 -0.017876666 -0.034064688 -0.0038432104 0.06989354
0.056908637 0.028331308 0.014260536 -0.060788225 -0.032411307 0.054662056 0.032951653 0.09649395
0.016168203 0.007845353 0.083787814 -0.016637642 0.01698003 -0.108825505 -0.02646377 0.08495623
-0.13100228 0.093925826 0.03201435 -0.049991574 -0.059176624 -0.04435842 0.06420551 -0.08757428
00000000: 0f25 e33d 0cac 0538 ab6c ce3d 5fff a8bd
00000010: d034 a63d fec0 76bd ce60 1cbc a459 853d
00000020: 1822 7cbc 7bcc a63c 55e5 d73c 4a41 babd
00000030: 6e6a ca3b a010 c63d d3c1 c4bc e06b ca3d
00000040: 1697 0b3d 1708 c83c f9bc dcbc 53e8 2fbc
00000050: 8947 b5bd b06e c83d 2510 e03d 3168 413d
00000060: 333a 8d3d 5574 f03c 790b 543c c4bc c0bd
00000070: a66e d8bd 8fde 28bd 3d9b febc e7e2 be3d
00000080: 234a 053e 8cbe c83c 2ac4 9e3d d8e1 3e3c
00000090: db79 15bd 71a3 c83d c96c fbbd 48c1 a4bd
000000a0: 91b4 99bd 13a5 9d3d 29ea 773d ff72 503d
000000b0: e7ee e83a 6c2d dbbd 257f 66bd ff2f 533c
000000c0: a6c0 cdbd 9606 2ebd 5375 9fbd aaf4 0d3c
000000d0: b76b b5bd d3f9 f3bc 28f9 b53c e962 05be
000000e0: f640 6ebb 48ff 83bd 4f16 03bd 8381 29be
000000f0: b046 193b b300 14bc bd49 3bbd 4d2e efbd
00000100: 236a 13bd ef4a 803d 8e48 90bd c858 ea3c
00000110: 9805 6c3c ecbd 5bbd f436 693c 5e6a 963d
00000120: 0551 9d3d c475 2abd b866 1d3e 4953 1abd
00000130: 376b 553c d12b 213c 7663 11bb d25f 643d
00000140: 7005 263d 6c4e d43d d56f ce3c 0f6b cd3d
00000150: 28f7 473d 6f52 92bc 01da 2bbd 59b1 373e
00000160: b5fb c5bd 3ecc 133d 3199 65bd 83f8 ae3d
00000170: 980d 41bd 2b0d 4c3d 2c86 c9bd 9839 073d
00000180: 56f0 b7bd 69ea a2bc 37fd 7e3d 5fab 0e3c
00000190: f619 8bbd a8d6 32bc 9543 c7bd fae9 ab3d
000001a0: 2b7e dc3c a9b2 c1bd 7a7b ba3d beac c33d
000001b0: 120b 56bd b67f d23d 8380 463c 2f2c 6b3a
000001c0: b47a c1bc 7fcb 893b 1135 94bc a7a0 7cbc
000001d0: 7067 083c 3742 a8bc 6a80 ddbd fb29 163d
000001e0: 1c90 80bd 819c 9cbd 4ed0 90bd 7301 b8ba
000001f0: 0afc 50bc 72a1 3fbd 6a01 babd d1c4 ce3b
00000200: 1034 893d c9c1 173c 3e17 87bd 0ce9 5abc
00000210: 941b 69bd 0025 4abd c347 5e3c 8c47 74bd
00000220: 6ab5 583c 6199 9ebc be80 99bd 757b 003d
00000230: a322 8f3d 87fc 45bd 1208 afbd 7af0 243d
00000240: 4eb8 9a3d 5aa4 ee3c ca98 0cbd 5fde e1bc
00000250: da71 9d3c d7d3 033d ee9f d9bd 5073 053e
00000260: 551b 2b3d de3f f0bc 8cdb da3c 6c1b 8c3d
00000270: 9d65 95bb 8fbc 53bb 935b 2bbd 261b 793c
00000280: fdc1 843d ff72 9c3c 4c2c b73b f501 553d
00000290: e899 debd 4f3e 263d c893 4a3d f901 593d
000002a0: ffa9 1cbd 307c 693d 2b3b 6e3d e730 8c3d
000002b0: 6a30 473d c7e1 10bd 838b 05bd 02a7 3a3d
000002c0: aa57 983d 0b93 c03d 702c 403c 592d 92bd
000002d0: 021e 4b3c c6c4 c63b e93c 143c f2cb b33b
000002e0: 1dda 0abd 99b6 ce3d 2fe8 323d de15 94bd
000002f0: 2f02 4e3c f01a cabd 5f5f 7dbc 88ea 9dbd
00000300: 62ea 183d 6523 c0bc e7f5 01bd 3cda 12be
00000310: 703a 93bc f11c ccbc 2811 9a39 d8fd d0bd
00000320: 4e7f a4bd 5d54 6b3d 24da 82bc 7348 8dbd
00000330: 2e64 c8bd b26f 82bd 39ca 293d 04ae 9ebd
00000340: 806a 87bc ed3c 003c 4268 fc3c bb15 3abd
00000350: 8500 863c c98e 4bbd 190d 023d 05a8 633b
00000360: b7ec e63c 0658 213c bef4 113d dcce 973d
00000370: ecd0 dbbd 1e7f 12bd e1f4 b1bb 10a8 5b3d
00000380: f1de 5b3d 0b75 c33c e637 a03d 2a8d 243c
00000390: 1672 92bc 6a87 0bbd 5fde 7bbb 5824 8f3d
000003a0: 0819 693d 0f17 e83c 06a5 693c 13fd 78bd
000003b0: b8c1 04bd 52e5 5f3d 50f8 063d 9f9e c53d
000003c0: 2e73 843c cc89 003c f298 ab3d aa4b 88bc
000003d0: b419 8b3c e8df debd 8cca d8bc 88fd ad3d
000003e0: 7625 06be 2f5c c03d 7b21 033d f7c3 4cbd
000003f0: 3063 72bd 2db1 35bd 2e7e 833d 255a b3bd

_backbone.transformer_blocks.mha_block_1.mha.to_out.bias f4 [32]
-0.04102021 0.0828663 -0.060876466 0.0050531607 0.0076971804 0.0556988 0.027433679 -0.045317378
0.089344054 -0.0295491 -0.0044878204 0.0936891 -0.07845764 0.054461166 0.035993535 -0.0038394402
-0.07379882 -0.037355535 0.018243313 -0.033566948 -0.0029089975 -0.054074783 -4.270268e-05 0.08676969
0.07505502 -0.025159223 0.020317541 -0.0054960283 0.020684468 -0.062597044 0.08200686 0.021993173
00000000: cf04 28bd cfb5 a93d 9a59 79bd fc94 a53b
00000010: a138 fc3b 6d24 643d 98bc e03c b79e 39bd
00000020: 04fa b63d f410 f2bc 910e 93bb 12e0 bf3d
00000030: 66ae a0bd ac12 5f3d f56d 133d 1e9f 7bbb
00000040: d623 97bd 1e02 19bd 0073 953c 7f7d 09bd
00000050: e1a4 3ebb 857d 5dbd a71b 33b8 4fb4 b13d
00000060: 72b6 993d b71a cebc f970 a63c 0718 b4bb
00000070: 7972 a93c e132 80bd 36f3 a73d 072b b43c
