Eunho/pytorch_stacking/saved_models/classification-21_epoch=7-valid_loss=0.49-v1.ckpt (torch, 317359 bytes, 56 tensors)

_backbone.linear_layers.0.weight f4 [128, 84]
0	0x3c1a27cc	0.009408902
1	0xbd9430b8	-0.07235855
2	0xbca3864b	-0.019961497
3	0xbdec429c	-0.11536142
4	0xbdba65e3	-0.091014646
5	0x3c605a59	0.013693416
6	0x3dae0c88	0.08498484
7	0x3dc20803	0.09474184
8	0xbdad48a1	-0.084611185
9	0xbcd080c3	-0.025452023
10	0x3dc4bda9	0.09606487
11	0x3af3da8d	0.0018604562
12	0xbc9f23c6	-0.019426238
13	0xbd0dc038	-0.034607142
14	0xbcad688f	-0.021168021
15	0xbd405fd9	-0.046966407
16	0x3da0ff6a	0.07861216
17	0x3dc82347	0.097723536
18	0x3da73390	0.08164132
19	0x3d97013b	0.073732816
20	0x3de3f013	0.11129775
21	0x3d90d5ed	0.07072053
22	0xbddba180	-0.10724163
23	0xbdbae11b	-0.09124967
24	0x3db3cf07	0.08779722
25	0xbd618171	-0.055055086
26	0x3cc77141	0.024345996
27	0xbd323c2f	-0.043514427
28	0xbdda5768	-0.10661203
29	0x3b84d6d2	0.004053929
30	0xbd1eba27	-0.038751747
31	0xbdff1c6b	-0.12456592
32	0x3d1994bb	0.037495356
33	0xbdda7ce6	-0.10668354
34	0x3d32348c	0.043507144
35	0xbd3423f4	-0.0439796
36	0x3c9d6d52	0.019217167
37	0xbb17f3cd	-0.0023186088
38	0xbdca56f0	-0.09879863
39	0x3d9503da	0.07276125
40	0xbdfb2131	-0.1226219
41	0xbdb97f89	-0.090575285
42	0x3c0d735a	0.008633459
43	0x3df49cc6	0.11943965
44	0x3d000c9d	0.03126203
45	0xbda19984	-0.07890609
46	0xbc482637	-0.012216142
47	0xbd30693e	-0.043069117
48	0xbd153168	-0.03642407
49	0x3d1461b7	0.036226
50	0xbb257ddf	-0.0025252027
51	0xbd5b5033	-0.05354328
52	0x3cf79a75	0.030225018
53	0x3d81c8cf	0.06337129
54	0xbd647a70	-0.055780828
55	0xbc40e2e3	-0.011772844
56	0xbdad3075	-0.08456508
57	0xbd84cbf6	-0.06484215
58	0x3d86ee62	0.06588437
59	0x3d9e6c13	0.07735457
60	0xbd0e8f17	-0.03480443
61	0x3c12d94a	0.008962939
62	0x3d22c1e3	0.039735686
63	0xbbdbcf1e	-0.00670804
64	0xbd4a3430	-0.049366176
65	0x3c44e324	0.012017045
66	0x3daca804	0.08430484
67	0xbd980b40	-0.07424021
68	0x3cf9a0d7	0.030472202
69	0xbdc6c1e2	-0.09704949
70	0x3cb2a4b4	0.021807052
71	0xbdd04d7e	-0.101710305
72	0xbb57d74f	-0.003293473
73	0x3cd7e801	0.026355745
74	0x3d87a7d4	0.066238075
75	0x3d64035f	0.055667277
76	0xbd0da34e	-0.034579568
77	0xbd56dd9f	-0.052457448
78	0xbc44d017	-0.012012503
79	0xba1e7ae2	-0.00060455326
80	0xbd799ad3	-0.060938668
81	0x3d73511c	0.059403524
82	0x3dceea36	0.10103266
83	0x3ba63384	0.005072059
84	0xbd449d5c	-0.048001632
85	0xbd4ac719	-0.04950628
86	0x3d676994	0.05649717
87	0x3d03d95c	0.032189712
88	0x3d161b8b	0.03664736
89	0xbddb02fb	-0.10693928
90	0xbc8236a8	-0.015895203
91	0xbc12161c	-0.008916404
92	0xbd7a63eb	-0.061130445
93	0x3cbbd44c	0.02292838
94	0xbc6e18cb	-0.014532278
95	0xbca45b77	-0.020063145
96	0x3cfdd187	0.0309837
97	0xbcd77389	-0.026300209
98	0xbc2d47fa	-0.010576243
99	0xbd6a376f	-0.05718177
100	0xbd9ab723	-0.07554462
101	0x3d28a46e	0.041172437
102	0xbb9a51f8	-0.0047094785
103	0xbd867573	-0.065653704
104	0x3de99923	0.11406162
105	0x3d81bfdd	0.06335423
106	0xbad46566	-0.0016204535
107	0xbc805bc4	-0.015668757
108	0x3c56b902	0.013105633
109	0xbdaabf08	-0.083372176
110	0x3db55ebe	0.08855961
111	0xbd8e4b08	-0.06947905
112	0x3dacba1d	0.08433936
113	0xbc9a103f	-0.018806575
114	0xbdbb9ba3	-0.09160545
115	0x3d49fb74	0.04931207
116	0xbe0e9ed7	-0.1392778
117	0x3cfa4127	0.030548645
118	0xbd550aed	-0.052012373
119	0x3cd6c37f	0.026216267
120	0x3dbd3437	0.09238475
121	0xbd1eb25a	-0.038744308
122	0xbdabc5e4	-0.08387354
123	0xbc0e0c86	-0.008669978
124	0xbdcca96f	-0.099932544
125	0x3cf86029	0.03031929
126	0x3d6996a6	0.057028435
127	0xbd232013	-0.03982551
128	0xbd4149fa	-0.04718969
129	0x3d06f932	0.032952495
130	0xbd8ce22d	-0.06879077
131	0xbcf873d5	-0.03032867
132	0xbdf6341c	-0.12021658
133	0x3d4de01b	0.05026255
134	0xbd3ad3e1	-0.04561222
135	0xbd80387e	-0.06260775
136	0xbd8a4a54	-0.06752458
137	0xbd094c8d	-0.03352027
138	0xbd87cf47	-0.06631332
139	0x3df07203	0.11740496
140	0xbda99087	-0.082795195
141	0x3dd6202d	0.10455356
142	0x3c77ea57	0.015131555
143	0xbc66fd9b	-0.01409855
144	0x3cca629e	0.024705227
145	0xbd9d9d15	-0.07695977
146	0x3c80ecd6	0.015737932
147	0x3cbcc6e1	0.023044052
148	0x3cd6a018	0.026199386
149	0x3cbe8b39	0.023259746
150	0xbd099247	-0.033586767
151	0x3db7cef4	0.0897502
152	0xbcdc1326	-0.0268646
153	0x3db5f1eb	0.08884033
154	0xbd7be320	-0.0614959
155	0x3bb5be92	0.0055463994
156	0xbcba7953	-0.02276293
157	0xbc88fa36	-0.016720872
158	0xbda01438	-0.078163564
159	0xbdb0c682	-0.08631612
160	0xbd61ae3a	-0.055097796
161	0x3dd4d4fc	0.10392186
162	0x3dd37ba9	0.10326321
163	0xbd9eabd0	-0.077476144
164	0x3db79238	0.08963436
165	0xbd497356	-0.04918226
166	0xbd25a7dd	-0.04044329
167	0x3d59646d	0.05307429
168	0x3d4e873a	0.05042193
169	0x3c86a364	0.016435333
170	0x3c14820d	0.00906421
171	0xbda15e61	-0.078793295
172	0x3cbcb3ac	0.023034893
173	0xbdae31a7	-0.08505564
174	0x3cee63e7	0.029100372
175	0x3dd49231	0.10379446
176	0x3c20680b	0.009790431
177	0x3d2d57e1	0.042320136
178	0x3d0839b3	0.03325815
179	0xbd74ee2e	-0.05979746
180	0x3d4f0e22	0.050550587
181	0x3cdae968	0.026722625
182	0x3cc74e1b	0.024329236
183	0x3dd25002	0.102691665
184	0x3d729f82	0.05923415
185	0xbb669898	-0.0035186168
186	0x3d0aed70	0.033917844
187	0x3d6f18a9	0.058373127
188	0xbd1403f9	-0.0361366
189	0x3c312f8b	0.010814558
190	0xbdc3a662	-0.095532194
191	0x3da224d8	0.07917184
192	0x3d5cc8e0	0.053902507
193	0xbdafc60a	-0.08582695
194	0xbd971dc9	-0.07378728
195	0xbd0a6ea1	-0.03379691
196	0x3da9f2d9	0.08298273
197	0xbd58664b	-0.05283193
198	0xbcaaf05a	-0.020866562
199	0xbcdf337b	-0.027246227
200	0xbdcde1d0	-0.10052836
201	0xbcb785ce	-0.02240267
202	0x3cd0606a	0.025436599
203	0x3d51088e	0.05103355
204	0x3cee9443	0.029123431
205	0x3da60bfc	0.081077546
206	0x3c970b2c	0.018437944
207	0xbdc983cf	-0.098395936
208	0xbdf448d4	-0.11927953
209	0x3dc4c148	0.09607178
210	0x3d72e08a	0.05929617
211	0x3d813c44	0.06310323
212	0xbd825f4e	-0.06365834
213	0x3d3aaf32	0.045577236
214	0x3dd7cbea	0.105369404
215	0xbcd1c138	-0.02560483
216	0x3c12d708	0.0089624
217	0x3d82ef6a	0.06393321
218	0xbdcb6537	-0.099314146
219	0xbd9b4907	-0.07582288
220	0x3d4af35e	0.0495485
221	0xbc904fc2	-0.017616156
222	0x3dc28f7e	0.09500025
223	0x3cc8f639	0.02453147
224	0xbd8e4fc0	-0.06948805
225	0x3e149419	0.1450962
226	0xbdc3380b	-0.09532174
227	0x3da547ac	0.08070311
228	0x3c310fbc	0.010806974
229	0xbcbc5edb	-0.02299445
230	0xbd80591c	-0.06266996
231	0xbc50c516	-0.012742301
232	0x3c9df1ec	0.019280396
233	0xbc67ae39	-0.014140659
234	0xbcc646ae	-0.024203625
235	0xbb0b7177	-0.0021277347
236	0xbd0fc3e6	-0.035098933
237	0x3dc1d8fa	0.09465213
238	0x3d9d323d	0.07675598
239	0xba9bae21	-0.0011877456
240	0xbd3b0f9f	-0.045669194
241	0x3e06874e	0.13137552
242	0x3d101b28	0.03518215
243	0xbd86b997	-0.06578367
244	0xbd19b12a	-0.037522472
245	0xbd82fc2b	-0.063957535
246	0x3d846b80	0.064658165
247	0xb98e7554	-0.00027171767
248	0xbd1d5c33	-0.038418006
249	0x3d346bd4	0.044048145
250	0x3d6c4216	0.057680212
251	0xbd6bb078	-0.05754134
252	0xbdab55e6	-0.08365993
253	0x3d52c375	0.051455934
254	0x3cb9487a	0.022617567
255	0x3d112836	0.03543874

_backbone.linear_layers.0.bias f4 [128]
0	0x3d57bd41	0.05267072
1	0x3da2af57	0.079436
2	0x3d0d4c71	0.03449673
3	0xbccc4af3	-0.024938082
4	0x3d1ecb48	0.038768083
5	0x3df2ba34	0.11851922
6	0xbc8b3fee	-0.016998257
7	0x3d91c0d8	0.0711686
8	0xbda1d373	-0.07901659
9	0xbc1b2de6	-0.009471392
10	0x3dbaba10	0.0911752
11	0xbd8124ef	-0.06305873
12	0x3cc323c6	0.023820769
13	0x3d073071	0.03300518
14	0xbce4309f	-0.027855216
15	0x3de3bce4	0.111200124
16	0xbd70737b	-0.05870388
17	0x3d1fb530	0.038991153
18	0x3be3d2f1	0.0069526364
19	0x3ca693df	0.020334182
20	0x3d6df5da	0.05809579
21	0x3da308d2	0.07960667
22	0xbdc14e49	-0.0943876
23	0xbdcec28c	-0.100957006
24	0x3da21ac6	0.07915263
25	0x3d4f61eb	0.05063049
26	0xbcb5d6ad	-0.022197092
27	0x3dbf7dd9	0.093501754
28	0xbde321fa	-0.11090465
29	0x3d048df2	0.032361932
30	0xbc82d363	-0.015969938
31	0xbd300b34	-0.042979434
32	0x3ca6fc2d	0.020383919
33	0xbd5fd9dd	-0.05465113
34	0x3d6da1cf	0.05801564
35	0xbd87ed57	-0.06637066
36	0xbd7e4120	-0.062073827
37	0x3d7d37f2	0.06182093
38	0x3daa61ce	0.08319436
39	0xbd903983	-0.070422195
40	0x3dc3e2e6	0.09564762
41	0xbd0ef198	-0.03489837
42	0x3bdc6f2e	0.006727121
43	0xbdeb697c	-0.11494729
44	0xbdd1f851	-0.10252441
45	0x3d90b18f	0.070651166
46	0xbdb7db20	-0.08977342
47	0x3d2eafb4	0.042648032
48	0x3d3c7ec0	0.046019316
49	0x3c923e2f	0.017851917
50	0xbddec65d	-0.108776785
51	0xbcb90b60	-0.022588432
52	0x3d7ffdb0	0.062497795
53	0x3d96931b	0.07352277
54	0x3b6b719b	0.0035925868
55	0xbc0b5a16	-0.008505365
56	0x3d89ab87	0.06722169
57	0x3db10f90	0.086455464
58	0x3d3d71d6	0.04625114
59	0x3cc771b9	0.02434622
60	0xbd28d8c5	-0.041222353
61	0x3d40e846	0.047096513
62	0xbdd4aa40	-0.10384035
63	0x3d03d9ba	0.032190062
64	0xbd793a3e	-0.06084656
65	0xbdc17a7f	-0.094471924
66	0x3bc0d6c3	0.0058849766
67	0xbbd36899	-0.006451678
68	0x3c6f0ec0	0.014590919
69	0x3da2b955	0.079455055
70	0xbc945c90	-0.018110543
71	0x3cd6d498	0.02622442
72	0xbdc3c70d	-0.0955945
73	0xbd518898	-0.051155657
74	0x3cfc4cb6	0.030798297
75	0x3d975187	0.07388597
76	0xbcfe4dde	-0.03104299
77	0xbcd28c77	-0.025701744
78	0xbdc1df75	-0.09466449
79	0x3da9c97f	0.082903855
80	0xbd0bfd27	-0.03417697
81	0xbce06147	-0.027390135
82	0x3d9b3c59	0.0757987
83	0xbce4a580	-0.027910948
84	0x3d2c58ec	0.04207699
85	0xb7310f55	-1.0553592e-05
86	0x3d95c0c3	0.07312157
87	0xbc760c3b	-0.015017564
88	0x3dd00e67	0.10158997
89	0xbd347944	-0.04406096
90	0x3dc5a442	0.0965047
91	0x3d90ac92	0.07064165
92	0x3bdf75e6	0.0068194745
93	0xbda1f917	-0.07908838
94	0x3d756cd1	0.05991823
95	0xbdf323db	-0.11872073
96	0xbd5c32b0	-0.053759277
97	0xbc883211	-0.016625436
98	0xbc435edb	-0.011924471
99	0xbcc2fe24	-0.023802824
100	0x3d812e55	0.06307665
101	0x3d4e8410	0.050418913
102	0x3d4585cb	0.048223298
103	0x3d769de9	0.06020919
104	0xbda6880b	-0.08131417
105	0xbdb4bbb4	-0.08824864
106	0xbcc217fb	-0.023693075
107	0x3d597229	0.053087387
108	0x3dab50bf	0.083650105
109	0xbd8fd967	-0.07023888
110	0x3db165cf	0.086619966
111	0x3cb47d22	0.022032324
112	0xbd6176be	-0.055044882
113	0xbde1f38c	-0.11032781
114	0xbd1809d3	-0.037118744
115	0xbd678cb4	-0.05653067
116	0xbd46f944	-0.048577562
117	0xbd96e813	-0.073684834
118	0xbd03fec1	-0.032225374
119	0xbc923eee	-0.017852273
120	0xbd28ecb8	-0.041241378
121	0xbdb8da07	-0.090259604
122	0xbd02e9c7	-0.03196123
123	0x3dbf83fb	0.09351345
124	0xbc34c912	-0.011034267
125	0xbd299040	-0.041397333
126	0xbd7f8618	-0.06238374
127	0xbd038b61	-0.032115344

_backbone.linear_layers.2.weight f4 [64, 128]
0	0xbb9dc340	-0.0048145354
1	0xbd7e764d	-0.06212454
2	0xb983bce4	-0.00025127002
3	0xbc5a3095	-0.013317247
4	0xbd847e0a	-0.064693525
5	0xbc9c3f8b	-0.019073268
6	0xbba95991	-0.005168148
7	0x3c400414	0.011719722
8	0x3d087124	0.033311024
9	0x3c92e3cd	0.01793089
10	0xbd9bdbff	-0.0761032
11	0x3c8c6e6a	0.017142493
12	0xbb1e6616	-0.0024169735
13	0xbdac510c	-0.08413896
14	0xbd3565ba	-0.044286467
15	0x3cbd80b2	0.023132656
16	0xbd6e9da5	-0.05825581
17	0xbd36ca59	-0.044626568
18	0xbdb826f8	-0.08991808
19	0xbbf29392	-0.0074028457
20	0xbcf82db3	-0.030295229
21	0xbcf66665	-0.030078122
22	0xbd1ab468	-0.037769705
23	0x3d88d7bb	0.06681772
24	0xbc680ec6	-0.0141636785
25	0xbd73105b	-0.05934177
26	0x3e0507a5	0.12991197
27	0x3d92aec1	0.07162238
28	0xbc63921d	-0.013889817
29	0xbccc1e67	-0.02491684
30	0xbd290a49	-0.041269574
31	0x3d884511	0.06653798
32	0xbdf247fe	-0.11830138
33	0x3d958d28	0.07302314
34	0xbd8cd100	-0.06875801
35	0x3d26e83f	0.04074883
36	0x3d72a70f	0.05924135
37	0x3c5e72ba	0.013577158
38	0x3d0334c3	0.03203274
39	0xbdb4f622	-0.088360086
40	0x3de8f57b	0.11374947
41	0x3d91a19c	0.07110903
42	0x3deaac2c	0.114586204
43	0xbd6d81a8	-0.057984978
44	0xbaec2c8f	-0.0018018651
45	0xbcbc3afd	-0.022977347
46	0xb9f481f5	-0.00046636132
47	0x3d5126e8	0.051062495
48	0x3cc15993	0.023602283
49	0x3d48190e	0.04885202
50	0x3d335395	0.043780882
51	0x3d4e98cd	0.05043869
52	0x3dac9cfb	0.08428379
53	0x3d56a163	0.052400004
54	0xbd66e881	-0.056374077
55	0xbdae0fa5	-0.08499078
56	0x3c2e63fa	0.010643953
57	0xbc34b532	-0.011029528
58	0x3d3c1a11	0.045923296
59	0x3bcb34fa	0.0062013837
60	0xbd9de60f	-0.07709896
61	0x3c75ee6b	0.015010457
62	0xbd6d2cb5	-0.057903964
63	0x3db735d0	0.08945811
64	0xbd856b8e	-0.06514655
65	0x3d98b511	0.07456411
66	0xbdf32442	-0.1187215
67	0xbdb4a502	-0.08820535
68	0x3d7bc40b	0.061466258
69	0x3ca90cc0	0.020635962
70	0x3d7da14a	0.061921395
71	0x3d6ef4c0	0.05833888
72	0xbd346c91	-0.04404885
73	0xbbf744d3	-0.0075460463
74	0x3d3827fe	0.044960015
75	0xbca39b1d	-0.019971425
76	0xbd2ef264	-0.04271163
77	0x3df62afe	0.12019919
78	0xbd6478f5	-0.055779416
79	0x3d9ccc7e	0.07656191
80	0xbd0eabbe	-0.034831755
81	0x3dfaa375	0.12238208
82	0x3daf7d85	0.08568863
83	0x3c80e3f9	0.015733706
84	0xbdc87e99	-0.097897716
85	0x3d056f75	0.032576997
86	0x3bcc2b86	0.0062307743
87	0x3dcd6cb1	0.10030497
88	0xbccd029b	-0.025025656
89	0x3de60793	0.112319134
90	0xbd903ea0	-0.07043195
91	0xbd508c43	-0.050915014
92	0x3d91462b	0.070934616
93	0xbdf2b04b	-0.118500315
94	0xbd392964	-0.04520549
95	0x3d95a35a	0.073065475
96	0xbd39057f	-0.045171257
97	0xbbf64964	-0.007516073
98	0x3dd16147	0.10223632
99	0xbd08e69b	-0.033423048
100	0xbd369232	-0.044573016
101	0x3de97e22	0.11401011
102	0x3dbaa1e1	0.09112907
103	0x3e29dcfc	0.16588205
104	0xbd4be7d1	-0.049781624
105	0xbbee6983	-0.0072757616
106	0xbe29ca1b	-0.16581003
107	0x3b514608	0.003193261
108	0xbdcd9ce7	-0.10039692
109	0xbdf001c6	-0.11719088
110	0xbd5604fb	-0.052250843
111	0xbd9a2466	-0.07526474
112	0xbd851e5c	-0.06499931
113	0x3d007099	0.03135738
114	0xbd0af180	-0.03392172
115	0x3e144f9a	0.1448349
116	0x3dc8344e	0.09775601
117	0xbd4c0402	-0.04980851
118	0x3d19fe1d	0.037595857
119	0x3d7a7322	0.061144955
120	0x3d86b9b9	0.065783925
121	0x3d2392cc	0.03993492
122	0xbd63c516	-0.055607878
123	0x3d88c9c4	0.06679109
124	0x3d396f71	0.045272294
125	0xbd0ea23a	-0.03482268
126	0xbd628272	-0.055300184
127	0xbd32a99a	-0.043618776
128	0x3d071b92	0.032985277
129	0x3c81a62a	0.015826304
130	0xbce5125a	-0.027962852
131	0xbcc0aebc	-0.02352082
132	0xbd9e1896	-0.07719533
133	0xbce413d3	-0.027841484
134	0x3d5e011b	0.054200273
135	0x3d1db69a	0.03850422
136	0x3c19ff63	0.009399268
137	0xbd10813f	-0.03527951
138	0xbcdd6438	-0.027025327
139	0x3da711d1	0.08157695
140	0x3d8d97de	0.06913732
141	0x3d8a74d7	0.06760567
142	0xbd01d705	-0.0316992
143	0x3d0c3740	0.034232378
144	0xbd7c9ddd	-0.061673988
145	0x3cb31fbf	0.021865724
146	0xbd892df8	-0.06698221
147	0xbdba758a	-0.0910445
148	0x3db63a4c	0.08897838
149	0x3ce660c1	0.028122308
150	0xbd945aa8	-0.07243854
151	0x3cf10cb7	0.029425008
152	0xbd6e0b85	-0.058116455
153	0x3d2f2025	0.042755265
154	0x3d2b88fe	0.041878693
155	0xbd38639f	-0.04501688
156	0xbd0f6a70	-0.035013616
157	0x3cad5aa3	0.021161383
158	0x3dc4df67	0.09612923
159	0x3d094940	0.033517122
160	0x3dab4335	0.08362428
161	0x3d67e289	0.056612525
162	0xbdb0101f	-0.08596825
163	0x3c0f3818	0.008741401
164	0xbd96ddfe	-0.073665604
165	0xbd7515ce	-0.059835248
166	0x3c83eb2d	0.016103351
167	0x3b43e055	0.002988835
168	0x3dc5d14e	0.09659062
169	0x3c948b4a	0.018132824
170	0x3da34e73	0.079739474
171	0x3d482f33	0.048873138
172	0x3b0dc237	0.0021630654
173	0xbd9f338c	-0.07773504
174	0x3b17f630	0.002318751
175	0xbda8ee78	-0.08248609
176	0x3d2601d6	0.040529095
177	0x3d55a76b	0.052161615
178	0x3d7e31de	0.062059276
179	0xbc726eda	-0.014796937
180	0xbcb96390	-0.022630483
181	0x3d894f0a	0.06704529
182	0x3c1de6ba	0.009637529
183	0x3d819c46	0.06328635
184	0x3c63f7b2	0.013914036
185	0x3daf9205	0.08572773
186	0x3d6bb1c2	0.05754257
187	0x3d1a68fd	0.03769778
188	0x3dac75bf	0.08420896
189	0xbc3846b9	-0.01124733
190	0xbcf359e8	-0.029705957
191	0xbcf79ee7	-0.030227138
192	0xbd8f45b4	-0.06995717
193	0xbd9bd495	-0.07608906
194	0x3d296fe0	0.041366458
195	0x3d3573a6	0.044299744
196	0x3d968962	0.073504224
197	0xbdd0fe60	-0.10204768
198	0xbc9fe74d	-0.019519472
199	0x3da3b89d	0.079941966
200	0x3d3fa99d	0.046792615
201	0xbd976676	-0.0739259
202	0x3d35e596	0.044408403
203	0x3d45e657	0.048315372
204	0x3d976107	0.07391553
205	0xbc6ede53	-0.014579373
206	0x3d8875a9	0.06663067
207	0xbd70fcdb	-0.05883489
208	0x3c11517c	0.008869525
209	0x3be4fefb	0.006988404
210	0x3da3d294	0.07999149
211	0xbd9cfe36	-0.076656744
212	0x3d9026fa	0.07038684
213	0x37047e41	7.897209e-06
214	0x3c5a41cf	0.013321354
215	0x3c92dd1c	0.017927699
216	0x3d3b871f	0.04578316
217	0x3db1ca3f	0.086811535
218	0x3d1cc07d	0.03826951
219	0xbd9e01c0	-0.077151775
220	0xbd82765b	-0.06370231
221	0xbd917eae	-0.0710424
222	0xbd8579dd	-0.06517384
223	0xbc929e76	-0.017897826
224	0xbddc4671	-0.10755623
225	0xbba7a5d7	-0.005116205
226	0x3c210132	0.009826945
227	0xbdb5e477	-0.08881467
228	0x3d3b69f1	0.04575533
229	0xbbcb9ff8	-0.006214138
230	0xbcbd9504	-0.023142345
231	0x3d20e845	0.03928401
232	0x3d51e303	0.051241886
233	0x3bc60855	0.0060434737
234	0xbd70550c	-0.058674857
235	0xbd714077	-0.05889937
236	0xbd897a5c	-0.06712791
237	0xbd6228ee	-0.055214815
238	0xbd3e6b96	-0.04648932
239	0xbccab07f	-0.024742363
240	0x3cfbb30b	0.030725023
241	0x3d946beb	0.07247146
242	0xbb81c491	-0.0039602
243	0x3d3294d7	0.043598976
244	0xbc90b76b	-0.017665586
245	0xbd209954	-0.039208725
246	0xbc95a6e4	-0.018268056
247	0xbb95dfc5	-0.0045737945
248	0x3d957642	0.072979465
249	0xbd51dd56	-0.051236473
250	0x3d00ce4e	0.031446747
251	0xbd9e74a9	-0.07737095
252	0xbd91c814	-0.0711824
253	0xbd3693cd	-0.044574548
254	0xbdae7526	-0.08518438
255	0xbb92fc63	-0.0044856532

_backbone.linear_layers.2.bias f4 [64]
0	0x3d9a387c	0.07530305
1	0x3d801ecb	0.06255873
2	0xbd48485e	-0.04889714
3	0xbac43cc8	-0.0014971728
4	0x3d82527f	0.06363391
5	0xbd02a992	-0.031899996
6	0xbd9f9330	-0.07791746
7	0xbd6af77f	-0.057364937
8	0xbb070389	-0.0020601472
9	0x3d5d9a52	0.05410225
10	0xbd9336ae	-0.07188164
11	0xbc865245	-0.016396651
12	0x3cfb75f5	0.030695895
13	0xbc7838e7	-0.015150285
14	0xbd01bf4a	-0.031676568
15	0xbd069d79	-0.03286502
16	0x3d0a11d2	0.0337084
17	0xbdb586bd	-0.0886359
18	0xbdcd3087	-0.100190215
19	0xbd309561	-0.04311121
20	0x3d5b42a7	0.05353036
21	0x3dbac187	0.09118944
22	0x3d8c346d	0.06845937
23	0xbda37fca	-0.07983358
24	0x3d2eda89	0.04268888
25	0x3d66f6b9	0.056387637
26	0xbda22540	-0.07917261
27	0x3cd1040b	0.025514623
28	0xbdcf9d86	-0.10137467
29	0xbc2ec5d9	-0.010667288
30	0xbcfc46c7	-0.030795468
31	0x3d521ec0	0.051298857
32	0xbc00c893	-0.007860321
33	0xbb4cb7fd	-0.0031237595
34	0x3cd1265c	0.025530986
35	0xbd9497dc	-0.072555274
36	0x3d87c412	0.06629194
37	0x3d83ad63	0.06429555
38	0xbcc82f85	-0.024436722
39	0x3db0bbcd	0.0862957
40	0xbc7d4eca	-0.015460679
41	0xbd418c5d	-0.047253
42	0x3d3ebefd	0.04656886
43	0x3d0beb97	0.034160223
44	0xbabc697d	-0.00143747
45	0x3d5aba0a	0.053400077
46	0x3ca34a76	0.019932967
47	0x3da0aa5d	0.07844994
48	0x3d8f1358	0.069861114
49	0x3b9006f4	0.00439536
50	0xbd8add65	-0.06780509
51	0x3d291a8f	0.041285094
52	0xbdaaaba2	-0.083335176
53	0xbd4db6d5	-0.05022319
54	0x3d0f2f37	0.034957137
55	0xbd4d0f0c	-0.050063178
56	0xbd469b66	-0.048488043
57	0x3d732857	0.059364643
58	0x3cf768b0	0.030201286
59	0x3cc658bc	0.024212234
60	0x3d4494da	0.04799352
61	0x3d157a61	0.036493663
62	0xbd4e576b	-0.050376337
63	0xbc855091	-0.016273769

_backbone.linear_layers.4.weight f4 [32, 64]
0	0xbde5a5fb	-0.11213299
1	0xbe052826	-0.13003597
2	0xbde9a335	-0.114080824
3	0x3d52a286	0.051424526
4	0xbc94c68d	-0.018161083
5	0x3da329ad	0.079669334
6	0x3da39c86	0.07988839
7	0x3dbb15c3	0.0913501
8	0xbd4733d2	-0.048633404
9	0xbbf8248d	-0.0075727166
10	0x3dc4fd68	0.09618646
11	0xbdb5ff17	-0.08886545
12	0x3c642b92	0.013926404
13	0x3d83499e	0.06410526
14	0xbc9c4596	-0.01907615
15	0xbc6a3572	-0.014294969
16	0x3de9ad5b	0.11410018
17	0x3bd859fa	0.006602523
18	0xbd33f898	-0.04393825
19	0xbdf412df	-0.11917662
20	0xbd55a3eb	-0.052158277
21	0xbe04c589	-0.12965979
22	0x3dbdc8e3	0.09266832
23	0xbce538fd	-0.027981276
24	0x3d25adc4	0.04044892
25	0x3d76f782	0.060294636
26	0xbba9d1fc	-0.005182503
27	0xbe0241a4	-0.12720352
28	0x3d2bc38e	0.041934542
29	0xbd997c49	-0.07494409
30	0xbda77038	-0.08175701
31	0x3d5d833a	0.054080226
32	0xbda60a72	-0.08107461
33	0x3dc20869	0.0947426
34	0x3db6dce8	0.08928853
35	0x3d578575	0.05261751
36	0xbd8021f6	-0.062564775
37	0xbdd0f02d	-0.1020206
38	0x3d9b0a25	0.07570294
39	0xbdb532e5	-0.08847598
40	0xbd056a73	-0.03257222
41	0x3da84ef8	0.08218187
42	0x3dd80cef	0.10549342
43	0x3ddac186	0.10681443
44	0xbdc5b0e2	-0.09652878
45	0xbde281f7	-0.11059945
46	0x3c45707a	0.012050742
47	0xbd2e1dc4	-0.042508855
48	0xbbc1fee9	-0.0059202802
49	0x3d41c37e	0.047305577
50	0x3c18abde	0.00931832
51	0xbdfa88cb	-0.122331224
52	0xbdcab1fe	-0.098972306
53	0x3d8b2eac	0.06796011
54	0xbd2baf9d	-0.041915525
55	0xbdc74c09	-0.097312994
56	0x3c5c6976	0.013452878
57	0xbda6f1c0	-0.08151579
58	0xba8d6419	-0.0010787278
59	0x3d565078	0.052322835
60	0x3bba0537	0.005676891
61	0xbd968c66	-0.073509976
62	0x3c24c045	0.010055606
63	0x3d1c86f0	0.038214624
64	0x3dcb9b55	0.099417366
65	0x3d3373bb	0.04381154
66	0x3c397045	0.011318271
67	0xbdc66257	-0.096867256
68	0x3da95135	0.08267442
69	0x3e477db6	0.19481549
70	0x3e28b7a3	0.16476302
71	0x3b87eb22	0.004147903
72	0xbdabd3d3	-0.08390012
73	0xbdae1010	-0.084991574
74	0x3d4386d2	0.047735997
75	0xbd55d006	-0.05220034
76	0x3cfec41e	0.031099375
77	0x3c33dccc	0.010977935
78	0x3dc7543d	0.09732864
79	0x3d6229dc	0.0552157
80	0xbdc77646	-0.09739356
81	0xbc340997	-0.0109886145
82	0xbd49ab7b	-0.049235802
83	0x3e0af5e7	0.13570367
84	0x3c3d8b63	0.011568877
85	0xbe0151e6	-0.12628898
86	0x3d1c9a0d	0.03823285
87	0xbdcf7988	-0.10130602
88	0x3d8e3012	0.069427624
89	0xbdc491e2	-0.095981374
90	0x3d896cbc	0.067101926
91	0xbdd79dd0	-0.10528147
92	0xbae5624c	-0.0017500608
93	0x3bd63df5	0.0065381476
94	0xbd08d63d	-0.03340744
95	0xbc39f56d	-0.011350018
96	0x3d308b4c	0.043101594
97	0x3d79bb04	0.060969368
98	0x3e928cd4	0.28623068
99	0x3d82af03	0.06381037
100	0xbd82328a	-0.06357296
101	0xbd2353a2	-0.03987468
102	0xbb62ab59	-0.0034586994
103	0xbab75aa5	-0.0013988806
104	0x3d9ad918	0.075609386
105	0x3ddf6eea	0.10909827
106	0x3d868dc2	0.06570007
107	0xbd756230	-0.059908092
108	0xbbe25056	-0.0069065494
109	0xbd9c5248	-0.076328814
110	0x3da8f343	0.082495235
111	0x3d6b2680	0.057409763
112	0xbcb23c09	-0.021757143
113	0x3ac87d93	0.0015296213
114	0x3c87cfc4	0.016578563
115	0xbca9f776	-0.020747881
116	0xbd064c08	-0.032787353
117	0x3c8fc84c	0.017551564
118	0xbc902893	-0.017597472
119	0x3db570ec	0.08859429
120	0x3d4a7133	0.04942436
121	0x3c720d42	0.014773669
122	0xbcaa36d7	-0.020778103
123	0x3dda4be5	0.10659007
124	0x3d8ca990	0.06868279
125	0x3c4b7afb	0.012419458
126	0x3d8af3d1	0.067847855
127	0x3d809192	0.06277765
128	0x3bf87d3e	0.0075832894
129	0xbda4c6cf	-0.08045732
130	0x3d12d779	0.035850022
131	0x3be985ae	0.0071265316
132	0x3cb9370d	0.022609258
133	0x3e5e0f6d	0.21685572
134	0xbcc37537	-0.023859603
135	0x3dd1e560	0.10248828
136	0xbd6948bf	-0.05695414
137	0xbd3c5cb8	-0.04598686
138	0x3da16d61	0.078821905
139	0xbceeaab6	-0.029134136
140	0xbaea1c5b	-0.0017861234
141	0x3dfb1c55	0.12261263
142	0xbdc2b5ff	-0.09507369
143	0x3d5745ca	0.05255679
144	0xbd9daffb	-0.07699581
145	0x3e01c610	0.12673211
146	0x3d8f6a06	0.07002644
147	0x3da57f37	0.08080905
148	0xbd0784cd	-0.033085633
149	0xbdc43050	-0.095795274
150	0x3da7f3f9	0.08200831
151	0xbdaef3ad	-0.08542571
152	0x3dee1ad3	0.1162621
153	0x35525883	7.83599e-07
154	0x3ded7ebe	0.1159644
155	0x3db9d37b	0.0907354
156	0xbb2783d3	-0.002556075
157	0x3d12252b	0.035679977
158	0x3dfd16ef	0.1235789
159	0xbb855a77	-0.004069622
160	0x3deb2701	0.11482049
161	0x3da8420e	0.08215724
162	0x3eb47dd2	0.35252243
163	0x3cfc0df0	0.030768365
164	0xbdfb708e	-0.122773275
165	0x3cf722f3	0.030168032
166	0x3d69ed77	0.05711123
167	0x3c553af2	0.013014542
168	0xbdc56c6f	-0.09639823
169	0xbd7371e1	-0.059434775
170	0xbcdd6443	-0.027025348
171	0xbd8d19a1	-0.06889654
172	0x3d14c13e	0.036317103
173	0xbe0caba0	-0.13737345
174	0xbd06f606	-0.03294947
175	0xbd3080e6	-0.043091677
176	0xbdd89947	-0.1057611
177	0x3cd51151	0.026009234
178	0x3dc8435b	0.09778472
179	0x3d6148fe	0.05500125
180	0x3dcd53b6	0.10025732
181	0xbd42c9c0	-0.047555685
182	0x3e37b4e6	0.17940101
183	0x3d78b50b	0.06071953
184	0xbd172c62	-0.03690756
185	0x3d68c056	0.05682405
186	0x3df6ef74	0.12057391
187	0x3d0f583d	0.03499626
188	0xbcbe142c	-0.023202978
189	0xbd82a91e	-0.06379913
190	0xbb408307	-0.0029374973
191	0x3ddb34d2	0.10703434
192	0xbcd38f49	-0.02582516
193	0x3dbf3ca1	0.09337736
194	0xbda4b981	-0.080431946
195	0x3cce1be0	0.025159776
196	0xbdd1c5b9	-0.10242791
197	0x3c00f884	0.007871751
198	0x3e30140f	0.17195152
199	0x3da7fefa	0.0820293
200	0xbdce1669	-0.10062868
201	0x3d178317	0.03699025
202	0x3e025a7f	0.12729834
203	0xbd9f785a	-0.07786627
204	0x3e185480	0.14875984
205	0x3c0aec59	0.008479201
206	0xbcdf4058	-0.027252361
207	0x3d8d43da	0.06897707
208	0x3cc5bd42	0.024138097
209	0xbc9d4c92	-0.01920155
210	0xba6a1f3e	-0.0008931047
211	0x3de20d19	0.110376544
212	0xbd7ff340	-0.06248784
213	0x3cf33269	0.029687123
214	0xbd5764b1	-0.05258626
215	0x39b2ccfa	0.00034103525
216	0xbca60262	-0.020264808
217	0x3da86f65	0.08224372
218	0x3d989171	0.07449616
219	0xbc8c7f77	-0.017150624
220	0x3e49b442	0.19697669
221	0x3e116823	0.14199881
222	0x3d11440a	0.035465278
223	0xbd33e8e2	-0.043923266
224	0xbc433311	-0.011914031
225	0x3d968c79	0.07351012
226	0x3e772b79	0.24137677
227	0x3d9872be	0.0744376
228	0x3d7ee3a0	0.0622288
229	0x3df5e334	0.12006226
230	0x3dcb3c1a	0.09923573
231	0x3d790334	0.06079407
232	0xbbb09352	-0.0053886557
233	0x3d23360c	0.039846465
234	0x3da61d17	0.08111017
235	0x3e0202c6	0.1269637
236	0xbd46a100	-0.048493385
237	0xbe13eefe	-0.14446637
238	0xbd2f89e8	-0.042856127
239	0xbe01f6e6	-0.1269184
240	0xbda363a1	-0.07977987
241	0xbc286d5d	-0.0102799805
242	0x3df8112e	0.12112652
243	0xbd2ef353	-0.04271252
244	0x3a11091c	0.00055326684
245	0x3cc27447	0.023737086
246	0x3d7d26c6	0.061804555
247	0x3c37852f	0.011201187
248	0x3e092063	0.13391261
249	0x3c90adf5	0.017661074
250	0x3d500ef6	0.050795518
251	0xbda12f74	-0.07870379
252	0xbd549f38	-0.051909655
253	0xbdbe4572	-0.092905894
254	0x3d945c2e	0.072441444
255	0x3dbe49c5	0.09291414

_backbone.linear_layers.4.bias f4 [32]
0	0x3cf7e503	0.030260568
1	0x3dc9ccef	0.09853541
2	0xbdc6a620	-0.096996546
3	0x3d4dfa24	0.05028738
4	0x3d43bd4e	0.047787957
5	0x3d7030b4	0.058640197
6	0xbde8c4f0	-0.11365688
7	0x3d44129d	0.047869314
8	0xbc8f39d4	-0.01748363
9	0xbc062ccd	-0.008189392
10	0xbdca266f	-0.09870612
11	0x3caf2683	0.021380669
12	0xbd92d7e7	-0.07170086
13	0x3d37dd17	0.044888582
14	0xbc926fab	-0.017875513
15	0xbd2c4895	-0.042061407
16	0xbceb4035	-0.02871714
17	0x3d19d3bc	0.03755544
18	0x3beb7e5d	0.0071866945
19	0x3ce19f9c	0.027541928
20	0x3dde3681	0.108502395
21	0x3dfc7112	0.12326254
22	0x3daf04e4	0.08545855
23	0x3da2d727	0.07951193
24	0x3d523b43	0.051326048
25	0x3d5fcbee	0.054637842
26	0xbd1f8a21	-0.03895009
27	0xbd4f444e	-0.05060225
28	0x3dd90e09	0.1059838
29	0xbda1cd90	-0.07900536
30	0xbd63f622	-0.055654652
31	0x3c5f1364	0.013615463

_embedding_layer.cat_embedding_layers.0.weight f4 [8, 4]
0	0x3f1115d3	0.56673926
1	0x3f646ad2	0.89225495
2	0x3e29b8f0	0.16574454
3	0x400e7b14	2.226262
4	0xbf3cee84	-0.73801446
5	0x3e9d1e58	0.30687213
6	0x3f00a190	0.50246525
7	0x3f31ee83	0.69504565
8	0xbf3d8695	-0.7403348
9	0xbf2d5229	-0.6770349
10	0x3f5cab08	0.8619847
11	0x3fb7948f	1.4342211
12	0x3ea1ae69	0.31578377
13	0x3f5cfcd9	0.86323315
14	0x3fa472f8	1.2847586
15	0x3e3bb1ce	0.18329546
16	0x3ee35eb0	0.44408178
17	0xbf973c41	-1.1815263
18	0x3f22af68	0.635489
19	0xba43b9de	-0.0007466356
20	0x3ea64fd2	0.32482773
21	0x3e4740ec	0.1945836
22	0x3eee7fc4	0.46581852
23	0xbfd7d6a6	-1.686238
24	0xbc23ca16	-0.0099969115
25	0x3f8c044d	1.0938812
26	0xbf063739	-0.52428013
27	0x3f5ea679	0.8697277
28	0xc015c681	-2.3402407
29	0x3f78a6e9	0.97129685
30	0x3f5e8d57	0.8693442
31	0x3fb72cad	1.4310509

_embedding_layer.cat_embedding_layers.1.weight f4 [8, 4]
0	0xbf34fd4a	-0.7069899
1	0xbe160a15	-0.14652283
2	0x3f87f77b	1.06224
3	0xbed16841	-0.40899852
4	0xbf32ffbc	-0.6992147
5	0x3f1d112e	0.6135434
6	0xbf29ba0f	-0.6629953
7	0xbe9b3a2c	-0.3031782
8	0x3eca1801	0.3947144
9	0x3f3e37c1	0.74303824
10	0xbe0150fc	-0.1262855
11	0x3fd0a586	1.6300514
12	0x3eaf5cc8	0.34250474
13	0x3ea48aa9	0.3213704
14	0x3fbd167e	1.4772489
15	0xbfb9bb06	-1.45102
16	0xbf814543	-1.0099262
17	0x3fc10bbd	1.5081707
18	0x3f69bdb8	0.9130511
19	0xbf06e708	-0.52696276
20	0xbeeb3834	-0.45941317
21	0xbf983e98	-1.1894102
22	0x3f579360	0.8420925
23	0x3ed1751f	0.4090967
24	0xbfb891d7	-1.4419507
25	0xbd7e5ff9	-0.062103245
26	0x3d71d4c4	0.0590408
27	0x3f962d96	1.1732662
28	0xbf4d723d	-0.8025244
29	0xbe316807	-0.1732484
30	0xbe0d16c4	-0.13778216
31	0x3f5cd210	0.8625803

_embedding_layer.cat_embedding_layers.2.weight f4 [3, 2]
0	0x3ef526b3	0.47881088
1	0x3f07939b	0.52959603
2	0x3fb80ea6	1.437947
3	0xbf5dc5ad	-0.86629754
4	0xbf350e09	-0.7072454
5	0x3f39ff90	0.7265558

_embedding_layer.cat_embedding_layers.3.weight f4 [4, 2]
0	0xbd9e77c9	-0.07737691
1	0x3eec0416	0.46096867
2	0x3f0d744b	0.55255574
3	0x3f8b0318	1.0860319
4	0x3ecb53b6	0.39712304
5	0x3fa2cf56	1.2719524
6	0x3c94d07e	0.018165823
7	0xbefbacbf	-0.49155232

_embedding_layer.cat_embedding_layers.4.weight f4 [5, 3]
0	0xbfd524be	-1.6651838
1	0x3e3b049a	0.18263474
2	0x3f0591e9	0.52175766
3	0x401d33ec	2.456294
4	0x3f8704d1	1.0548345
5	0xbf1ac32c	-0.6045406
6	0x40054af7	2.0827005
7	0xbce2dbab	-0.027692636
8	0xbf3a711f	-0.7282886
9	0xbf8753a1	-1.0572397
10	0x400c292b	2.1900127
11	0x3f5c0b55	0.8595479
12	0xbf787665	-0.97055656
13	0x3f0cf0cd	0.5505493
14	0x3baf4e89	0.0053499383

_embedding_layer.cat_embedding_layers.5.weight f4 [6, 3]
0	0x3e129a6f	0.14316724
1	0x3f602fb0	0.87572765
2	0x3fb9b32d	1.4507805
3	0x3f0cbe0c	0.5497749
4	0x3e8ed62f	0.27897784
5	0xbf14142f	-0.578433
6	0xbf48a042	-0.78369534
7	0xbeee256f	-0.46512935
8	0xbffa3fe6	-1.955075
9	0x3f38e206	0.72219884
10	0x3e8c0ef5	0.2735516
11	0x3f9da39b	1.2315553
12	0x3fc2d073	1.5219864
13	0xbd99cf97	-0.07510298
14	0xbec08309	-0.37599972
15	0x3e3297b2	0.1744068
16	0xbfec80ca	-1.8476803
17	0x3d8e3131	0.06942976

_embedding_layer.cat_embedding_layers.6.weight f4 [8, 4]
0	0xbedf6617	-0.43632576
1	0xbf64c305	-0.89360076
2	0xbf68f770	-0.9100256
3	0x3f7923ae	0.9732007
4	0x3fe4ab17	1.7864712
5	0x3fb69085	1.4262854
6	0xbfa35ade	-1.2762105
7	0x3f5a85fc	0.85360694
8	0x3f9ac50a	1.2091382
9	0x3ed216fc	0.4103316
10	0xbfcfcdcb	-1.6234678
11	0xbf9e9099	-1.2387878
12	0x3f942fd9	1.1577102
13	0x3ee3fc3d	0.4452838
14	0xbee57fbc	-0.44824016
15	0x3f58f082	0.84741986
16	0xbf8e020d	-1.1094376
17	0xbecb0155	-0.39649454
18	0xbeef0370	-0.4668231
19	0x3d0b8dc0	0.03407073
20	0x3f80fa5b	1.0076402
21	0xbfae47c0	-1.3615646
22	0xbe2003bb	-0.15626423
23	0x3fa2fc3d	1.2733227
24	0x3f360ff3	0.71118087
25	0xbee537b7	-0.4476907
26	0xbfe5462b	-1.7912039
27	0xbf4e90ff	-0.80689996
28	0xbf046670	-0.5171881
29	0x3fc34962	1.525677
30	0x3fbee9cd	1.49151
31	0xc0035ad7	-2.0524194

_embedding_layer.cat_embedding_layers.7.weight f4 [10, 5]
0	0xbf4cd101	-0.80006415
1	0xbcbfff8d	-0.023437286
2	0x3ea4e86b	0.3220857
3	0x3f8912ac	1.0708823
4	0x3f8f620d	1.1201798
5	0xbe486650	-0.19570279
6	0x3f985b90	1.1902943
7	0xbf9c340a	-1.2203381
8	0xbeca7e72	-0.39549595
9	0x3c87b382	0.016565088
10	0x3f167be3	0.58782786
11	0x3f039787	0.5140309
12	0x3f472ddc	0.7780435
13	0x3f1caf0f	0.6120462
14	0xbfc7f9ac	-1.5623069
15	0x3fdcdb2c	1.7254386
16	0x3f1e474e	0.6182755
17	0x4000c24d	2.0118592
18	0x3fd1729b	1.63631
19	0xbc2a9266	-0.010410881
20	0xbf3fff6d	-0.74999124
21	0x3f904d23	1.127354
22	0xbdb89467	-0.090126805
23	0x3fa86fe0	1.3159142
24	0x3eb856a0	0.3600359
25	0xc00f467e	-2.2386775
26	0x3f8f85af	1.1212672
27	0xbdac390d	-0.08409319
28	0xbfa9ea29	-1.3274585
29	0x3fa93d85	1.3221899
30	0x3e290570	0.1650598
31	0xbee721b2	-0.45142895
32	0xbf3710f5	-0.7151025
33	0x3ef401e2	0.47657686
34	0x40032851	2.0493357
35	0xbf5b2f40	-0.8561897
36	0x3ffaa4f0	1.9581585
37	0xbf373d8b	-0.7157828
38	0x3e3447be	0.17605492
39	0x3d8a3226	0.06747846
40	0xbfb6e174	-1.4287553
41	0x3fc8dece	1.5692995
42	0xbdf1b996	-0.11802976
43	0x3f2355aa	0.6380259
44	0x3de412b7	0.11136382
45	0xbeac4b73	-0.33651313
46	0x3e8ba368	0.27273107
47	0x3d57f285	0.05272152
48	0x3fba4022	1.4550822
49	0xc0066a99	-2.1002562

_embedding_layer.normalizing_batch_norm.bn.weight f4 [57]
0	0x3f74a6e9	0.95567185
1	0x3f84cc1d	1.037479
2	0x3f7fe48a	0.999581
3	0x3f7da55d	0.9908045
4	0x3f77acab	0.96747845
5	0x3f75ac6d	0.95966226
6	0x3f778476	0.96686494
7	0x3f75ed4e	0.96065223
8	0x3f7bfa08	0.9842839
9	0x3f75093a	0.95717204
10	0x3f76f668	0.96469736
11	0x3f7dd753	0.99156684
12	0x3f7d55bf	0.98958963
13	0x3f7b285d	0.98108464
14	0x3f8204f9	1.0157768
15	0x3f80e69e	1.0070379
16	0x3f77e70c	0.96836925
17	0x3f7964bc	0.97419333
18	0x3f7d1171	0.9885474
19	0x3f77a798	0.967401
20	0x3f79d639	0.975925
21	0x3f7df228	0.99197626
22	0x3f779f5b	0.9672753
23	0x3f74c5ed	0.9561451
24	0x3f770af7	0.96501106
25	0x3f79df7a	0.97606623
26	0x3f7af19d	0.9802492
27	0x3f754f51	0.9582415
28	0x3f78c1dd	0.9717081
29	0x3f849a8f	1.0359668
30	0x3f7ed928	0.99550104
31	0x3f771be6	0.96526945
32	0x3f966de0	1.1752281
33	0x3f899547	1.0748681
34	0x3f8b3475	1.0875384
35	0x3f7d8c3f	0.99042124
36	0x3f815c67	1.0106324
37	0x3f7d08b1	0.9884139
38	0x3f7bfc55	0.98431903
39	0x3f7e1f19	0.992662
40	0x3f81eb67	1.0149964
41	0x3f81350d	1.0094315
42	0x3f74ec4b	0.95673054
43	0x3f7ed3e7	0.9954209
44	0x3f84dfd2	1.0380805
45	0x3f739d2c	0.951617
46	0x3f78b5de	0.9715251
47	0x3f70691e	0.93910396
48	0x3f7a2b4a	0.97722304
49	0x3f7b1005	0.9807132
50	0x3f8aa97d	1.0832974
51	0x3f793eb1	0.97361284
52	0x3f7625fb	0.96151704
53	0x3f79134b	0.97295064
54	0x3f83cfd7	1.0297803
55	0x3f850144	1.0391011
56	0x3f834da8	1.0258074

_embedding_layer.normalizing_batch_norm.bn.bias f4 [57]
0	0xbb79af20	-0.0038098767
1	0xbc01da7a	-0.007925624
2	0x3ca646ab	0.020297369
3	0x3cda8e36	0.02667914
4	0xbc6c993d	-0.014440832
5	0xbc139488	-0.009007581
6	0x3bdf001f	0.0068054344
7	0x3c66616a	0.014061311
8	0xba310a22	-0.0006753524
9	0x3bbba02c	0.005725881
10	0x3c6854ed	0.014180404
11	0x3c00aabd	0.007853207
12	0x3cca68be	0.024708148
13	0x3c7947a7	0.015214837
14	0x3ac5fdc0	0.0015105531
15	0x3ad5ec04	0.0016320948
16	0xbc6beff3	-0.01440047
17	0x3b908d2a	0.0044113593
18	0x3b90e913	0.004422316
19	0x3c923ef5	0.017852286
20	0x3bcf7272	0.0063307816
21	0x3c1a4b74	0.0094174035
22	0x3cf7d526	0.030253004
23	0x3be5d30b	0.0070136837
24	0x3b3b0fc9	0.0028543344
25	0x3c2346d2	0.009965615
26	0xbc6debbe	-0.014521537
27	0xbc36ed71	-0.011165009
28	0xbca3a534	-0.019976236
29	0xbc451134	-0.012028027
30	0x3cfa0855	0.030521551
31	0xbb8633b0	-0.004095517
32	0x3d0f5617	0.03499421
33	0x3d0adc06	0.033901237
34	0x3b9fae2b	0.0048730574
35	0x3c08b53a	0.008343989
36	0x3c030cbc	0.007998642
37	0x3b8c06c2	0.0042732665
38	0x3c0c2c19	0.008555436
39	0xbaf90c1f	-0.0019000805
40	0x3b697dc7	0.0035627948
41	0xbc14c982	-0.009081246
42	0x3cc02454	0.023454823
43	0xba1a13b3	-0.0005877569
44	0x3bad252e	0.005283973
45	0x3ba4f944	0.0050345976
46	0x3cced1dd	0.025246555
47	0xbb92c166	-0.0044786213
48	0xbacf4565	-0.0015813528
49	0x3c4431bc	0.011974748
50	0xb9e83f5d	-0.00044297698
51	0x3c92f55f	0.017939268
52	0xbc97a602	-0.018511776
53	0x3c8720e6	0.01649518
54	0xbc77e995	-0.015131374
55	0xbc1d2088	-0.009590276
56	0x3cb76fe8	0.022392228

_embedding_layer.normalizing_batch_norm.bn.running_mean f4 [57]
0	0x37040d02	7.870842e-06
1	0xbd56f777	-0.052482095
2	0x3d5ee0f6	0.05441376
3	0x3c5e039a	0.013550663
4	0x3c83bb0a	0.016080398
5	0x3cd7f107	0.026360048
6	0x3ca2b433	0.019861316
7	0x3cad0f28	0.021125391
8	0x3c7f26ec	0.015573245
9	0x3cf82b46	0.030294072
10	0x3c6936d5	0.014234264
11	0x3d420334	0.047366336
12	0x3d887176	0.06662266
13	0x3cecc246	0.02890123
14	0x3d59fff6	0.05322262
15	0x3bb34874	0.0054712836
16	0x3d3cf3cf	0.04613095
17	0x3a4dd622	0.00078520377
18	0x389a12a8	7.346767e-05
19	0x3b72941b	0.0037014547
20	0x3d63965d	0.05556332
21	0x3d3d6ffb	0.04624937
22	0x3d20c3df	0.039249297
23	0x3d88e37a	0.06684013
24	0x3d865edf	0.06561064
25	0x3c13ccb0	0.009020969
26	0x3d85fde6	0.06542568
27	0x3d6e0d44	0.05811812
28	0x3c33b3ea	0.010968188
29	0x3ca0b9f3	0.019619917
30	0x3d6b147a	0.057392575
31	0x3d6c6a5c	0.05771862
32	0xba0a5b38	-0.0005277875
33	0x3d43b7ce	0.04778271
34	0x3d874908	0.066057265
35	0x3d91ff70	0.07128799
36	0x3d9ef205	0.07761005
37	0x3c3d1d35	0.011542608
38	0x3cb8a9c5	0.02254189
39	0x3c89d097	0.016823096
40	0x3ca74e20	0.020422995
41	0x3cf39ddc	0.02973836
42	0x3d3ce19b	0.04611359
43	0x3d6d3cf2	0.05791945
44	0xbd4d46c6	-0.050116323
45	0x3c87ee3e	0.016593095
46	0x3b865089	0.004098956
47	0x3c65e30b	0.014031182
48	0x3c1b03f4	0.009461392
49	0x3c20d8c4	0.009817306
50	0x3c0c0c8b	0.008547912
51	0x3bd58f86	0.0065173535
52	0xbd3714cf	-0.04469758
53	0x3cc6739c	0.024225049
54	0x3bf86fed	0.007581702
55	0x3cc7e315	0.024400273
56	0xbd38b2d3	-0.045092415

_embedding_layer.normalizing_batch_norm.bn.running_var f4 [57]
0	0x3e6cf0c3	0.23138718
1	0x3eca7b6e	0.39547294
2	0x3ecae92b	0.39631018
3	0x3d83630b	0.06415375
4	0x3d998151	0.07495368
5	0x3e05fbfe	0.13084409
6	0x3da5cbfa	0.08095546
7	0x3e0fb5c1	0.14034177
8	0x3d981e63	0.07427671
9	0x3e149a82	0.14512065
10	0x3d745732	0.05965347
11	0x3ed215be	0.41032213
12	0x3eac69d8	0.33674502
13	0x3ee5af92	0.44860512
14	0x3ea6166e	0.32438987
15	0x3a822f9b	0.00099324
16	0x3e732ccb	0.23747556
17	0x3c7ffb28	0.015623845
18	0x3c309579	0.010777825
19	0x3c3f3b50	0.011671856
20	0x3f35b446	0.709782
21	0x3f3d4603	0.73934954
22	0x3e645759	0.22298945
23	0x3ede30a1	0.43396476
24	0x3ed908ae	0.42389435
25	0x3d9afa35	0.075672545
26	0x3ebb2e01	0.36558536
27	0x3eb78dab	0.35850272
28	0x3d810f2f	0.06301724
29	0x3f5d9469	0.8655458
30	0x3f34681a	0.70471346
31	0x3f31ecef	0.69502157
32	0x3f38fc6e	0.7226018
33	0x3f1b0aae	0.6056317
34	0x3f17ee03	0.5934755
35	0x3ee57f74	0.44823802
36	0x3edaf22e	0.42762893
37	0x3d56924d	0.052385617
38	0x3f611d55	0.8793538
39	0x3d9d7c43	0.07689717
40	0x3f63490e	0.8878335
41	0x3f5aa06d	0.8540104
42	0x3e7890c8	0.2427398
43	0x3eb1836a	0.34670573
44	0x3eb9b749	0.36272648
45	0x3d83633c	0.06415412
46	0x3d11f42b	0.035633247
47	0x3d6ec7be	0.058295958
48	0x3d4c7419	0.049915407
49	0x3cb8f3b4	0.022577144
50	0x3f37a11b	0.717302
51	0x3c9e0a41	0.019291999
52	0x3f3e1896	0.74256265
53	0x3dd9b049	0.10629327
54	0x3d6d2fc6	0.05790689
55	0x3e1c0f31	0.1524017
56	0x3e8441ec	0.25831544

head.layers.0.weight f4 [2, 32]
0	0xbda3d1dd	-0.079990126
1	0x3e0c897c	0.13724321
2	0x3e4d092e	0.20023033
3	0x3e29e17a	0.16589919
4	0x3e333c61	0.17503501
5	0x3dd20120	0.10254121
6	0xbd07d40f	-0.03316122
7	0x3cc93beb	0.024564704
8	0x3e41085a	0.18850842
9	0xbd8658cf	-0.06559908
10	0x3e2715a6	0.16316852
11	0x3d1cfb34	0.038325503
12	0x3d9d505b	0.07681342
13	0x3d0444ff	0.032292362
14	0xbd1bb336	-0.038012706
15	0x3d39af41	0.04533315
16	0x3bfc2a50	0.0076954737
17	0xbdfdaac3	-0.12386086
18	0x3d77f708	0.06053832
19	0x3b8cb0ba	0.0042935284
20	0xbde15ab3	-0.11003628
21	0x3d67acae	0.056561165
22	0x3e15a223	0.14612631
23	0xbdf4b662	-0.11948849
24	0x3e426c2e	0.1898658
25	0x3e3fdcfd	0.18736644
26	0x3e1db50c	0.15401095
27	0xbe43c3c4	-0.19117647
28	0xbac77381	-0.0015216918
29	0x3e03da0d	0.12876149
30	0xbde47d3d	-0.111567
31	0x3e347b43	0.17625146
32	0x3db8fe3f	0.090328686
33	0xbdda11a0	-0.10647893
34	0x3def2d67	0.11678582
35	0xbe1653fa	-0.14680472
36	0x3c5a6270	0.013329133
37	0x3d34669b	0.044043165
38	0xbe289a05	-0.16465004
39	0xbe272343	-0.16322045
40	0x3d6e8f4d	0.05824213
41	0x3c8c599e	0.017132577
42	0xbe22b99d	-0.15891118
43	0xbab85324	-0.0014062864
44	0x3e15792c	0.14597005
45	0xbd8af9ed	-0.06785951
46	0x3d403ffa	0.046936013
47	0x3d791f58	0.060820907
48	0x3df2daad	0.11858115
49	0x3d2ad212	0.041704245
50	0xbd8e9883	-0.06962683
51	0xbe48a774	-0.19595128
52	0xbd9199c6	-0.07109408
53	0xbcd67874	-0.026180483
54	0xbcfa0f31	-0.030524822
55	0xbc827348	-0.015924111
56	0xbd4ff62e	-0.050771885
57	0x3d9cb82b	0.07652315
58	0xbd90f361	-0.07077671
59	0x3dd0135a	0.10159941
60	0xbe488726	-0.19582805
61	0xbe5c65d5	-0.21523221
62	0x3dc557b2	0.09635867
63	0xbdc48927	-0.09596472

head.layers.0.bias f4 [2]
0	0x3dab20fb	0.083559
1	0x3d90c333	0.07068481

exp_avg f4 [128, 84]
0	0x3653327c	3.1470836e-06
1	0xb883bf07	-6.2821484e-05
2	0x379c010b	1.8597135e-05
3	0xb5b80b0b	-1.3712282e-06
4	0x379cad78	1.8677427e-05
5	0x38dbe577	0.00010485475
6	0xb7bcc5a5	-2.2503382e-05
7	0x38cafc2d	9.679082e-05
8	0x350fd0e8	5.357565e-07
9	0x38ad6004	8.267167e-05
10	0x36d36f35	6.301236e-06
11	0xb92f195b	-0.00016698746
12	0xb83d39d1	-4.5114957e-05
13	0x38dd99a3	0.00010566718
14	0x39135b5d	0.00014053048
15	0x342ac9a3	1.5905839e-07
16	0xb8b9b698	-8.855498e-05
17	0x36e7ee40	6.9120724e-06
18	0x368b1dc3	4.1459875e-06
19	0x3773dfec	1.4536065e-05
20	0xb8a35431	-7.7881276e-05
21	0xb9078ac0	-0.00012926292
22	0x3889e657	6.575573e-05
23	0x38588b5b	5.1628198e-05
24	0x388be7ca	6.6712106e-05
25	0xb849c431	-4.8104852e-05
26	0x38d6d6f5	0.00010244354
27	0x38d59f13	0.00010186261
28	0x368013a0	3.816982e-06
29	0xb62375e7	-2.435752e-06
30	0x38578e81	5.139271e-05
31	0x384968bb	4.8019672e-05
32	0x36f0ee7f	7.180322e-06
33	0x384a8035	4.8279955e-05
34	0xb7cd7cce	-2.4496021e-05
35	0x37e508df	2.7303058e-05
36	0x38bb527f	8.932221e-05
37	0xb72680b7	-9.92434e-06
38	0x3840d7dc	4.5977402e-05
39	0x37a8213c	2.0042637e-05
40	0x37d4fc24	2.5389782e-05
41	0x37ff01bd	3.0399178e-05
42	0xb7aa1faf	-2.0280333e-05
43	0x388ce29d	6.71793e-05
44	0xb89a52b9	-7.3587005e-05
45	0xb76a7db0	-1.3976751e-05
46	0x38a34efc	7.787158e-05
47	0x37a3f9a6	1.9547366e-05
48	0xb5042362	-4.922532e-07
49	0xb86708d3	-5.508291e-05
50	0xb7dfac9c	-2.6664049e-05
51	0xb7586fcf	-1.2900636e-05
52	0x38f6b795	0.00011764389
53	0x390faa37	0.00013700953
54	0x3716e376	8.993657e-06
55	0x3702b64e	7.79105e-06
56	0xb89976a4	-7.317707e-05
57	0x38640a6f	5.4369153e-05
58	0xb7f25cde	-2.8891893e-05
59	0xb81aea85	-3.6934875e-05
60	0xb865ea49	-5.481605e-05
61	0x382509c6	3.9348168e-05
62	0xb80cddc3	-3.3585133e-05
63	0x388289a2	6.224519e-05
64	0xb78978b3	-1.6387878e-05
65	0x388bf8f2	6.674406e-05
66	0xb881b09f	-6.1840976e-05
67	0xb817bc2f	-3.6176465e-05
68	0xb88d9e1a	-6.752853e-05
69	0xb9217d55	-0.00015400846
70	0xb8974eab	-7.214894e-05
71	0x3818e3d4	3.6451805e-05
72	0xb87f2610	-6.0832186e-05
73	0xb7e3c039	-2.715002e-05
74	0x36eed2e1	7.1175023e-06
75	0xb8af8f29	-8.371316e-05
76	0xb8b4bd0d	-8.618282e-05
77	0x3889f491	6.578223e-05
78	0xb85aa327	-5.2127198e-05
79	0x38027757	3.110556e-05
80	0xb8bdee72	-9.056636e-05
81	0x3910e27b	0.0001381728
82	0x3878dab5	5.9331494e-05
83	0xb8262410	-3.961107e-05
84	0xb82da5c9	-4.1400814e-05
85	0x37229149	9.689779e-06
86	0xb6dc82fd	-6.57176e-06
87	0x3697620c	4.511565e-06
88	0xb7446283	-1.1705447e-05
89	0x367b4dcd	3.74472e-06
90	0x378ca3d0	1.6765582e-05
91	0xb7009511	-7.664102e-06
92	0x37878699	1.6155931e-05
93	0x3704884e	7.899549e-06
94	0x375cb6f6	1.3155621e-05
95	0x38798399	5.9488786e-05
96	0x387663e5	5.8744004e-05
97	0x376a145f	1.395223e-05
98	0xb901b672	-0.00012370365
99	0x33068560	3.132061e-08
100	0x383f2929	4.5576282e-05
101	0x38023052	3.1039417e-05
102	0xb777ee2b	-1.47778e-05
103	0x3588b72a	1.0186097e-06
104	0xb6f368a7	-7.2541475e-06
105	0x37fbea6c	3.0030693e-05
106	0xb8e29718	-0.00010804663
107	0xb7ce38dd	-2.4583593e-05
108	0x36a563f3	4.929019e-06
109	0xb90ce4ab	-0.00013436626
110	0xb83f13c5	-4.555636e-05
111	0xb700f9d7	-7.687565e-06
112	0xb9162768	-0.00014319795
113	0xb7f7dec8	-2.9548435e-05
114	0xb69a0272	-4.5898423e-06
115	0x36edb005	7.083642e-06
116	0x388629fb	6.3974374e-05
117	0x3823db59	3.906651e-05
118	0xb6b7289e	-5.4585535e-06
119	0xb6e5a0c0	-6.8434456e-06
120	0x37d5e18c	2.5496607e-05
121	0xb34e2b02	-4.8002228e-08
122	0xb818ce67	-3.643185e-05
123	0xb78a1fda	-1.6465714e-05
124	0xb8319958	-4.23429e-05
125	0xb8772862	-5.8927e-05
126	0x3891a924	6.945644e-05
127	0x3810d2ae	3.4528486e-05
128	0xb54ec46c	-7.702681e-07
129	0x38352cc4	4.3195454e-05
130	0xb6b624ec	-5.428321e-06
131	0xb6eb84b0	-7.0189926e-06
132	0x369c167b	4.6517794e-06
133	0x382d8b56	4.137618e-05
134	0x37a0f7b0	1.9188825e-05
135	0xb58a0989	-1.0284576e-06
136	0xb7a8a586	-2.0104239e-05
137	0xb76a14a0	-1.3952289e-05
138	0xb73e9e06	-1.1361675e-05
139	0xb71581cf	-8.9113155e-06
140	0x38aa393e	8.116894e-05
141	0xb886ac3d	-6.4217e-05
142	0x386814ab	5.533236e-05
143	0x389fc973	7.619234e-05
144	0x389fa7f3	7.612994e-05
145	0xb8b617f5	-8.6828986e-05
146	0x385477f3	5.065645e-05
147	0x3832b68f	4.2608528e-05
148	0xb79692b3	-1.7949706e-05
149	0xb80a9fb5	-3.3050503e-05
150	0x3833ff9e	4.2914988e-05
151	0x3865212d	5.4628752e-05
152	0x38f89925	0.00011854087
153	0x39663e73	0.00021957773
154	0x38b2bfb6	8.52341e-05
155	0xb86b759a	-5.613789e-05
156	0x383f3334	4.5585635e-05
157	0x37949fe2	1.7717426e-05
158	0xb87e7091	-6.0663155e-05
159	0x3914fe63	0.00014209146
160	0x391ebb0e	0.00015137738
161	0xb8efec3c	-0.0001144041
162	0x38679e18	5.5221928e-05
163	0xb8af714e	-8.365755e-05
164	0x38da310b	0.00010404185
165	0xb873456e	-5.8000376e-05
166	0x3827f898	4.0047424e-05
167	0x37ab3862	2.0411044e-05
168	0xb8b27060	-8.508633e-05
169	0x38bc9e0f	8.993979e-05
170	0xb7dac893	-2.6081025e-05
171	0xb72f81d4	-1.0461041e-05
172	0x36dc1a21	6.5595527e-06
173	0xb713c447	-8.807582e-06
174	0x38090809	3.267083e-05
175	0x376f4beb	1.4263186e-05
176	0xb788fea1	-1.6331034e-05
177	0x3772ef29	1.4480008e-05
178	0xb789aa5a	-1.6410999e-05
179	0x38122a37	3.484843e-05
180	0x389fcb44	7.619572e-05
181	0xb79067cf	-1.7214477e-05
182	0xb6be0582	-5.6630824e-06
183	0x3423c6e9	1.5252921e-07
184	0x38718efb	5.759204e-05
185	0xb52534c9	-6.15441e-07
186	0x37615800	1.3431534e-05
187	0x362da61b	2.5875695e-06
188	0xb7e261a5	-2.6986769e-05
189	0xb7ea1190	-2.7903152e-05
190	0xb87b3b2e	-5.989818e-05
191	0xb937b8be	-0.00017521062
192	0xb92752b3	-0.00015957169
193	0xb8cc8297	-9.751802e-05
194	0xb9900c97	-0.000274752
195	0xb9817368	-0.00024690782
196	0xb8e1feb1	-0.00010776276
197	0x384a7fd4	4.8279602e-05
198	0x386547f0	5.466485e-05
199	0x3889a3a2	6.563148e-05
200	0xb8880d5b	-6.487473e-05
201	0x374c02e3	1.216002e-05
202	0x38ae7486	8.318671e-05
203	0x38f00042	0.0001144414
204	0xb8b37e66	-8.558929e-05
205	0x372937f8	1.0086216e-05
206	0x385af546	5.220368e-05
207	0xb6c0438b	-5.729909e-06
208	0x3828d677	4.0254057e-05
209	0x384a55d8	4.82405e-05
210	0xb796f31c	-1.79946e-05
211	0xb8661faa	-5.4865763e-05
212	0x38bdc06b	9.048063e-05
213	0x3641d7cd	2.8884854e-06
214	0xb92c9518	-0.0001645874
215	0x372b8953	1.02243675e-05
216	0xb7588089	-1.290453e-05
217	0x37fb526f	2.9959918e-05
218	0x38847eef	6.317894e-05
219	0x36c0458a	5.7301413e-06
220	0xb700112f	-7.633395e-06
221	0xb841611e	-4.6105233e-05
222	0xb6dccdd0	-6.5804707e-06
223	0xb68c21ac	-4.176245e-06
224	0x38a51c98	7.873139e-05
225	0xb795232e	-1.7778566e-05
226	0xb765a210	-1.3687197e-05
227	0x38568fad	5.1155384e-05
228	0x36506d1d	3.1057928e-06
229	0xb793d01b	-1.7620672e-05
230	0xb7b23945	-2.1245922e-05
231	0x36bfa4cb	5.711428e-06
232	0x38113053	3.46157e-05
233	0xb8cda590	-9.806e-05
234	0x38ad92ca	8.2766244e-05
235	0x380e4870	3.39229e-05
236	0x3897b089	7.233123e-05
237	0x390a4b2a	0.00013188706
238	0x389d0430	7.4871234e-05
239	0xb7ec09f3	-2.8138025e-05
240	0x38435004	4.6566143e-05
241	0x3738fc23	1.102596e-05
242	0xb7835559	-1.565616e-05
243	0x38d1272e	9.9731944e-05
244	0x38d15c9e	9.983148e-05
245	0xb863347f	-5.416991e-05
246	0x38a97f35	8.082242e-05
247	0xb8b04f3d	-8.407093e-05
248	0x38a703ae	7.963866e-05
249	0xb8cf67c6	-9.8898585e-05
250	0xb6786ffd	-3.7020066e-06
251	0x386ba221	5.617936e-05
252	0x38c6c47d	9.4779745e-05
253	0xb837ff44	-4.3868335e-05
254	0x390d6a22	0.00013486345
255	0xb80c11f1	-3.339531e-05
