Eunho/pytorch_stacking/saved_models/classification-21_epoch=14-valid_loss=0.49.ckpt (torch, 317359 bytes, 56 tensors)

_backbone.linear_layers.0.weight f4 [128, 84]
00000000: ce84 ed3d fd3f 5a3c 31ef c23d 0ad2 803d
00000010: f9cd b33e 8079 23bc 0c29 d4bd 6790 28bd
00000020: 78d8 3f3e 4edc 663e 5a68 5c3e b6c5 39be
00000030: 3513 cdbc f802 04bd 529e 1f3e c57a 9abd
00000040: 91ba 1e3e 70b5 86bc 971e e8bd f164 283e
00000050: d7aa c53d 594f 58bb ea35 2bbd a662 5cbe
00000060: 7eb6 e5bd 0a9d c3bd 419d 863e c745 c33c
00000070: c651 113d 483c d2be 19d4 98bd e8d6 4e3e
00000080: 14a5 aa3d 7bdb 60bd 2006 4a3e b42d e8bd
00000090: e260 9c3e 3516 b7bd 611e 2d3d 2c28 e03d
000000a0: e1d4 423e 8c06 fc3b 060f 033e 1330 59be
000000b0: db7e d6bc c8ad 183e 9292 303d fa5a f2bd
000000c0: 6e02 c33d a434 b83e 4ac2 043e 3b21 543b
000000d0: 708f c33d 211a 0c3e fcd2 503d 4fda 5fbe
000000e0: 996b b7bd c23b 97be ef2b 1fbd 8845 333d
000000f0: bc5b 8abe 6631 103e 793f 293e 14cb 52bd
00000100: 9164 8b3e 14d8 d6bd 696a 0ebe 9b17 3bbe
00000110: 161e 92bb f12a 2cbe 2c1c c33d ab3f c2be
00000120: ad9c 19be de64 a23d 3f7c 903e bf09 9ebe
00000130: 09e6 73be cf3a 303d 2e1f 3ebd 22ba 2abe
00000140: 42b9 88be bbb5 2b3e 7ce8 3cbd e313 493d
00000150: 348b 73bd 85a2 2ebe 5121 4f3b 39f4 893d
00000160: 8716 133e 6273 9ebe ac6c dd3d 71f1 7d3b
00000170: bac9 06be 1954 203c 2c2a 21bd c300 0fbe
00000180: 5d40 86be f016 49be 4c65 0a3e 4242 d9bc
00000190: caa6 9dbc 7d09 07bd 7142 313e fcdd 843e
000001a0: 3684 cebd ee27 d53d 9599 973d fe5f 8d3d
000001b0: fb87 7fbd 9203 f43d a799 05be a8f9 53be
000001c0: 4185 c0bd 6be6 fc3c 0c29 f5bd 5083 1b3d
000001d0: 8fa3 203e e0ea cbbd 94ef 70bd 965e 033e
000001e0: 1cd3 923e 47fd 18be be13 b83c f4a9 a13d
000001f0: 838f e23c 606c 553e 5a4f 79be 551c 7fbe
00000200: 76f2 bd3d 1356 de3d 6fc4 84bc e080 92be
00000210: eb3f c1bb 9f70 883d 8cd1 b93d 8f06 1bbc
00000220: c904 8d3d a0cd f53d 61a2 773e 32e1 903e
00000230: be45 b03c 3931 483d 34e5 ca3c 57ed ec3c
00000240: 94e4 e33c 8b2d f5bc 5e1b 3bbe 3dae 0b3c
00000250: d9e5 64be 9c8e 8f3e 4cce 2dbe b567 8d3d
00000260: 9e7b a6bb edc1 a23d 5eb3 4e3e ad17 2c3d
00000270: 6c97 2f3c 064c 49be 2632 35be 0d48 09be
00000280: 24cf fb3c c243 8cbc 1055 27be 0e46 8abd
00000290: 5885 52bb 80ec 85be 80c0 05be 7b69 083e
000002a0: f7e0 72bd a8f6 203e 2371 18bd a449 143d
000002b0: 390f 9f3e 16ac 703e 9751 6cbe 0f05 b63d
000002c0: 3a40 afbd 0dad 8c3e 2fee e23d 6164 943d
000002d0: 6dbe 0a3d cac4 853e ea2a 303d eafa cbbd
000002e0: 7d02 08be 0651 4abd ac76 2fbe 10af 6dbe
000002f0: 39bb 87bd f606 363e 5662 87bd 6880 673e
00000300: 929e 80be b596 33be 9995 29be 2aa0 07be
00000310: e7a5 073c 07d8 aabc df9b 56bd b806 7cbd
00000320: 8cee e1bd 6142 75bd 3da3 a5be 1a8b c93d
00000330: 871c 7abe 4ac3 2a3c 7325 02bd 2cf2 88bd
00000340: 4df2 0f3e 5516 763e 7454 f13d d168 99be
00000350: 8587 12be 67a6 fa3d d1b0 813e 776c 09be
00000360: 5a9d cfbd ed59 cdbc 805e 6dbe 9321 22bd
00000370: 68a8 123e 5915 e1bd a144 c7bd 2e72 da3d
00000380: 0ed7 a8bd 936a e4bb d379 403d 98d9 01be
00000390: 667a b5bd 62af 77be f2ab e53d b431 48be
000003a0: dcf2 acbe b6ec 47bd 2da5 a1be 97ae 88be
000003b0: 6f2c bcbb bc2f 48bc d791 1fbd b429 523d
000003c0: 7c4d 4a3d a5e8 ab3d 08b8 553d aa3b 853d
000003d0: 333f d0bd 36b5 8e3e 94e4 2ebe d61c 18bd
000003e0: d475 a6be dc2d 14be 475c 88bd 48b5 a53b
000003f0: f04f 76bb 407a 613e 637c 2b3e 7a0c 533e
0.11597596 0.01332092 0.095182784 0.06290062 0.35118082 -0.009977698 -0.103593916 -0.041153338
0.1873492 0.22544977 0.21524182 -0.18141827 -0.025033573 -0.032229394 0.15587738 -0.07542948
0.15500857 -0.016443938 -0.113339595 0.16444756 0.09651726 -0.003300628 -0.041799463 -0.21522006
-0.11216448 -0.09551437 0.2629185 0.023836983 0.035478376 -0.41061616 -0.074623294 0.20199168
0.083322674 -0.054896813 0.19728899 -0.11336842 0.30542666 -0.089397825 0.0422653 0.10945162
0.1902652 0.00769121 0.127987 -0.21209745 -0.026183536 0.14910042 0.04310853 -0.11833759
0.09521948 0.35977662 0.1296474 0.003236844 0.09548843 0.13681842 0.05098246 -0.21860622
-0.089560695 -0.2953778 -0.038860258 0.043767482 -0.27023113 0.14081344 0.16528119 -0.0514632
0.27225164 -0.104904324 -0.1390778 -0.18270724 -0.004459153 -0.16813256 0.09526858 -0.379392
-0.15001173 0.07929395 0.28219792 -0.3086681 -0.2381822 0.043024834 -0.046416454 -0.16672567
-0.2670384 0.16768543 -0.046120152 0.04909123 -0.059458926 -0.17054184 0.0031605551 0.06736035
0.14364062 -0.30947405 0.10811743 0.0038748647 -0.1316289 0.009785675 -0.03934686 -0.13965134
-0.2622098 -0.19637656 0.13515204 -0.026520852 -0.01924457 -0.032968033 0.17310502 0.2595061
-0.10083811 0.104080066 0.0740234 0.06903075 -0.06238554 0.119147435 -0.13046895 -0.20700705
-0.09400416 0.03087159 -0.1197072 0.037967026 0.15687393 -0.09956908 -0.05882223 0.1282905
0.2867669 -0.14940368 0.022470351 0.07893744 0.027656322 0.20842123 -0.24346676 -0.24913152
0.092747614 0.10856261 -0.016206948 -0.2861395 -0.005897512 0.06662106 0.09073171 -0.009462013
0.06885678 0.120021105 0.24183036 0.2829681 0.02151763 0.048875067 0.024767496 0.028921766
0.027818955 -0.029928943 -0.18272159 0.008525428 -0.22353305 0.2803849 -0.16973227 0.06904546
-0.0050806543 0.07947145 0.2018561 0.042014766 0.010717254 -0.19657907 -0.17694911 -0.13406391
0.03073842 -0.017122153 -0.16341043 -0.06751643 -0.0032122936 -0.26156998 -0.13061714 0.13321488
-0.059296574 0.15719092 -0.03721727 0.03620304 0.310663 0.23503146 -0.23077999 0.088876836
-0.08557172 0.27475777 0.11080586 0.07245708 0.03387301 0.261267 0.043009676 -0.099599674
-0.13282199 -0.049393676 -0.17135113 -0.23211312 -0.06627507 0.17776093 -0.06610553 0.22607577
-0.2512098 -0.17537959 -0.16560973 -0.13244691 0.0082793 -0.020854963 -0.052394744 -0.061529845
-0.11031827 -0.059877757 -0.32351103 0.09840985 -0.24424945 0.010422537 -0.031773996 -0.066868156
0.14057274 0.24031956 0.11783686 -0.2996278 -0.14309509 0.1223877 0.25330213 -0.13420282
-0.10137434 -0.025067294 -0.2318058 -0.0395828 0.14322054 -0.109904 -0.09729887 0.10666309
-0.082441434 -0.0069707124 0.04699118 -0.12680662 -0.08861236 -0.24187997 0.112144366 -0.1955021
-0.33779037 -0.04880973 -0.31571332 -0.266957 -0.0057426016 -0.012218412 -0.038957443 0.051309302
0.0493903 0.08393983 0.05217746 0.06505521 -0.10168304 0.27872628 -0.17079383 -0.037136875
-0.3251177 -0.14470619 -0.066582255 0.005057011 -0.0037584268 0.22019291 0.16746669 0.20610228

_backbone.linear_layers.0.bias f4 [128]
00000000: d0f8 293d f1a3 2d3d 2698 a6bc 4636 a83d
00000010: ecb4 51bd b84a b3bd 9aeb 78bd 2204 14bd
00000020: 1843 8cbd d77b 813d c4bc 8c3d badf 57bd
00000030: 0a31 843d 7f23 43bd 0046 813d e1de 03bd
00000040: 351f cc3d 01aa e03d 62c7 6a3d 2c4e 753d
00000050: 5eea 433d b957 88bd 7a46 b9bd 765e 1cbd
00000060: 387e 763d f273 a0bb e3c1 cc3d ee41 dcbc
00000070: c6ac e1bd 5453 a53c 3d8d bd3d c842 f7bc
00000080: 373f 203d 2f8d 01bd 7a1e f9bc 33ce 3ebd
00000090: 7eb5 c7bd 2c47 ff3c 8e77 d33d 253c 1c3d
000000a0: 7b4d e93d db47 1b3d 8132 bfbc d039 4fbd
000000b0: 4240 973b e9da 7ebd 91a9 3d3d c6a2 55bd
000000c0: e8f8 dbbc 2601 acbc 2d0b 483d fe14 65bc
000000d0: 3a4c babc 5148 09bd 7bbf 663d af34 b03c
000000e0: dc83 cbbd 535d f0bb 9716 983c 0305 9e3d
000000f0: 2666 2d3d 08d2 2d3b b6aa fe3b 4d7d c0bd
00000100: 4a46 aebd 4646 963d d81f 82bb 5ada 903b
00000110: 8241 bf3d 9372 cbbc 8537 9e3d bc4b 863d
00000120: a2d0 b4bc 0049 eebc 2565 6dbd 33fe c43d
00000130: 8e70 9dbc 7b60 99bc 52d0 b33d 4a62 db3d
00000140: fd23 9dbd 5bf3 c7bd 30f4 b23d 04f5 81bd
00000150: 7ea9 9e3d 3825 c53d 6a19 d13c 2cc4 b73d
00000160: 80c6 813c c806 cb3d 09c6 d6bd 5954 833d
00000170: 79f3 383d 301a 613b 7948 a53d 7aef 9bbc
00000180: 0d00 b33c 12c5 9c3b cd4a 3cbd ff74 2e3d
00000190: 91dc bebd 0e9e 3b3d 422c 41bd c2a5 2a3d
000001a0: 9af3 d33c eeee a8bd 65b4 183d db76 9bbc
000001b0: a33b b8bd 53df ae3c de06 4ebd 2692 c43d
000001c0: 62ca d53d cad5 933c b66f b8bd 13cb 993d
000001d0: 2cb5 0d3d fc1a 8f3d 1d0b 01bd afc1 223d
000001e0: 5e51 583d 3301 ba3d 11ce f33c 886e 263a
000001f0: a3ef 73bd ee65 ed3c 31cc 343d 239c d2bd
0.04149705 0.042392675 -0.020336222 0.08213477 -0.05119793 -0.08754486 -0.060771562 -0.036136754
-0.068487346 0.06322449 0.06871942 -0.052703597 0.06454666 -0.047641274 0.063121796 -0.032194976
0.0996689 0.10969926 0.057319053 0.059889004 0.04783093 -0.06657357 -0.090466455 -0.038176022
0.060178965 -0.0048966343 0.099979185 -0.026886906 -0.11019282 0.020181336 0.09255455 -0.030183211
0.039122786 -0.031628784 -0.03041004 -0.046583366 -0.09751414 0.031161867 0.103255376 0.038143296
0.11391731 0.037910324 -0.023339512 -0.050592244 0.0046158144 -0.062220488 0.04630429 -0.052157186
-0.026852086 -0.020996641 0.048838783 -0.013982056 -0.022741426 -0.033516232 0.056334954 0.021509496
-0.099372596 -0.007335344 0.01856546 0.077158 0.042333744 0.0026522893 0.007771815 -0.09398899
-0.085095 0.07337622 -0.003971081 0.004420561 0.093386665 -0.024834907 0.07725433 0.06557414
-0.02207214 -0.029087543 -0.057957787 0.09618797 -0.01921871 -0.018722763 0.08779968 0.107121065
-0.0767288 -0.09763213 0.08737981 -0.06345561 0.07747172 0.096262395 0.025524814 0.08972964
0.015841722 0.09913403 -0.10486991 0.064125724 0.04515407 0.0034347884 0.08070464 -0.01903509
0.02185061 0.004784235 -0.045969773 0.042592045 -0.093194135 0.04580503 -0.04716135 0.041661985
0.025872994 -0.08248697 0.037281413 -0.018977573 -0.0899575 0.021346724 -0.050299518 0.09598188
0.10438992 0.018046279 -0.09005682 0.075094365 0.034596607 0.06987569 -0.03150474 0.039735492
0.052811973 0.0908226 0.029761346 0.0006348868 -0.059554707 0.028979268 0.044140045 -0.10283687

_backbone.linear_layers.2.weight f4 [64, 128]
00000000: f118 06bd 60af 26bc 2b46 cbbe 0aad 003d
00000010: fa8a 6e3e 6999 d9bd 47b5 013d cd70 7a3d
00000020: d7bf a93d aa5b 8f3d 4208 cfbd c315 69be
00000030: 36b9 9cbd 1bd1 24be 47c4 253e 1a62 b7be
00000040: df97 27bd 6ae7 d53b 69e1 2c3d 101f fe3d
00000050: 4847 56be 11a6 11bd d45e ac3c b7f3 153c
00000060: 2206 bcbc dc3c 433e bf05 65bd dd23 fcbd
00000070: fe3e 543e e428 49be 3710 ffbd 306a 38bd
00000080: b17b fdbc 962f 683c dbd4 9ebd 25de b13b
00000090: 59db 293e 5bd1 4c3e 01ea f83d e0b0 93be
000000a0: 254f 0fbd 2419 82bd 6e33 7dbe 9918 fd3c
000000b0: 1c6f b8be ecde 023e a36b 863d 7e86 d53d
000000c0: 7d2e d23d 9389 2ebe cfb9 fabd 74ff 99be
000000d0: 08c8 83bd 6ef5 0bbe 12a1 773d 23d4 2ebe
000000e0: d25a 1ebd 3c94 9bbd d7ab 70bd 0fa2 703e
000000f0: f052 8ebd 8366 d4bd 69df d63c 6130 25bd
00000100: ef89 07bd 8a84 53bd ef80 74be 098b 3e3e
00000110: 921b 93bd 9666 37bd dcbd c13c 60f9 ca3d
00000120: fcf0 2abe 99ac 48be 0866 32bc dea7 51bd
00000130: 6828 653e 6205 04be 444d 73bd 39e9 b1bd
00000140: 2674 1abe f2b9 353e 938d 63be 8fd2 22be
00000150: e712 0dbe 4171 c0bd 73cf c73d 033f e23d
00000160: b163 32bd 151c 193d d8d5 023e 6782 073e
00000170: 2df2 a1bd 80e8 0c3d 3cc9 d73c b8ca d8bc
00000180: 494d 9e3d 9b1b 45bd 8fdb 1f3c ab1f 9cbd
00000190: 58db a33d 9bf8 8abd 0785 c33d 7d58 a43e
000001a0: 904b debd d7b0 80bc de20 8fbd a213 d7bd
000001b0: c8d6 05be c4dd 073e 0a85 333e 0d7c d03c
000001c0: 8bb9 213c b6d6 cd3c b65a bdbc 7518 40bd
000001d0: eeb6 b8bc 3603 18be fc3a 33be d924 94bc
000001e0: a291 313e e9d3 8fbd 9177 423d 5876 923d
000001f0: c70c a2bd 4b57 f0bc dbe7 94bd 19cf c2bc
00000200: e18c 18be d45f 003d 7472 b13d f401 94bd
00000210: dc01 873d 48bc 2abc e317 5ebe 9bf8 64be
00000220: 53a5 2e3d 2e0b d33d 2f04 3fbd b6ce 8fbc
00000230: 1bee 413e 7bfe 50bd b4b2 1abd a30c d3bd
00000240: 8b9f eb3a 5bc8 cd3e 7bd6 193c 22a5 ba3d
00000250: 1e3c 38bd 2330 4ebe 108d b43c d8ab 373e
00000260: f5db 3abd eac3 ffbd 88b0 0bbe 07f3 0abe
00000270: 3e74 62bd b7a2 1bbe 34c3 94bb 5f39 613d
00000280: b593 35bd 1ac4 153e a20d 043d e9a4 e2bd
00000290: db48 82bd eada 213e 6875 7e3d 1017 2ebe
000002a0: fbe2 933e 1610 82bd 5fa7 b3bd 2654 b1bc
000002b0: e890 343e 1d19 8cbd 5c80 c73d def3 133d
000002c0: 4b8f 123e 8b57 783d a5d0 e73d 3977 c3bd
000002d0: 5246 e8bd 6e53 243e 97dc b73d 5914 c7bd
000002e0: ec0d babc 4145 07be 638f 22be dfcb 213d
000002f0: 28fe 883d e9c0 3c3c b4a0 b33d 6d2c 99bd
00000300: 6a2d 25bd 1427 61be 981a 52bc 5c46 873d
00000310: d240 8fbd c0e5 07be dc6d 79bd 9f35 103e
00000320: 3192 8dbd 74c9 d9bd 9bd0 433d 795b 39bd
00000330: 8858 1cbe 87c2 41be 2e52 7e3e 642c fdbd
00000340: 52e5 453c 1b17 b1bd 63e7 b53d 8d3b 42be
00000350: 575b 6bbc 14a8 ed3d 00ec 1fbd 5219 fcbd
00000360: 641b 163d cedd 31be 3046 eabc 5a8a 553d
00000370: 551a 873c 9f2b d13d 673b 74bd 8235 533d
00000380: 3049 583d cfb4 b73d 24f5 843d 7112 303d
00000390: 753b 793e a2fd 3a3d 8679 82bd 118b 09be
000003a0: 7bc2 b03d 7af1 e3bd 805d dfbd 572d 3f3e
000003b0: b384 73bc adc9 f7bd d82a 02bc e334 49be
000003c0: 0461 b7bb 560a 923d 4bba 843d a8c0 063d
000003d0: 7997 d6bc e704 a7bd e1fc 0fbe 8f45 913d
000003e0: de78 2f3e cb41 58be c0ce e6bc b8b9 3bbe
000003f0: 7679 82bd 878f 063e cc3f ecbd 9fd9 b93d
-0.03273863 -0.010173649 -0.3970197 0.031415023 0.23295203 -0.10624964 0.03166702 0.06114273
0.08288544 0.069999054 -0.10108997 -0.22762208 -0.07652514 -0.16095392 0.16188155 -0.35817033
-0.04091632 0.006527831 0.042207155 0.124082685 -0.20925629 -0.035558764 0.021041311 0.009152344
-0.022952143 0.19066185 -0.055913683 -0.12311528 0.20727155 -0.19644505 -0.124542646 -0.045023143
-0.03094277 0.014171502 -0.07755443 0.005428093 0.1658758 0.20001738 0.12154008 -0.28845882
-0.034987587 -0.063524514 -0.2472665 0.030895518 -0.3602227 0.1278035 0.06563499 0.10426043
0.10262773 -0.17044668 -0.122424714 -0.30077708 -0.06434637 -0.13667843 0.060456343 -0.17073111
-0.03866083 -0.07596633 -0.05875763 0.2349932 -0.06949413 -0.10371115 0.026229577 -0.04032934
-0.033090528 -0.05164007 -0.2387731 0.18607725 -0.07182993 -0.044775568 0.023650102 0.09910846
-0.1669349 -0.19597091 -0.010888584 -0.05118548 0.22378695 -0.12892678 -0.059399858 -0.08687062
-0.1508337 0.17746714 -0.22221975 -0.15900634 -0.13776742 -0.093966015 0.09756365 0.11047175
-0.043552104 0.037380297 0.12776887 0.13233338 -0.079075195 0.034401417 0.026341073 -0.026463851
0.07729585 -0.04812203 0.009756937 -0.07623228 0.08000821 -0.06785699 0.09546857 0.3209876
-0.10854256 -0.015709324 -0.06988691 -0.105017915 -0.13070214 0.1326819 0.17531219 0.025449777
0.009870897 0.025126796 -0.023114543 -0.046898324 -0.022548165 -0.14844975 -0.1750297 -0.018083977
0.17340711 -0.070228405 0.04747731 0.071514785 -0.07912593 -0.0293385 -0.072707854 -0.023780392
-0.14897491 0.03134139 0.08664408 -0.07226935 0.065921515 -0.010420866 -0.216888 -0.2236046
0.042638134 0.10304867 -0.04663485 -0.017554622 0.18938486 -0.05102394 -0.03776808 -0.10305145
0.0017976625 0.40191922 0.009389515 0.09113528 -0.044979207 -0.2013555 0.02203992 0.17936647
-0.045619924 -0.124885395 -0.1364156 -0.1356927 -0.05528664 -0.1519879 -0.0045398716 0.054986354
-0.044330318 0.14625588 0.032239564 -0.1106661 -0.06361552 0.15806165 0.062123686 -0.17000985
0.2888411 -0.063507244 -0.08772158 -0.02164657 0.17633402 -0.068407275 0.097412795 0.03612124
0.14312474 0.060630362 0.11319093 -0.09544224 -0.113415375 0.16047451 0.08977621 -0.09720678
-0.022711717 -0.13210012 -0.1587501 0.039501067 0.066891015 0.011520603 0.08770886 -0.07479177
-0.040326513 -0.21987563 -0.012823723 0.06605217 -0.06994785 -0.13271236 -0.060895786 0.14082955
-0.069126494 -0.10634127 0.047806364 -0.04525325 -0.15268147 -0.18921863 0.24836037 -0.123619825
0.0120786 -0.08646985 0.08882024 -0.1896803 -0.014365039 0.11604324 -0.039043427 -0.12309517
0.036647215 -0.17369768 -0.028597921 0.052133895 0.016492048 0.10213398 -0.059626963 0.0515647
0.052804172 0.089700334 0.06492069 0.042986337 0.24339087 0.04565204 -0.06370835 -0.13431956
0.08630844 -0.111300424 -0.109065056 0.1866964 -0.014863181 -0.120990135 -0.007944785 -0.19649081
-0.005596282 0.07130878 0.06480845 0.032898575 -0.026195275 -0.08155232 -0.1406131 0.070933454
0.17135951 -0.21118848 -0.028174758 -0.18332565 -0.06370823 0.13140689 -0.11535606 0.09074711

_backbone.linear_layers.2.bias f4 [64]
00000000: d436 e93c 14da 91bd 6399 98bd 632e 0dbd
00000010: 82ba ce3c 4403 903d 798d 8d3d 4956 49bc
00000020: fdd5 ebbc f1be 7cbc 3ae2 663c d6ed 58bd
00000030: 9399 94bd a215 803d d02f 903c da18 57bc
00000040: 70b1 1ebb 60bc 3bbd ce9e a63d 0ce1 573d
00000050: 038e 0e3d c412 cb3c 8909 4cbc c9c7 7ebd
00000060: 2a3e 84bd d499 b9bd 968d 833d bf39 c3bb
00000070: 9c89 823d 35bb 1abc 73ec 7a3b 9377 313d
00000080: ff51 1cbc 4765 5dbc 67c3 bcbb 2e81 6c3d
00000090: 72b3 8fbb d671 013d 2580 5b3d 2245 9dbd
000000a0: e015 53bd 5799 72bc 2274 603d cb36 943d
000000b0: bcb0 94bd 26cf 893c 0f0b bebd 168e 76bd
000000c0: 3b8a 9bbd 951c a83d b8e2 87bd f9b5 203d
000000d0: 056a 633d 9499 abbc 358d 6cbd 843f 4bbd
000000e0: 4317 7cbd acfc 863d 4bf9 cd3c e964 9bbd
000000f0: 3f1e 753d 1569 52bd 4cf3 453d d10d c1bd
0.028468527 -0.07121673 -0.07451131 -0.034468066 0.025235418 0.07031873 0.069117494 -0.012288638
-0.028788561 -0.015426383 0.014092023 -0.052961193 -0.072558545 0.06254126 0.017600924 -0.013128484
-0.0024214648 -0.045833945 0.08135758 0.052704856 0.0348034 0.024789222 -0.012453445 -0.06220225
-0.06457169 -0.090625435 0.0642349 -0.0059578116 0.06373903 -0.009444048 0.0038287907 0.043326925
-0.009541034 -0.013512916 -0.0057605985 0.057740383 -0.004385405 0.031602703 0.053589005 -0.07679202
-0.051534534 -0.014807067 0.054798253 0.072370134 -0.07260272 0.016822409 -0.09279453 -0.060194097
-0.07594725 0.082085766 -0.0663504 0.039236043 0.05552103 -0.020947255 -0.057751853 -0.04962112
-0.06154562 0.06591162 0.025143286 -0.075876065 0.059843298 -0.051369745 0.04832773 -0.094264634

_backbone.linear_layers.4.weight f4 [32, 64]
00000000: 56bd 1f3e c42f 88be ecc9 463e 8019 9d3d
00000010: 2ce9 9e3d 965b a9bc 257d 083e 0adb 893e
00000020: 59d2 d3bb ede4 e0bc 5a12 2e3d 2ce6 ae3e
00000030: 0c12 4fbe c4d9 47bd 6144 053e 73c7 7ebe
00000040: 7159 083d 88c1 c5bd 4b27 c33d 99b1 043e
00000050: 12f5 8d3d d629 5ebe 536d f63d 3de8 9abd
00000060: 456b 6ebe b1dc 633e 88e1 a23e e5da 5dbc
00000070: 05f9 443e e98e d73d 8cc7 ad3c df7b 16bc
00000080: 3d10 c23d c458 243d f9da bbbd b54a e43d
00000090: 5cd0 33be 70f8 a53d 46f0 023e 9840 3d3d
000000a0: 7baf f83d 4bcd 1f3e 3141 49be a8cd f9bc
000000b0: ea11 fdbb 5a39 a4bd 1d3e 8dbe b1a9 763d
000000c0: 80d2 11be 64f4 b6be b600 bc3e 383b 8a3d
000000d0: 2c9d 423e 5c85 6c3e eb76 2fbe 2e93 af3d
000000e0: 26f3 823e f17c ef3d d9a0 f7be 049d a0bc
000000f0: f9f6 ea3d 06a6 463e 3ced 13bf d75d b0be
00000100: 921e f13d fa77 523e 45a5 cbbc 1b64 d13d
00000110: 9af9 debd 3776 1b3e 4a77 20be f196 333e
00000120: 7d08 8f3e db71 4f3c ff2a d73c 8158 39bd
00000130: 2965 d4bd 8b6b fdbb eb07 c9bb c2b6 673e
00000140: 128d a9bd 6070 033e f1fc dd3d 47c6 8a3d
00000150: 2e65 fb3c 0809 32bd bd50 c33d 6a3e 48be
00000160: 1749 c5be 188d 5abd 025c db3d a9c9 8ebe
00000170: 9f29 123c abd6 1f3e c38a 23be 8fab 3dbd
00000180: 87c1 103e e499 8dbd 0053 7ebd 8831 873e
00000190: ceee f53e d2a7 263e 2d8a d73d 65ac 293e
000001a0: 97de 653c 8718 cd3d 2e68 203e 2ae8 cf3d
000001b0: 7b93 163e 0b7b b73e 16e6 d6be a39b 9b3e
000001c0: d072 1e3e 427b a73d 3ab4 7d3e bdf8 62be
000001d0: 1b58 05be 21ff 31bd 3b7b 69be 529f 44be
000001e0: 62d8 913d 9719 353e 07e1 fa3d f411 90bd
000001f0: 1304 d9be cd88 ce3d a7ae c13e 45b3 b33e
00000200: 04ff 67bb fd7d 043e 65c7 a73d aa01 ad3e
00000210: c6b4 84bd d61d 18be 0f89 453e 448d 9dbd
00000220: e909 493e f4a9 c73e b548 b9bc ff2a ce3e
00000230: ac9a 90be e683 96bd b61f 5bbe 71af 9dbd
00000240: c3af 1dbd eb80 533e 6e37 bebd eb6f 01be
00000250: 2733 b23e 43a0 a0bc d7a0 253e 411a a0bd
00000260: 04f2 b8be 0404 553e 2841 19be 0faa a73d
00000270: 7861 8abe 55cd 4338 c7d4 21bc 72a3 68bc
00000280: 3749 cb3d 6167 5c3c b31c 06bc f178 053e
00000290: 5a9e b73d 412b 223e 308a 893e f7bb 713e
000002a0: 9b52 223e 10a4 93be abb8 91bd 4509 67bd
000002b0: 4eb0 d8bd 3c58 adbd 3f96 883c 73ab 33be
000002c0: d1bf ac3d e06c c7be 377a e0be f6f3 f13d
000002d0: b369 a5bd de5a ec3c 104f 24be f8e9 bb3e
000002e0: fcff 3c3e b4d3 2d3d e6c4 09be 76db 013e
000002f0: a7bc db3d e2e6 893e ae97 9c3d 1dd9 22bd
00000300: d95c e83b c3cf 5b3b 4293 6cbe 705d 1b39
00000310: e8bb ef3c a5bd ad3d 0d8e b23d 0479 04bd
00000320: c9b3 b73e e482 84be b994 63be e68f 91bc
00000330: 7fa9 83be 0243 febc f490 39be 79d5 cb3c
00000340: b0f3 e93d bea9 45be b702 4abd c63a 1fbe
00000350: c4d7 313d 934e 80bd ed13 2a3e 6a4d 5e3d
00000360: 6788 933d 256f 33bd 2997 833e e24b 133e
00000370: 3561 5d3e 6632 d03e 54f2 81be 7d47 eb3b
00000380: f0b4 a0bd 0801 8f3d 9908 8cbe e54e 85be
00000390: 2a0d a8bd bcdc b3be 1470 763e 3113 97bd
000003a0: 6596 743c f47d 1b3d 446d 1f3d 1bc9 ff3d
000003b0: b9d3 063e 1ac8 f53d d18e 063e 9725 c8bd
000003c0: 5ae2 1cbe 076a 8abe 3917 6cbd 7c2b da3d
000003d0: 707d 5bbe 9d6a 613d f28b 043c 8a58 093e
000003e0: 4613 043e 2410 973c 57ed 8a3e 7a9b bf3e
000003f0: ad97 1c3d 9340 32be e038 b2bd 5769 133e
0.1559957 -0.26598942 0.19412965 0.07670879 0.07759318 -0.020673554 0.13328989 0.26924926
-0.0064642844 -0.02745291 0.04249797 0.34159982 -0.20221728 -0.04879166 0.13014366 -0.24880771
0.033288423 -0.09656054 0.09528979 0.12958373 0.06931509 -0.21695647 0.12032571 -0.07563827
-0.23283108 0.22252156 0.31812692 -0.013540958 0.19235618 0.10525305 0.021213315 -0.009184807
0.094757535 0.040123716 -0.09172625 0.11147062 -0.17559952 0.08104026 0.1278697 0.04620418
0.12142845 0.15605657 -0.19653775 -0.030493572 -0.007723083 -0.080187514 -0.2758645 0.060220424
-0.14240456 -0.3573333 0.36719292 0.06749576 0.19005269 0.23097748 -0.17135207 0.08572994
0.25576133 0.116937526 -0.48364905 -0.01960612 0.114728875 0.1939927 -0.57783866 -0.34446594
0.11773409 0.2055358 -0.02485908 0.10224172 -0.108874515 0.15181814 -0.15670505 0.17538048
0.27936164 0.012661423 0.02626562 -0.04525042 -0.10370857 -0.0077337674 -0.006134977 0.2262831
-0.0827886 0.12835836 0.1083926 0.067761 0.030687895 -0.043465644 0.09536884 -0.19555059
-0.38532326 -0.053357214 0.107109085 -0.2788823 0.008921056 0.15609233 -0.15970902 -0.04630619
0.14136325 -0.06914118 -0.062090874 0.26404977 0.48033756 0.16274956 0.10524402 0.1656967
0.01403012 0.10014444 0.15664741 0.10151704 0.14704697 0.35836062 -0.41972417 0.3039218
0.15473485 0.081778064 0.24775782 -0.22165199 -0.13021891 -0.0434562 -0.22800915 -0.19201401
0.0712135 0.17685543 0.12249952 -0.07034674 -0.4238592 0.100846864 0.37828562 0.3509771
-0.0035399804 0.12938686 0.08192328 0.33790332 -0.06479792 -0.14855132 0.19290565 -0.0769296
0.19632687 0.3899685 -0.022617677 0.40267178 -0.28243005 -0.073493764 -0.21398816 -0.076994784
-0.038497698 0.20654647 -0.09287916 -0.1264035 0.3480465 -0.019607669 0.16174637 -0.078175075
-0.36122143 0.20802313 -0.14966261 0.08186733 -0.27027488 4.6682853e-05 -0.00987739 -0.014199125
0.09926074 0.013452382 -0.008185553 0.13034417 0.0896575 0.15836813 0.2686324 0.23606859
0.15851824 -0.28836107 -0.07115301 -0.056405324 -0.105805025 -0.08464095 0.016673205 -0.17545871
0.084350236 -0.38950253 -0.43843243 0.1181411 -0.08076801 0.028851923 -0.16045785 0.36701941
0.18457025 0.042438224 -0.13454017 0.12681374 0.10729342 0.26933962 0.07646118 -0.039757837
0.0070911464 0.0033540584 -0.2310305 0.0001481676 0.029264405 0.084834374 0.087185 -0.032341972
0.35879353 -0.25881112 -0.22224702 -0.017768811 -0.25715253 -0.031037811 -0.18121701 0.024882065
0.11423433 -0.19303033 -0.049318995 -0.15549764 0.04341866 -0.06264987 0.16609164 0.054273047
0.07203751 -0.043807168 0.25701264 0.14384416 0.21619113 0.4066345 -0.25380194 0.007180153
-0.07847011 0.069826186 -0.2735031 -0.26036754 -0.08205636 -0.35129344 0.24066192 -0.07376707
0.014928435 0.037961915 0.038922563 0.1248953 0.13166703 0.12001057 0.13140418 -0.09772795
-0.15320721 -0.27034017 -0.057639334 0.10652825 -0.2143457 0.055033315 0.008090006 0.13412681
0.12897977 0.018440314 0.271342 0.37423307 0.038230587 -0.17407446 -0.08702254 0.14395653

_backbone.linear_layers.4.bias f4 [32]
00000000: 7d35 3fbd 4746 6bbd ced0 f63c 16b2 d3bd
00000010: 89b6 9cbd 4665 08be 6a0f 43bd 521b cd3d
00000020: 63ae 8c3d b46b 793d f93a 2d3d 04cb 803c
00000030: c3bf 46bd f018 cb3b 326a 043e 233a eabd
00000040: 2325 223d 370c f4bd 40fb b6bd 8d22 af3d
00000050: 1ef8 ec3c a9ed 1fbd d1d4 cb3d 376b f13c
00000060: d068 e9bc c627 8a3d 40b1 33bd 70e5 4cbd
00000070: 06bd 2ebd 8867 0bbd 1f5a aa3c c7f8 d1bd
-0.04668187 -0.05744007 0.030128863 -0.103367016 -0.07652003 -0.13319883 -0.047622122 0.100149766
0.06869199 0.06089373 0.04229257 0.015721805 -0.048522722 0.006198041 0.12931135 -0.1143687
0.039586198 -0.11916392 -0.08934641 0.08551512 0.028926905 -0.03904501 0.09952701 0.02947007
-0.028492361 0.067458674 -0.04387021 -0.050023496 -0.042660736 -0.034034282 0.020794926 -0.10252529

_embedding_layer.cat_embedding_layers.0.weight f4 [8, 4]
00000000: 60ed e7ba 91ed 503f 731a 79be 5481 9e3f
00000010: eb2c 7d3e f98f babf 7bc2 ad3d b2fe e5be
00000020: a106 33be 7017 95bf 4a02 0c3f f004 cabe
00000030: 3ecd fc3f d035 6abe ccd4 3d3f 0d93 f23f
00000040: cabf 0fc0 d46b 0bc0 946f 863f 92d3 5ebd
00000050: 3b81 a0bf 812f 6bbf f188 843e 7437 413d
00000060: 3c22 8dbd 6b95 9abf 9b89 4dbe 9db0 553f
00000070: d811 e13e d912 8abf f23a 9c3e bea1 1fbf
-0.0017694645 0.816125 -0.24326496 1.2383218 0.24724166 -1.4575187 0.0848436 -0.4492088
-0.17482997 -1.1647778 0.5469099 -0.39456892 1.9750135 -0.2287209 0.7415283 1.8951126
-2.2460809 -2.1784563 1.0502801 -0.054400988 -1.2539438 -0.9186936 0.25885728 0.047172025
-0.06891295 -1.2076849 -0.20072024 0.83472615 0.43958926 -1.0787002 0.30513722 -0.62356174

_embedding_layer.cat_embedding_layers.1.weight f4 [8, 4]
00000000: 6c36 3e3f 5080 ec3f 5c49 babf 97f6 323e
00000010: 7178 9fbf 9d88 5d3e a5e9 cebb 5ca7 b8be
00000020: 8831 25be 0905 933f a793 91bf bc78 eb3e
00000030: a786 613f 3826 c9be d0fc fb3e eaed 733e
00000040: dd3a d3be 29fa d6bf 504b c9be 4473 debd
00000050: c103 85bf c28c 753f 7ee5 17c0 8602 a4bc
00000060: 7518 6fbe 2ede a73f bdbb ecbd c142 43bf
00000070: cfd0 0cbf 509d 873f d3ab cbbf 6855 253f
0.7430179 1.8476658 -1.4553638 0.17476879 -1.2458631 0.21634145 -0.0063144737 -0.36065185
-0.16132176 1.1485912 -1.1373185 0.4599055 0.8809609 -0.3928697 0.49216318 0.23821226
-0.41255847 -1.6795093 -0.3931527 -0.10861829 -1.0391771 0.95917904 -2.373382 -0.020020735
-0.23349173 1.3114679 -0.11559246 -0.76273733 -0.55006117 1.0594883 -1.5911812 0.64583445

_embedding_layer.cat_embedding_layers.2.weight f4 [3, 2]
00000000: c3bc 633f 8096 a23f aaa6 1ac0 f689 4d3f
00000010: 0fc1 323f ef4b 90bc
0.889599 1.2702179 -2.4164224 0.80288637 0.69825834 -0.017614333

_embedding_layer.cat_embedding_layers.3.weight f4 [4, 2]
00000000: 7ce6 93be 7681 a2be cccc e0bd f567 f6bf
00000010: 78c5 833c 266f fd3f b8d4 893f 7b8c a73f
-0.28886783 -0.31739396 -0.10976562 -1.9250475 0.016085371 1.9799545 1.0768042 1.3089746

_embedding_layer.cat_embedding_layers.4.weight f4 [5, 3]
00000000: cfed 16be ba67 3bbe 0fb0 83bf a46c 91bf
00000010: dd10 c3bd 0c5a b43e 8335 24be 0f98 5ebf
00000020: da45 90bf be75 be3f 56ff ba3e 4d4c bd3f
00000030: a2ec 3abe 4d4e 7dbf dc0f b13e
-0.14739154 -0.18301287 -1.0288104 -1.136128 -0.09524701 0.3522495 -0.16036038 -0.86950773
-1.1271317 1.4879682 0.3652293 1.478891 -0.18254331 -0.989476 0.34582412

_embedding_layer.cat_embedding_layers.5.weight f4 [6, 3]
00000000: e960 5bbf fed3 d93f 214e 87be e34b 8c3f
00000010: ea40 90be 9f72 8cbf a4f2 06bf c6b0 93bf
00000020: f422 ecbf 161c 753f c88d d43e 7807 0bbf
00000030: cc7e e4be 60f2 423f 87e4 b5bd 0e13 ac3e
00000040: 67e3 d03f 407a ff3e
-0.8569475 1.701782 -0.26426795 1.0960659 -0.28174525 -1.097248 -0.5271399 -1.1538322
-1.8448167 0.9574598 0.4151442 -0.5430827 -0.44627988 0.76151085 -0.08881479 0.33608288
1.6319398 0.49897957

_embedding_layer.cat_embedding_layers.6.weight f4 [8, 4]
00000000: 3292 d8be 580e 03bb 9ec6 82bd a13f 17bd
00000010: b32b 473e a304 273e db22 343d 1ab0 cfbe
00000020: 3794 f13e 2182 1f3f b2cc df3f 8863 e2bf
00000030: 5b0d 993f d4c1 193f bc3e 0e3f 6699 42bf
00000040: 8f2d aa3d eb23 50bf c708 713f 7c4f d33e
00000050: 2169 78be 7bae 27be 8f2e 0c3f 6a6a 36c0
00000060: 27aa 0dc0 8ea6 863f 5a8f 01be 38be 75bf
00000070: c915 da3f 30a1 9cbe 3fb0 32bf cadd 0dbe
-0.42299038 -0.0019997563 -0.063855395 -0.036925916 0.19450264 0.16310363 0.043978553 -0.40564042
0.4718339 0.62307936 1.7484343 -1.7686625 1.1957201 0.60061383 0.55564475 -0.7601532
0.08309471 -0.81304806 0.9415402 0.4127158 -0.24258853 -0.16375153 0.5475854 -2.850245
-2.2135103 1.0519578 -0.1265234 -0.95993376 1.7037898 -0.30591726 -0.6980018 -0.13854137

_embedding_layer.cat_embedding_layers.7.weight f4 [10, 5]
00000000: 362a a83f 04fd edbe ae16 0040 b257 9bbf
00000010: 3c92 2dbe 1b89 ab3e bd48 76be 81e5 7a3e
00000020: 6f79 ccbc 8281 ffbe 8488 0c3f 8d32 b93e
00000030: 7c69 95be 519c 183f 6907 283f a222 f1be
00000040: 64aa bfbe d58f bd3e c1a4 d53e 7649 b1bf
00000050: bb91 d9bf 9ae5 45bf d199 8b3e f42b b93f
00000060: 1edb ef3e b73a 49be 7720 f4be 0bbb a1bf
00000070: fb43 e4be b6d5 353f 7512 7dbf cead c93e
00000080: 4b3d 1440 a4af 303f 6249 123f 1193 0e40
00000090: 78c4 073c 5063 8ebf c9dc e2be 33ba 193f
000000a0: 6e18 5cbf 3f1f a53e 424a febe 95ec 0fbf
000000b0: 332f 05c0 a7fb 143e 3b09 14bf 71d4 773e
000000c0: f34c 5d3e 85d5 9e3e
1.3137882 -0.46482098 2.0013843 -1.2136137 -0.16950315 0.3350304 -0.24051185 0.24501611
-0.024960248 -0.49903494 0.54895806 0.3617138 -0.2918204 0.5961352 0.65636307 -0.47096735
-0.37434685 0.37023798 0.4172726 -1.3850543 -1.6997598 -0.7730347 0.2726579 1.4466538
0.4684686 -0.19651304 -0.4768102 -1.2635206 -0.44583115 0.7102922 -0.9885629 0.39390415
2.316241 0.69018006 0.57143223 2.2277262 0.008286588 -1.1124058 -0.4430907 0.6004974
-0.85974777 0.322504 -0.4966603 -0.5622037 -2.0810058 0.14549123 -0.57826585 0.24202134
0.21611385 0.31022277

_embedding_layer.normalizing_batch_norm.bn.weight f4 [57]
00000000: 15cf 623f c76d 783f eba9 753f 2d93 6f3f
00000010: ef09 723f 88e3 743f d185 703f c3e0 763f
00000020: b695 7f3f b7b2 733f 244c 783f 78b1 653f
00000030: 240a 713f 2360 653f 62a4 723f c642 7c3f
00000040: 58fa 723f a3e7 773f 0326 713f fac4 6f3f
00000050: 9be0 6d3f 3e14 673f b085 6b3f 1a02 7d3f
00000060: f760 703f c16f 763f 375b 6f3f 6ce0 703f
00000070: bdb6 763f 1bb2 7c3f f1b9 7a3f 6475 803f
00000080: 5d7e 9d3f 13e6 6c3f b16c 843f 716b 813f
00000090: 55f3 7e3f 7f62 783f 2dc3 783f c3da 7e3f
000000a0: 5d11 803f d4f9 7b3f a5f9 733f b8e2 813f
000000b0: 3999 7a3f 6182 643f b9dc 6b3f 38b9 793f
000000c0: 319f 713f 627d 723f ac6f 923f 49bf 753f
000000d0: 9cef 713f 5a51 803f 30da 813f eb53 813f
000000e0: 87d0 813f
0.8859723 0.97042507 0.959624 0.9358395 0.9454641 0.95659685 0.9395419 0.9643671
0.99837816 0.9519457 0.9699118 0.8972392 0.941561 0.8959982 0.9478208 0.9853939
0.94913244 0.96837825 0.94198626 0.9365994 0.92920846 0.9026526 0.92000866 0.9883133
0.93897957 0.9626427 0.9349856 0.9409244 0.96372586 0.9870927 0.97939974 1.0035825
1.2304188 0.92538565 1.034567 1.0110914 0.99590045 0.97025293 0.97172815 0.99552554
1.0005299 0.9842808 0.953028 1.0147314 0.9789005 0.8926144 0.9213367 0.97548246
0.9438353 0.9472257 1.144033 0.95995003 0.9450624 1.0024827 1.014471 1.0103735
1.0141762

_embedding_layer.normalizing_batch_norm.bn.bias f4 [57]
00000000: bc15 d73c bc5e 333c 5888 813c 77b7 6d3b
00000010: cb5a deba 32be 4dba 614a 8a3a b3a1 d03b
00000020: 98a7 11bc 1ece b13c 9c0f d1bc 7ce8 223d
00000030: ea6d 91bb a833 013d 1be9 8a3b cd98 06bd
00000040: 254b 0dbc c89f 00bc ec1e c3bc 7845 cb3b
00000050: c01c 11bb 8b3f 6e3b b72b 93bc 59c6 b6bc
00000060: 0acd 35bb 2699 74ba 42a9 75bb 8677 353a
00000070: 4810 f9bc 0251 ba3c dad8 ad3c a4d3 c3bb
00000080: 91fb 393c 1a11 cb3c cefc d7bb 3bff 7ebc
00000090: 8c9f 963c 266e a33a 668a 1dbb 53e0 0dbc
000000a0: 4c5b 87bc 405e c3bb fd74 23bb 8f59 6b39
000000b0: 38ab cb3c 6ab4 083a 7707 00bc d746 5b3b
000000c0: 59ef 9d3b 60c5 d73a f59e dfba f99c f63a
000000d0: 58e7 bfbc 3bad 26bb 9543 13bb b925 5abb
000000e0: 8203 08bc
0.026255481 0.010947879 0.015812084 0.0036272684 -0.0016964314 -0.00078484707 0.0010550731 0.0063669323
-0.008890055 0.02170473 -0.025520138 0.039772496 -0.0044381516 0.031543404 0.004239214 -0.032860566
-0.008623873 -0.007850595 -0.023818456 0.0062033497 -0.002214238 0.0036353793 -0.01796518 -0.022311376
-0.002774062 -0.0009330682 -0.0037484919 0.00069224124 -0.030403271 0.022743706 0.021221567 -0.0059761573
0.011351482 0.024788428 -0.006591416 -0.015563781 0.018386625 0.001246874 -0.002403879 -0.00865944
-0.016523026 -0.005962163 -0.0024941557 0.0002244471 0.024861917 0.0005214872 -0.00781428 0.0033458972
0.004819792 0.001646202 -0.0017060923 0.0018815092 -0.023425743 -0.0025432843 -0.0022470702 -0.0033286645
-0.008301618

_embedding_layer.normalizing_batch_norm.bn.running_mean f4 [57]
00000000: bbfd 8a3a db98 33bd d58d 2e3d 19b9 723c
00000010: be8e 8c3c 29a8 e83c f709 a53c e6f3 bb3c
00000020: 3a92 7f3c 4981 043d 8544 693c 1180 243d
00000030: 9b9b 7c3d 006a f03c 6c7b 423d 6d7d b53b
00000040: 8e93 583d 05ef 353a 9b3f 93b9 11e9 853b
00000050: 3246 6e3d daeb 313d 8fd0 363d 22e9 8e3d
00000060: f6ee 8b3d 1cc3 293c ade3 803d 402e 633d
00000070: 2676 3d3c bdda bd3c 54e0 883d d0d8 893d
00000080: 35d5 43bc 59ca 513d 7c53 a03d b999 a53d
00000090: aabc 8e3d 2444 2e3c 250a 0e3d b255 923c
000000a0: 9743 db3c 55e9 013d 5a49 4f3d 1553 543d
000000b0: abd5 42bd 4d91 823c af5c 3e3b 4026 3e3c
000000c0: 32c8 263c 0868 273c b679 34ba 7618 d93b
000000d0: c56a 34bd 3939 e93c fdb3 2c3c c8e9 ec3c
000000e0: d7e9 70bd
0.0010604182 -0.043846946 0.04261573 0.0148146385 0.017157909 0.028400498 0.020146353 0.022943448
0.015598828 0.03234986 0.014237528 0.040161196 0.061671834 0.02934742 0.047480986 0.0055386336
0.052875094 0.0006940219 -0.00028085415 0.0040866216 0.058172412 0.043437816 0.04463249 0.0697806
0.068326876 0.010361459 0.06293426 0.05546403 0.011563813 0.023175592 0.06683412 0.06730807
-0.011952688 0.051218364 0.078284234 0.08085961 0.069695786 0.010636363 0.034677643 0.017863128
0.026765628 0.031716663 0.050607063 0.051837046 -0.04756705 0.015938425 0.0029046943 0.011605799
0.010179566 0.010217674 -0.00068845914 0.0066252304 -0.044047136 0.028469669 0.010540959 0.02892007
-0.058816757

_embedding_layer.normalizing_batch_norm.bn.running_var f4 [57]
00000000: 7bcd 6a3e f53e c93e 1460 c63e b66b 853d
00000010: 28ad a33d 6b4c 0c3e e5d1 a03d 168a 123e
00000020: f2cd 993d e986 183e cc69 723d 057e ce3e
00000030: ae3f a93e b9cb e13e 218b a23e 756d c23a
00000040: d747 793e 8945 d13c dab4 103c faf1 603c
00000050: 09c3 333f a856 3b3f d7f2 6b3e 7326 dd3e
00000060: 65ea d73e 11b3 a03d 5939 b63e 67d2 b13e
00000070: 2a60 823d c18d 5f3f 310a 353f c7cf 323f
00000080: 38d3 3b3f 678e 1b3f 8c76 1a3f ff2d e93e
00000090: e0ef d53e 2659 493d 7d95 603f 198b a23d
000000a0: 2473 643f fd3d 5b3f 98f9 823e 3a82 ad3e
000000b0: 654b ba3e 446c 823d 1e11 033d 8cba 5c3d
000000c0: 7a5e 5a3d 7463 c83c c7e5 3c3f 7dcf a33c
000000d0: 257f 3b3f 2939 f13d bd78 893d be29 243e
000000e0: 2810 903e
0.22929947 0.39305845 0.38745177 0.06514685 0.07992011 0.13701026 0.07852534 0.14310488
0.07509984 0.14895214 0.059182927 0.4033052 0.33056396 0.4410074 0.31746772 0.0014833646
0.24343811 0.025545852 0.008832181 0.013729567 0.70219475 0.731791 0.23041855 0.43193397
0.42171016 0.07846654 0.35590628 0.34730837 0.06365998 0.87325674 0.70718676 0.69848293
0.7336917 0.60764164 0.6033714 0.45542905 0.41784573 0.049157284 0.877281 0.07936687
0.8923819 0.8564146 0.2558105 0.33888417 0.36385646 0.06368306 0.031998746 0.053888842
0.053312756 0.024461485 0.7378811 0.019996399 0.7324088 0.117784806 0.06712482 0.16031548
0.28137326

head.layers.0.weight f4 [2, 32]
00000000: 3bbc 933e e7e5 a8bd 7b78 75be 3113 b5be
00000010: bbdc 263e 87ff f4bd 55d8 823e 33d9 893e
00000020: 523c 9b3d 2801 93be f0ba c83c f557 c63d
00000030: f4cc bb3e 6774 f83d 3fe4 16bd bab3 0fbe
00000040: 1858 f23e 37bf b73e 2304 8bbd f91c 913e
00000050: 78fa 1fbe 374c b1be 8562 8cbe a8be a3be
00000060: c982 913d c6ae 50be 0e6d febe 15f2 ac3e
00000070: 10b3 cebc 6ea3 bfbd bab0 6dbe 5321 c23d
00000080: 1936 15bd 6f76 a13c 5d34 a8bd 6be5 903d
00000090: 60dc 103e 8ead cc3d 1958 54be a308 b43d
000000a0: 3d42 2e3e 996a e5be 1552 843b 1b05 96be
000000b0: b7da 1cbe 0e2c 963e ccdc d3bd 97ee 513e
000000c0: ad94 ab3c 9476 873e 6fcd 48be b784 b5be
000000d0: 5ef9 3ebe c322 1ebc cf49 25be d7b1 813e
000000e0: 18a4 793e 09b7 0ebe 2e0e 983e 2e1b 04be
000000f0: 572d ef3d d3b5 a63c b432 7d3e 11b8 fdbd
0.28854546 -0.082469754 -0.23971741 -0.35366204 0.1629514 -0.119628005 0.25555673 0.26923522
0.075798646 -0.2871182 0.024503201 0.09684745 0.36679804 0.12131577 -0.036838766 -0.14033404
0.47332835 0.35888073 -0.067878984 0.28342417 -0.1562289 -0.3462846 -0.27418914 -0.31981397
0.071050234 -0.20379171 -0.49692577 0.33778444 -0.025231868 -0.093573436 -0.23211947 0.09479012
-0.036428545 0.019709794 -0.082131125 0.07075008 0.14146566 0.099940404 -0.20736732 0.0879071
0.17017455 -0.4480789 0.0040381053 -0.2930077 -0.15317808 0.29330486 -0.10344848 0.20501171
0.020944918 0.26457655 -0.19609617 -0.35452816 -0.18649814 -0.0096518425 -0.16141437 0.25330994
0.24379003 -0.1393701 0.29698318 -0.12900993 0.1167857 0.020350372 0.24726373 -0.123886235

head.layers.0.bias f4 [2]
00000000: 7b3f 33bc d379 bc3d
-0.010940428 0.092029236

exp_avg f4 [128, 84]
00000000: e819 2038 392b 8739 a17d 1a3a 3396 00b9
00000010: ea87 8036 4edf 6fb9 3a92 4739 0f7f 81b9
00000020: 6957 9039 7a63 3fb9 aa85 2239 61c2 ffb8
00000030: 5d0b c1b9 d284 1a3a 5f34 9fb7 8120 a2b7
00000040: 1549 9439 5198 b538 1f4c 8938 5bfe f538
00000050: ff19 d9b8 0bc4 8eb8 d441 98b8 517b 8b38
00000060: 1a92 9f38 4627 42b8 9fa4 0339 443e 1239
00000070: b7a4 86b8 f7cc c939 d4c8 b839 f160 b039
00000080: 920b b836 3509 cf39 11ce c539 f29a e038
00000090: b385 a3b9 0832 8a38 9d5b 9f39 4c64 17b9
000000a0: 0989 9339 ae4a 0d3a 75d3 fab9 cd8b 8fb9
000000b0: c51f 9a39 338f 74b9 f289 3838 bec4 ae38
000000c0: f046 2cb9 8649 9435 f784 1c3a 098d 3738
000000d0: e685 1939 e27b 12b9 0dc8 bcb8 8c6e e7b8
000000e0: b69b 5b39 b3c7 84b9 8f20 38ba 8f6a af39
000000f0: 477c 67b7 e39a 3a39 773a 9eb9 84d2 2fb8
00000100: ff03 8738 f021 a239 c8fc 5937 2625 5fb8
00000110: 98d1 7fba c7fa 39ba 3403 3b35 778a a039
00000120: b4eb 0f3a fe5c 44b9 1cc2 29ba 9cd3 e038
00000130: b66b da38 b8b3 9c37 12d9 94b9 cfaf 72ba
00000140: 321a eeb9 e06d 3f39 7c69 4a3a 40c2 5139
00000150: eaf4 a737 846b 83b9 f3e3 6538 81ec d638
00000160: c4ee ac37 d64d 0a38 74c3 0bb8 6123 4637
00000170: 583b ad37 843a 1337 0a5e 2436 4448 20b9
00000180: d1bb b938 5798 0539 48c8 87b8 e80e 8f36
00000190: 8b97 1fb9 bbce 12b8 9844 5cb8 ff5d 8f38
000001a0: 3032 b738 c523 b538 14cf cdb8 d352 e838
000001b0: a803 d238 004a ae37 2ed7 9638 a767 9338
000001c0: 9f0e 9837 eb3c 1139 98e5 5839 d1c3 5e39
000001d0: 5a16 21b9 4a58 81b8 b373 a038 1480 b938
000001e0: 6936 4039 dc17 b937 a401 b4b7 3bbb b8b5
000001f0: 0741 e938 6d58 5d38 5ff8 51b8 87f6 2839
00000200: 39fc 38b9 9fa1 6c39 1c89 8736 14ce 03b7
00000210: 33bf c738 20cc 6ab8 e83f d3b8 bff9 d937
00000220: 0bef fab7 1703 35b9 e1a2 f937 c43a 2f38
00000230: c5df 3a37 b034 6039 219f 7139 0c64 34b8
00000240: 273f 8139 c5d5 53b7 9298 bfb8 0e5d 0739
00000250: d28d 5fb8 c107 b5b9 9e9c 8938 f691 e537
00000260: 6f25 0d3a 1f6b 3539 9564 ab37 f5ea 2fb8
00000270: 0cdd 6db9 b4ad 8838 87cd 4539 4a54 b137
00000280: e7b8 46b8 03f1 5236 0a85 2c38 fd9d c838
00000290: a8d3 b638 023e 53b8 97d8 9fb8 c70d 7738
000002a0: 97bc 35b8 267f b939 5678 ddb9 b826 7f37
000002b0: 3e97 68b9 f430 9c39 a57c 7737 9032 c239
000002c0: 3dca 84b8 a01d 9439 ca96 7b37 3842 bcb7
000002d0: e1aa d738 7fad 8e39 05bb 07b9 c7fe fdb5
000002e0: bcac 30b8 f0e8 70b8 725b c1b6 e980 87b6
000002f0: 2954 02ba 6e41 9238 183f b1b9 3305 0839
00000300: acd8 0c39 d644 9fb7 45c7 04b9 6535 0db9
00000310: 92c4 ee36 4b3d 0839 32bb 063a 170d 223a
00000320: a757 7c3a b177 5f3a 1e75 66b9 5126 3539
00000330: f5fc 04b9 e822 32ba ca7f 8e39 f869 fcb6
00000340: 3f1a b838 b82d 4a39 96b1 29b9 0cdd 0db9
00000350: a0c7 a439 173e 0fba 1795 c038 2f4b 97b9
00000360: 9878 cb37 26db d3b8 c144 6437 4b6a 1cb8
00000370: d2d0 d238 45a5 e537 2892 b836 c273 35b7
00000380: 76af 7739 986c 833a fbc5 af39 e018 5539
00000390: a6d1 b93a 3521 a1b7 bdf5 d5b9 55ab c736
000003a0: 2d60 beb7 dfee 253a fe7b 20b9 bc1b dfb8
000003b0: 76ec 3aba 4686 45b9 3ae0 8838 76ef 3039
000003c0: e916 3439 570b b0b8 32d3 1fb9 5d4a 6c37
000003d0: ad3a f0b7 ca02 fab8 4f97 ec38 b2bb d7b9
000003e0: 4f9e 24b9 0070 1f38 d7df a439 fcdb 7839
000003f0: c884 0536 2107 ef38 e037 e4b7 30a0 0239
3.81711e-05 0.0002578141 0.0005893354 -0.00012262985 3.8305197e-06 -0.00022876004 0.00019032593 -0.00024699463
0.00027530946 -0.00018252237 0.00015499318 -0.000121955534 -0.00036820295 0.00058944256 -1.8978664e-05 -1.932704e-05
0.0002828321 8.659124e-05 6.546848e-05 0.00011729888 -0.000103522085 -6.8076035e-05 -7.260186e-05 6.651006e-05
7.608924e-05 -4.628978e-05 0.0001255446 0.00013946841 -6.4202985e-05 0.00038490418 0.00035244843 0.00033641563
5.4849743e-06 0.00039488976 0.000377283 0.00010710013 -0.00031189396 6.589672e-05 0.000303951 -0.00014437846
0.00028140124 0.0005389851 -0.00047841264 -0.00027379245 0.0002939684 -0.00023322999 4.399749e-05 8.333613e-05
-0.00016429625 1.1048257e-06 0.0005970741 4.376195e-05 0.00014641098 -0.00013969795 -9.001801e-05 -0.00011035529
0.00020943474 -0.0002532579 -0.00070238946 0.00033457993 -1.37976085e-05 0.00017796042 -0.00030179668 -4.191931e-05
6.438046e-05 0.00030924333 1.2993063e-05 -5.320194e-05 -0.000975871 -0.00070945587 6.966759e-07 0.00030620742
0.00054901396 -0.00018726659 -0.0006475763 0.00010720568 0.00010415113 1.8680337e-05 -0.0002839049 -0.0009257765
-0.00045414414 0.00018256111 0.0007721407 0.00020004157 2.0021998e-05 -0.00025066372 5.481015e-05 0.000102483675
2.0615182e-05 3.2974254e-05 -3.3322212e-05 1.1809957e-05 2.0650841e-05 8.775507e-06 2.4492642e-06 -0.0001528571
8.856471e-05 0.0001274062 -6.474607e-05 4.2634674e-06 -0.00015219876 -3.5001645e-05 -5.251597e-05 6.8362795e-05
8.735468e-05 8.637415e-05 -9.813733e-05 0.00011078049 0.00010014261 2.0776875e-05 7.192638e-05 7.028813e-05
1.812662e-05 0.00013850971 0.00020684896 0.00021244517 -0.00015362483 -6.1676445e-05 7.650945e-05 8.845344e-05
0.00018330816 2.2064829e-05 -2.1458436e-05 -1.376356e-06 0.00011122418 5.277286e-05 -5.0060797e-05 0.00016113567
-0.00017641568 0.00022566922 4.039275e-06 -7.85619e-06 9.524673e-05 -5.5980054e-05 -0.000100731675 2.5984713e-05
-2.9913635e-05 -0.00017262656 2.975896e-05 4.177798e-05 1.1138564e-05 0.00021381932 0.00023042831 -4.300852e-05
0.0002465185 -1.2626352e-05 -9.136008e-05 0.00012909269 -5.3299424e-05 -0.00034528787 6.561841e-05 2.7366896e-05
0.0005384301 0.00017301411 2.0431626e-05 -4.1942072e-05 -0.00022684428 6.51734e-05 0.00018863949 2.1139294e-05
-4.7379082e-05 3.1432726e-06 4.1131898e-05 9.566171e-05 8.71786e-05 -5.036407e-05 -7.622054e-05 5.890222e-05
-4.33294e-05 0.00035380683 -0.00042242062 1.5208199e-05 -0.00022181586 0.00029791112 1.4751368e-05 0.00037040235
-6.33192e-05 0.00028250832 1.4995874e-05 -2.2442182e-05 0.000102838276 0.00027213615 -0.00012944273 -1.8924119e-06
-4.212254e-05 -5.74374e-05 -5.762494e-06 -4.0383206e-06 -0.0004971647 6.97401e-05 -0.0003380708 0.00012971908
0.00013432157 -1.8986331e-05 -0.00012662735 -0.00013466699 7.1158365e-06 0.00012992804 0.00051395886 0.000618176
0.00096260983 0.00085246103 -0.00021978139 0.00017275779 -0.00012682735 -0.00067953626 0.0002717956 -7.5225216e-06
8.7786924e-05 0.00019281253 -0.00016183252 -0.00013529154 0.0003142925 -0.0005464269 9.1830436e-05 -0.0002885698
2.4255642e-05 -0.000101020836 1.3605867e-05 -3.729229e-05 0.00010052476 2.7375887e-05 5.500642e-06 -1.0815393e-05
0.0002362112 0.001002687 0.00033526108 0.0002032253 0.001417686 -1.9208159e-05 -0.00040809615 5.950608e-06
-2.269455e-05 0.0006329845 -0.0001530498 -0.000106386346 -0.00071305723 -0.00018837405 6.526751e-05 0.00016873874
0.00017174672 -8.394446e-05 -0.00015242098 1.408401e-05 -2.8637553e-05 -0.000119214485 0.0001128154 -0.0004114784
-0.00015699233 3.8012862e-05 0.0003144729 0.00023733074 1.9895833e-06 0.00011397736 -2.7205737e-05 0.0001245744

exp_avg_sq f4 [128, 84]
00000000: 8e43 9a34 bb08 b734 6a54 cd34 6e8e 3434
00000010: 0736 e434 fdb4 c834 d801 7c34 2b1b ba34
00000020: 9695 0935 fafa bc34 f129 a234 18f8 1834
00000030: 5cbf 8a34 9186 7034 c6de 2935 fc39 0e30
00000040: 5110 f034 06ea d634 119d c433 b6f6 6b34
00000050: 21fb a534 55c6 a534 f99a 8f34 d905 c634
00000060: 87e8 bc34 871d bf34 3f44 eb34 8a92 f934
00000070: b7c1 f334 b391 8e34 ea14 7f34 48ff 8e34
00000080: d16e 8434 a3b8 a134 8a8e 9434 483f 9334
00000090: 8b9d b934 4e62 9933 5cee 8834 b0bc bb32
000000a0: 6a7f 8534 dc7a 8c34 e85c 9b34 fe24 b834
000000b0: 6d37 a434 0eae a834 41b5 e134 36ca 2035
000000c0: f303 7334 53a3 9134 1581 c134 5529 1333
000000d0: 73d7 9f34 43e1 8434 bebf e031 8d7e e932
000000e0: 5a68 3c34 0a5e 0a35 7158 7d35 bbf5 2134
000000f0: 825a 9133 0f91 0634 f6ab 8b34 ddb2 e334
00000100: 2ac5 f232 78b8 2935 15b8 8a33 73de 2b32
00000110: ce0c c535 7ad2 1635 7915 f832 07c9 be33
00000120: 5223 0935 5b6e 5e33 fc80 1135 6882 4e33
00000130: ed53 c132 142b 1033 1fcc 1e34 acc9 2635
00000140: 1326 2034 8281 0833 a8fb 0535 a765 9733
00000150: 03bd 4133 3b9d 9c33 748f 3134 5e4c 2734
00000160: b0a6 3531 d438 4b32 2d05 e133 6b47 5433
00000170: 0346 cd32 fc64 4033 31a8 6333 f65c 0634
00000180: 0e4a f633 252b 0934 18bc 3934 9199 4f2f
00000190: 2c6a f033 1b69 a332 03ab 3234 0edc 8034
000001a0: d284 0c34 ed0b 0234 8aab 0233 dedf 9333
000001b0: 21b9 8833 a185 a232 f5b9 3733 d79d 3d33
000001c0: 9990 f631 ec00 2a34 fc60 2f34 6c1a 2e34
000001d0: 260d 5234 48ae 0134 b894 7734 ed3f 4634
000001e0: 3017 5f33 e41e 8d30 1513 0d34 8308 5132
000001f0: 46ab 1c34 ffe2 2834 aa2d 1233 541e 5133
00000200: 4088 5633 b1b0 2934 2280 7e33 3da5 0931
00000210: 03a8 5434 8610 8e33 5b4d 5534 1805 7833
00000220: 058a 0e34 8fc8 c733 f9e9 9f31 6e25 1134
00000230: 8d09 8d33 685b 8134 6323 a834 7742 4033
00000240: 38a9 de33 5aa1 e333 d643 ff33 1df5 3c34
00000250: 973e 4632 dc70 0934 8f87 ec31 b7a0 0c31
00000260: d871 2535 7a92 6934 fdcf 9431 699a d732
00000270: 090b 4f34 7298 a532 6b00 6234 0324 2e32
00000280: 0e41 f031 c18f a031 0aab 2433 b45c 5934
00000290: d8b2 4f33 7fe0 8a32 530c 2734 76d9 0333
000002a0: fac6 b334 f834 f534 0336 2b35 4729 8533
000002b0: 5c57 e434 1cf9 1e35 d009 bc33 b68d 1e35
000002c0: 0b88 0e34 00c4 0e35 4a14 bc32 b340 1a35
000002d0: 3acf 0b35 9e1b 2735 0c34 1935 8247 a030
000002e0: fb82 bb34 fccc 6b34 0efa a230 91c8 0730
000002f0: afb7 e534 783e 0335 bb4a 8034 a2b6 b834
00000300: 680e a734 e7a5 0534 dbfe 8a34 9461 8334
00000310: 1411 0d34 7722 0b35 b240 3635 4ac5 4a35
00000320: f41f 6135 eaa6 7335 34c3 de34 c0c1 2835
00000330: bed0 8234 cb7b f135 a92b eb34 b2f7 a632
00000340: e77f e934 26a5 0435 796e 0835 a18b 9434
00000350: 8aff a934 efe0 8835 14b8 b235 622b 1a35
00000360: 08fa a933 5e85 9e33 7dda 4b35 0e2f a632
00000370: 5b24 0c35 a38f 6a33 62fb 4332 e39e 1734
00000380: 3dc8 2b34 35f3 7a35 4eac fc35 1bf2 8f34
00000390: 571f 0635 e97d e234 7941 6435 2e13 0a36
000003a0: e037 7b33 5392 6135 332f 6233 405b 9b32
000003b0: 13c6 9436 63b2 de35 2516 5f33 a4b5 5c34
000003c0: d254 ca35 16ff 1d34 49fe cf35 355b a233
000003d0: ca07 6433 b6e6 7533 8dee c734 d32e 0636
000003e0: 5cf2 0235 3f6b 0234 bffa cf35 131e 3334
000003f0: 352a 9334 a192 5134 84c3 9a34 d40a c834
2.8733888e-07 3.4092758e-07 3.8245645e-07 1.6815622e-07 4.250762e-07 3.738459e-07 2.347e-07 3.4664967e-07
5.1254153e-07 3.5200338e-07 3.0205368e-07 1.4246359e-07 2.5843735e-07 2.2400697e-07 6.3281584e-07 5.17417e-10
4.4715355e-07 4.003088e-07 9.1555314e-08 2.1975833e-07 3.0916365e-07 3.087795e-07 2.6748583e-07 3.688463e-07
3.5186915e-07 3.5598006e-07 4.3821817e-07 4.6486485e-07 4.5403223e-07 2.655557e-07 2.3756334e-07 2.6635303e-07
2.4667546e-07 3.0122928e-07 2.767086e-07 2.7426927e-07 3.4573563e-07 7.142499e-08 2.5505403e-07 2.185547e-08
2.4865886e-07 2.6166424e-07 2.8938598e-07 3.4299586e-07 3.0587708e-07 3.141908e-07 4.2041395e-07 5.98989e-07
2.2632575e-07 2.712719e-07 3.604297e-07 3.4263696e-08 2.9772818e-07 2.4750815e-07 6.5410566e-09 2.7182319e-08
1.7546827e-07 5.154585e-07 9.4378544e-07 1.508369e-07 6.768552e-08 1.2532495e-07 2.6015886e-07 4.2412185e-07
2.8262168e-08 6.3225843e-07 6.45961e-08 1.0004089e-08 1.468137e-06 5.618564e-07 2.8880764e-08 8.884131e-08
5.1087875e-07 5.178877e-08 5.4204406e-07 4.8081716e-08 2.2506322e-08 3.3566792e-08 1.4789156e-07 6.213329e-07
1.4915013e-07 3.1782754e-08 4.991257e-07 7.049976e-08 4.510822e-08 7.292916e-08 1.6536598e-07 1.5580869e-07
2.6433717e-09 1.1829076e-08 1.04783204e-07 4.942505e-08 2.3896979e-08 4.479533e-08 5.3005525e-08 1.2513541e-07
1.1468738e-07 1.2774815e-07 1.7297896e-07 1.8881098e-10 1.11951834e-07 1.9023494e-08 1.6639756e-07 2.400197e-07
1.3086836e-07 1.2111532e-07 3.0423998e-08 6.885942e-08 6.366668e-08 1.892005e-08 4.2777135e-08 4.4148546e-08
7.175981e-09 1.5832819e-07 1.6333428e-07 1.6214625e-07 1.9562557e-07 1.2077464e-07 2.3057771e-07 1.8463443e-07
5.1942322e-08 1.026788e-09 1.313859e-07 1.21673365e-08 1.4590941e-07 1.57288e-07 3.4034805e-08 4.8689188e-08
4.9949676e-08 1.5803631e-07 5.925552e-08 2.003005e-09 1.9805161e-07 6.615396e-08 1.9865313e-07 5.7746632e-08
1.3274992e-07 9.303141e-08 4.6541087e-09 1.3517794e-07 6.5675614e-08 2.409463e-07 3.1318186e-07 4.4763933e-08
1.0368461e-07 1.0599861e-07 1.1886702e-07 1.7598036e-07 1.1539348e-08 1.2800177e-07 6.883915e-09 2.0464037e-09
6.1632954e-07 2.1753104e-07 4.3310124e-09 2.5099512e-08 1.9282392e-07 1.9277852e-08 2.1048042e-07 1.0136321e-08
6.992315e-09 4.672956e-09 3.8339785e-08 2.0243425e-07 4.83586e-08 1.6167403e-08 1.555757e-07 3.0698594e-08
3.3486123e-07 4.5673346e-07 6.378106e-07 6.2008034e-08 4.2531872e-07 5.922209e-07 8.756217e-08 5.9065803e-07
1.3274273e-07 5.318434e-07 2.1895307e-08 5.746362e-07 5.208309e-07 6.2252536e-07 5.707268e-07 1.1661856e-09
3.4926765e-07 2.1960653e-07 1.1858121e-09 4.9397736e-10 4.278822e-07 4.8892207e-07 2.3896231e-07 3.4405554e-07
3.1116656e-07 1.2446945e-07 2.5889935e-07 2.447165e-07 1.3137861e-07 5.183169e-07 6.789443e-07 7.553796e-07
8.386553e-07 9.0767446e-07 4.149275e-07 6.286682e-07 2.4366267e-07 1.7991928e-06 4.3803928e-07 1.9437582e-08
4.3492693e-07 4.9414155e-07 5.0824707e-07 2.7668742e-07 3.1664632e-07 1.0198254e-06 1.3315607e-06 5.74326e-07
7.915156e-08 7.381708e-08 7.5941335e-07 1.9346341e-08 5.220697e-07 5.4613007e-08 1.1407652e-08 1.4120774e-07
1.5998462e-07 9.348617e-07 1.882561e-06 2.681198e-07 4.9964495e-07 4.2187392e-07 8.5031894e-07 2.0574766e-06
5.849131e-08 8.403196e-07 5.2662653e-08 1.808587e-08 4.4338026e-06 1.6592206e-06 5.1941374e-08 2.0555177e-07
1.5074859e-06 1.4714564e-07 1.5496709e-06 7.560303e-08 5.309247e-08 5.7253338e-08 3.7240207e-07 1.9994811e-06
4.8781453e-07 1.214621e-07 1.5495679e-06 1.6681615e-07 2.7411593e-07 1.9517985e-07 2.8826992e-07 3.7260781e-07
