Eunho/pytorch_stacking/saved_models/classification-22_epoch=11-valid_loss=0.49.ckpt (torch, 858814 bytes, 138 tensors)

_backbone.add_cls.weight f4 [32]
0	0x3e9855d8	0.29752994
1	0x3d1325e5	0.03592481
2	0xbe2827db	-0.16421454
3	0x3da8d1a8	0.08243114
4	0xbe315a3d	-0.1731958
5	0x3e31ad21	0.173512
6	0x3d6bf506	0.05760672
7	0x3e552312	0.2081416
8	0x3d5d82b3	0.054079723
9	0x3d999d60	0.0750072
10	0x3cf5585d	0.029949361
11	0x3c2a79e9	0.010405042
12	0x3dbaa7c7	0.09114032
13	0x3d93e56a	0.07221492
14	0xbdc3ea47	-0.09566169
15	0xbe2825a6	-0.16420612
16	0x3e15cfe4	0.14630085
17	0x3e22e768	0.15908587
18	0x3e666f4b	0.22503392
19	0xbda6964d	-0.08134136
20	0x3dd751af	0.10513627
21	0xbde790c4	-0.11306909
22	0x3d039514	0.032124594
23	0x3e90338e	0.28164333
24	0x3dc5f452	0.09665741
25	0xbe414408	-0.18873608
26	0xbe16809e	-0.14697501
27	0xbd93d490	-0.072182775
28	0xbdf0e521	-0.11762453
29	0x3e6de6f5	0.23232634
30	0xbbb63565	-0.0055605643
31	0xbe54b7dc	-0.20773262

_backbone.transformer_blocks.mha_block_0.mha.to_qkv.weight f4 [384, 32]
0	0x3e5efc77	0.21775995
1	0x3e514783	0.20437436
2	0xbe5d041a	-0.21583596
3	0x3e038333	0.12843017
4	0x3c8d56bd	0.017253274
5	0xbdd6473a	-0.10462804
6	0xbd78f8c4	-0.060784116
7	0xbd525027	-0.05134597
8	0xbdd11097	-0.102082424
9	0x3cffdac3	0.031232243
10	0xbddced09	-0.10787398
11	0x3b076827	0.0020661445
12	0x3de02668	0.109448254
13	0x3e6167a4	0.22012192
14	0x3cfd31dc	0.030907564
15	0xbe5d4dbb	-0.21611683
16	0xbddf3d41	-0.10900355
17	0x3e3ec247	0.18628798
18	0xbd98c55f	-0.074595205
19	0xbdabd42e	-0.083900794
20	0xbdf70139	-0.1206078
21	0xbe3f9f34	-0.18713075
22	0xbdb0a766	-0.08625679
23	0x3e724bed	0.23661776
24	0x3c0c6c1b	0.008570696
25	0x3d325790	0.043540537
26	0xbd10e805	-0.03537752
27	0x3d25befc	0.04046534
28	0xbe61e80c	-0.22061175
29	0xbdcc102b	-0.09964021
30	0xbe37793d	-0.17917342
31	0xbd1f48bb	-0.03888772
32	0x3e10d2fc	0.14142984
33	0xbda6585c	-0.08122322
34	0xbd537fc2	-0.05163551
35	0xbdeddf0a	-0.11614807
36	0xbcda8852	-0.02667633
37	0x3e1f3037	0.15545736
38	0xbdbdbe33	-0.09264793
39	0xbc0e90c7	-0.00870151
40	0xbe18169a	-0.14852372
41	0x3d59977e	0.05312299
42	0xbd9d3667	-0.07676392
43	0xbd30a3ce	-0.043124966
44	0x3e49901d	0.19683881
45	0x3e025cd8	0.1273073
46	0xbe14d4d1	-0.14534308
47	0x3d56328c	0.0522943
48	0x3e310689	0.17287649
49	0xbda996d1	-0.08280719
50	0xbc39a861	-0.011331649
51	0xbdcd08f1	-0.10011471
52	0x3e30fd31	0.17284085
53	0xbe0ade9a	-0.13561478
54	0xbc8e44e6	-0.017366838
55	0x3dd25543	0.10270169
56	0xbde29ea9	-0.11065418
57	0x3c8c4324	0.017121859
58	0x3d055508	0.032551795
59	0xbe0f19e9	-0.13974728
60	0xbd060817	-0.03272256
61	0x3d06dbe3	0.032924544
62	0xbdd38f9c	-0.10330126
63	0xbe5a2260	-0.21302176
64	0x3da0f75c	0.0785968
65	0x3dfaa893	0.12239184
66	0xbe0cf069	-0.13763584
67	0x3df0abd2	0.11751522
68	0x3dd8a541	0.10578395
69	0x3e045cdb	0.12926047
70	0x3c81b248	0.015832081
71	0xbd9e0a29	-0.07716782
72	0x3e508048	0.20361435
73	0x3e131acf	0.14365695
74	0x3e112dae	0.14177582
75	0xbe2b2c8b	-0.1671621
76	0xbc938c5b	-0.018011263
77	0x3e53f9a2	0.20700696
78	0x3e07e699	0.1327156
79	0x3c62c69d	0.013841298
80	0xbdd47e5b	-0.10375663
81	0xbd8d695b	-0.069048606
82	0xbddf5c68	-0.10906297
83	0x3b5d8198	0.0033799168
84	0xbdab359e	-0.08359836
85	0xbd42d472	-0.047565885
86	0xbcf6adb8	-0.030112132
87	0x3e12bab7	0.14329039
88	0xbdf82a53	-0.12117448
89	0xbdf7fffa	-0.121093705
90	0x3dbe46cf	0.092908494
91	0xbb690485	-0.0035555672
92	0xbd431161	-0.047623996
93	0x3e2b9b16	0.1675838
94	0xbd5492f1	-0.051897947
95	0x3d92c17f	0.07165813
96	0xbdaa6ee7	-0.08321934
97	0xbe2a2bbd	-0.16618247
98	0xbd75b9fa	-0.059991814
99	0x3e1957cb	0.14974897
100	0x3e069ee0	0.13146544
101	0x3e228c1b	0.15873758
102	0xbe3437aa	-0.17599359
103	0x3ce29558	0.027659103
104	0x3d5243d3	0.051334213
105	0x3e376219	0.17908515
106	0x3e195c10	0.14976525
107	0x3e512472	0.20424059
108	0xbda1bcd8	-0.07897347
109	0x3dc3d71e	0.09562515
110	0x3da6c159	0.08142347
111	0x3da05c30	0.07830083
112	0x3c692105	0.014229064
113	0xbd861c16	-0.06548326
114	0x3db4eedc	0.08834621
115	0x3b9efa5f	0.004851624
116	0x3d94d628	0.072674096
117	0xbd6f6781	-0.05844832
118	0x3e74b6fa	0.23897925
119	0xbce84eec	-0.028357945
120	0xbd1171ad	-0.0355088
121	0x3d2c42cf	0.0420559
122	0xbe29fca9	-0.16600288
123	0x3da9a518	0.08283442
124	0xbdb39127	-0.0876792
125	0xbd7e8484	-0.062138095
126	0xbd2f378f	-0.042777594
127	0xbe1df632	-0.15425947
128	0x3d8d4460	0.06897807
129	0x3d69a486	0.057041667
130	0xbd1bfc40	-0.03808236
131	0x3bebcf7b	0.0071963645
132	0xbd6529af	-0.055947956
133	0xbbaca295	-0.0052684047
134	0xbda2a58f	-0.07941734
135	0xbe76770b	-0.24068849
136	0x3d0ae4c0	0.03390956
137	0xbc50eed4	-0.012752254
138	0xbe3749a5	-0.17899187
139	0xbd87fe55	-0.06640307
140	0x3cc73a6e	0.024319854
141	0xbe5ceca6	-0.21574649
142	0xbdfbdc3b	-0.12297865
143	0x3d0dd35b	0.034625392
144	0xbb832100	-0.0040017366
145	0xbdfb29dd	-0.12263844
146	0xbd9ce030	-0.07659948
147	0x3e305c44	0.17222697
148	0xbe132e84	-0.14373213
149	0x3d90b4fe	0.070657715
150	0xbdc9f2ff	-0.09860801
151	0xbe460a0c	-0.1933977
152	0xbd203cae	-0.03912037
153	0x3e1eb832	0.15499952
154	0xbb8cff5e	-0.004302903
155	0xbd8d6dbf	-0.06905698
156	0xbcea6d6f	-0.028616635
157	0x3d575c40	0.05257821
158	0xbd185784	-0.037192836
159	0x3d4b7466	0.049671553
160	0xbe339d12	-0.17540386
161	0x3c61447b	0.013749237
162	0x3d9a60c7	0.0753799
163	0x3d6138f6	0.054985963
164	0x3e504839	0.20340051
165	0x3db044e3	0.08606889
166	0xbbd40c37	-0.0064711827
167	0xbc322577	-0.01087319
168	0xbb083952	-0.0020786119
169	0x3d11fff1	0.035644475
170	0x3dad907f	0.08474826
171	0x3afc6160	0.0019255094
172	0x3d5b6adb	0.053568702
173	0xbe11b105	-0.14227684
174	0x3af5129e	0.0018697565
175	0x3d0e76d4	0.034781292
176	0xbd877654	-0.06614366
177	0xbe00a7a4	-0.1256395
178	0xbda95a24	-0.08269146
179	0xbdd7066d	-0.104992725
180	0xbe1c6a33	-0.15274887
181	0x3cfce4c0	0.030870795
182	0xbd496b53	-0.049174618
183	0x3e19dc67	0.15025483
184	0xbdd20d51	-0.10256446
185	0xbe0c1fbd	-0.13683982
186	0x3dc5ef87	0.09664827
187	0x3e456d4a	0.19279972
188	0x3d983683	0.07432272
189	0xbe403622	-0.1877065
190	0xbdb21dd6	-0.08697097
191	0x3d981d69	0.074274845
192	0x3b4836d2	0.0030550254
193	0xbe639942	-0.22226432
194	0xbd80c708	-0.06287962
195	0xbe31729c	-0.17328876
196	0x3cc69dfb	0.024245253
197	0x3cda3ceb	0.026640376
198	0xbd10e59e	-0.03537523
199	0xbe4157b5	-0.18881114
200	0xbe602410	-0.21888757
201	0xbd9a5808	-0.07536322
202	0x3d4a9f40	0.04946828
203	0xbddf3832	-0.1089939
204	0xbd8719a9	-0.06596691
205	0xba2df2f5	-0.00066356297
206	0xbd9a1804	-0.07524112
207	0xbd0cc60f	-0.03436857
208	0x3d04064d	0.03223257
209	0xbd89392d	-0.067003585
210	0xbe54b05f	-0.20770405
211	0xbccc82a4	-0.024964638
212	0xbe0015c8	-0.12508309
213	0x3e47cee9	0.19512524
214	0xbe2ff6af	-0.17183946
215	0xbd959a65	-0.07304839
216	0xbe53155a	-0.20613614
217	0x3e6f597f	0.23373984
218	0x3dfc04e8	0.12305623
219	0xbd398da2	-0.045301087
220	0x3e33a9cd	0.17545243
221	0xbe644ee6	-0.22295722
222	0xbaf4eb4f	-0.001868585
223	0xbdbda5cd	-0.092601396
224	0x3e249bad	0.1607501
225	0x3dba6e0c	0.09103021
226	0x3de79df7	0.11309426
227	0xbd09b3fa	-0.033618905
228	0xbe311a2c	-0.1729514
229	0x3daa1999	0.083056636
230	0x3dfbe732	0.122999564
231	0xbc85d258	-0.016335651
232	0xbe11c8c7	-0.14236747
233	0xbd20aad4	-0.039225414
234	0x3c78ced8	0.015186034
235	0xbd0a7a45	-0.03380801
236	0x3dd39c69	0.10332567
237	0x3d4efbd0	0.050533116
238	0xbcf83d84	-0.03030277
239	0xbd94b2d2	-0.0726067
240	0x3e0f62fa	0.140026
241	0x3e1e45b6	0.1545628
242	0x3e0fc2fc	0.14039224
243	0xbbfd690a	-0.007733469
244	0xbe21092a	-0.15726152
245	0xbe07e289	-0.1327001
246	0xbd79bb53	-0.060969662
247	0xbd2a1423	-0.04152311
248	0x3e196695	0.14980538
249	0x3d6435ad	0.05571525
250	0xbc85d84e	-0.016338494
251	0xbdf48096	-0.11938588
252	0xbda2018f	-0.079104535
253	0xbcfd9b59	-0.030957865
254	0xbdab229c	-0.083562106
255	0x3e26cfd2	0.16290215

_backbone.transformer_blocks.mha_block_0.mha.to_out.weight f4 [32, 128]
0	0xbd867091	-0.06564439
1	0xbd427d7b	-0.04748295
2	0x3c102dc1	0.008799971
3	0x3d8bfe37	0.06835597
4	0xbd66dfef	-0.056365903
5	0x3db7a7cf	0.08967554
6	0xbb2af0af	-0.00260834
7	0x3b1152a2	0.0022174497
8	0x3baeca20	0.005334154
9	0xbdb49daa	-0.088191345
10	0x3dab555a	0.08365889
11	0xbd671ba7	-0.056422856
12	0xbddcbae8	-0.10777837
13	0x3dab23a0	0.08356404
14	0xbd7b1f10	-0.06130892
15	0x3cb47f5a	0.022033382
16	0xbd25b588	-0.040456325
17	0x3cc688fb	0.02423524
18	0xbd6d5e5e	-0.057951324
19	0x3e015063	0.12628321
20	0x3d51c9aa	0.051217712
21	0x3da99ccc	0.0828186
22	0xbc861289	-0.01636626
23	0xbd028e8f	-0.031874236
24	0xbdc8c0f9	-0.098024316
25	0xbdc4b311	-0.09604467
26	0xbdf10446	-0.11768393
27	0x3bfee2f9	0.007778522
28	0x3dd524c4	0.10407403
29	0xbd36dce6	-0.04464426
30	0xbd77a5db	-0.060460906
31	0xbbaf0a0d	-0.0053417743
32	0xbdeb6a12	-0.11494841
33	0xbc947ff8	-0.018127427
34	0x3c8ca633	0.017169094
35	0xbd087438	-0.03331396
36	0x39ce179c	0.00039308972
37	0x3d0cdcd2	0.03439028
38	0x3bc09c35	0.0058779963
39	0xbd5cf759	-0.053946827
40	0xbcc6f219	-0.024285363
41	0x3d85ce5b	0.065335
42	0xbc8b3da5	-0.016997168
43	0x3ca385ae	0.019961204
44	0xbd38ae26	-0.045087956
45	0xbce816a0	-0.028331101
46	0x3de3bfff	0.11120605
47	0xbd21bbe7	-0.03948584
48	0x3cfef17c	0.031121008
49	0xbbccfaa6	-0.0062554656
50	0xbd7cbfb2	-0.061706252
51	0xb92b8319	-0.00016356668
52	0xba6b3a34	-0.00089732115
53	0x3bfef6da	0.007780892
54	0xbcd80a04	-0.026371963
55	0x3d7604e3	0.060063254
56	0xbd91043b	-0.07080885
57	0x3dad52fb	0.08463093
58	0xbb0422c5	-0.0020162326
59	0x3e39a32b	0.1812865
60	0x3d866ac7	0.06563335
61	0x3d521b0a	0.051295318
62	0x3de2a4a6	0.110665604
63	0xbd057200	-0.032579422
64	0xbdd204f9	-0.10254855
65	0xbc708015	-0.014678975
66	0x3dc529e9	0.09627134
67	0x3e0d2300	0.13782883
68	0xbd92dc68	-0.071709454
69	0xbcf7d3a2	-0.030252282
70	0xbcc0e89c	-0.023548417
71	0x3dc580ad	0.096436836
72	0x3d9bab8c	0.07601079
73	0xbd89afdb	-0.06722995
74	0xbbf6bc05	-0.007529738
75	0x3dd7dd59	0.105402656
76	0x3bef86a3	0.007309751
77	0x3cc44043	0.023956424
78	0x3d393aff	0.04522228
79	0x3c52746f	0.012845143
80	0x3a562f65	0.00081705145
81	0xbdda62c2	-0.10663368
82	0x3c516a2e	0.012781663
83	0xbcf76779	-0.030200707
84	0xbd23951b	-0.03993712
85	0x3ccaec77	0.024770958
86	0xbde486ac	-0.11158499
87	0x3d13ffad	0.036132503
88	0x3d820ef8	0.06350511
89	0x39a42041	0.0003130455
90	0xbb9f4bbd	-0.0048613236
91	0xbcdf6cd1	-0.027273567
92	0x3c58f3dc	0.013241734
93	0xbb235f38	-0.002492858
94	0x3d0d737e	0.03453397
95	0x3d9ed5f4	0.07755652
96	0x3ccb4ca9	0.024816828
97	0x3dc59703	0.09647944
98	0xbd8e7412	-0.069557324
99	0x3dabaefb	0.08382984
100	0x3cc2c43c	0.023775212
101	0x3ce1f4e5	0.027582595
102	0xbc265f3b	-0.010154541
103	0x3b92d2c9	0.004480694
104	0x3dc89675	0.097943224
105	0x3dc6144a	0.096718386
106	0x3d9d73f6	0.076881334
107	0xbd28ecd5	-0.041241486
108	0xbdbd1b1d	-0.09233687
109	0x3d5d18b5	0.05397864
110	0x3cc9b86a	0.024624068
111	0xbc22a41e	-0.009926824
112	0xbcef1035	-0.029182533
113	0x3bf814e5	0.00757085
114	0xbdd3dc4c	-0.10344753
115	0xbb93b95a	-0.0045081796
116	0x3d8abcf1	0.06774319
117	0xbda27eee	-0.07934366
118	0x3d104305	0.035220165
119	0x3dcce2cd	0.10004196
120	0x3d366672	0.044531293
121	0x3c91cce4	0.017797895
122	0xbe01a992	-0.12662342
123	0x3cec54fa	0.028849114
124	0xbda6a156	-0.08136241
125	0xbd687780	-0.05675459
126	0x3d9d589e	0.07682918
127	0xbd53af85	-0.05168106
128	0xbb655277	-0.003499178
129	0x3d038c25	0.032116074
130	0x3d0b63f3	0.034030866
131	0xbc5c57a9	-0.013448634
132	0xbc44b00f	-0.012004866
133	0x3d4d840a	0.05017475
134	0xbc3c2d53	-0.0114854155
135	0xbd2f996a	-0.042870916
136	0x3d9a33d1	0.075294144
137	0xbd1a5d4b	-0.037686627
138	0x3d9b453e	0.07581566
139	0xbdce4b67	-0.100729756
140	0x3baa9ba4	0.005206542
141	0x3d8272f2	0.0636958
142	0x3d74e708	0.05979064
143	0x3d1e6636	0.038671695
144	0xbb9fc78c	-0.0048760828
145	0x3d85947e	0.06522463
146	0x3c2568b8	0.010095768
147	0x3c76196f	0.015020712
148	0xbcf88d09	-0.030340688
149	0x3c753247	0.0149656
150	0x3c224c17	0.009905837
151	0xbd213a24	-0.039362088
152	0xbc92fe22	-0.017943446
153	0x3b954da0	0.0045563728
154	0xbc8ad013	-0.01694492
155	0x3c40b40e	0.011761678
156	0x3d6ff958	0.058587402
157	0xbdb6df50	-0.08929312
158	0x3d4e7635	0.0504057
159	0xbb13d19b	-0.0022555355
160	0xbd150c63	-0.036388766
161	0x3d563dd3	0.052305054
162	0x3ccf1a96	0.025281232
163	0xbd6bf7fe	-0.05760955
164	0x3c679c96	0.014136454
165	0xbd0cda8f	-0.03438812
166	0xbd565d74	-0.052335218
167	0x3dbbac6e	0.09163748
168	0x3daec1e4	0.085330755
169	0xbd0785f9	-0.03308675
170	0x3dea3b8e	0.114371404
171	0xbd94d3db	-0.07266971
172	0x3d65bc72	0.05608792
173	0x3d896212	0.067081586
174	0x3b4f94cb	0.003167438
175	0x3d8cbb39	0.068716474
176	0xbd87bd9c	-0.06627962
177	0xbbebdff8	-0.00719833
178	0xbd5e2c04	-0.054241195
179	0xbd71d944	-0.05904509
180	0x3d38a9a2	0.04508365
181	0xbd6ac8ca	-0.057320394
182	0x3d82788e	0.0637065
183	0x3d0be588	0.034154445
184	0x3c5eaebb	0.013591464
185	0xbc07db16	-0.00829198
186	0xbcd851da	-0.026406217
187	0x3c63fae0	0.013914794
188	0xbdaebb7c	-0.085318536
189	0xbd948701	-0.072523125
190	0x3d8c5b31	0.06853331
191	0x3d73460b	0.05939297
192	0x3c693311	0.014233367
193	0xbd00bb37	-0.031428542
194	0x3cc175f4	0.023615815
195	0xbd90fc3a	-0.070793584
196	0xbd950253	-0.07275834
197	0xbd090044	-0.03344752
198	0x3da6a534	0.08136979
199	0xbca834b0	-0.020532936
200	0x3d99d4b1	0.07511271
201	0xbd169dd6	-0.036771618
202	0x3bed709a	0.007246089
203	0xbd96d0ec	-0.073640674
204	0x3d9ad0f8	0.07559389
205	0x3d0df7e7	0.034660246
206	0x3c865ae5	0.016400764
207	0xbce96c5d	-0.028494054
208	0x3c0d52f7	0.008625737
209	0xbd18f04f	-0.03733855
210	0xbd3ae30b	-0.04562668
211	0xbd82b99b	-0.06383058
212	0xbd2edda2	-0.042691834
213	0xbc191f98	-0.009345911
214	0xbc8f6489	-0.017503994
215	0xbd0a39f4	-0.033746675
216	0x3c5fa8ad	0.013651055
217	0xbc76d0fe	-0.015064476
218	0x3d42be14	0.047544554
219	0x3d0f424c	0.034975335
220	0x3d6ac7f9	0.057319615
221	0xbd8b13ba	-0.06790872
222	0xbdb0c0a1	-0.08630491
223	0xbd962238	-0.073307455
224	0xbd1d8e2b	-0.03846566
225	0x3d5592fb	0.052142125
226	0xbbbeae49	-0.0058191163
227	0xbdb4562d	-0.08805499
228	0x3d8a3f8e	0.06750403
229	0x3aff2bbf	0.0019467993
230	0x3d0d2a22	0.03446401
231	0x3b068518	0.0020526107
232	0xbdbb90b5	-0.0915846
233	0x3b7c30b9	0.003848119
234	0x3d7322f3	0.059359502
235	0x3d29dd3a	0.041470744
236	0x3d206254	0.039156273
237	0x3db669e7	0.08906918
238	0xbdbef98b	-0.0932494
239	0xbd840905	-0.06447033
240	0x3d5c1c94	0.05373819
241	0xbcb34908	-0.02188541
242	0xbd66a6d2	-0.056311436
243	0xbd038a78	-0.032114476
244	0xbd6f42bc	-0.058413252
245	0xbd8fd1c6	-0.07022433
246	0xba26d782	-0.00063645106
247	0xbdacd2f6	-0.08438675
248	0x3d72a3b8	0.059238166
249	0x3d382e1a	0.04496584
250	0xbcac0ec4	-0.021003135
251	0xbbf12226	-0.007358807
252	0x3cf56f16	0.029960196
253	0x3d8ad718	0.06779307
254	0x3bde74a4	0.006788807
255	0x3caba900	0.020954609

_backbone.transformer_blocks.mha_block_0.mha.to_out.bias f4 [32]
0	0x3e14385c	0.14474624
1	0xbd7cba27	-0.061700966
2	0x3cab415f	0.020905195
3	0xbd9f5343	-0.07779553
4	0xbd02c748	-0.03192833
5	0xbd647739	-0.055777762
6	0x378e1a1b	1.6939875e-05
7	0xbc2343bf	-0.009964882
8	0xbc774a9b	-0.015093471
9	0xbc14b7d0	-0.009077027
10	0xbd7797eb	-0.060447615
11	0x3d65f42e	0.05614107
12	0x3b1de5a8	0.0024093185
13	0x3d52d570	0.05147308
14	0x3d0338fc	0.032036766
15	0x3cff38a4	0.031154938
16	0x3d481ad8	0.048853725
17	0x3d84daad	0.064870216
18	0x3e0be4d1	0.13661505
19	0xbda07659	-0.07835073
20	0x3d0715a3	0.03297962
21	0xbd8d5539	-0.069010206
22	0x3d686ffe	0.05674743
23	0xbd8a3b08	-0.067495406
24	0xbcf7137e	-0.030160662
25	0xbcd32276	-0.025773268
26	0xbcdc1a37	-0.026867969
27	0x3bd3a5c7	0.006458971
28	0xbd0ea67c	-0.03482674
29	0x3d68491f	0.05671036
30	0xbd936329	-0.07196648
31	0xba86a1a9	-0.0010271567

_backbone.transformer_blocks.mha_block_0.pos_wise_ff.ffn.layer1.weight f4 [128, 32]
0	0xbe3064d4	-0.17225963
1	0x3d960434	0.073250204
2	0xbdcdf7fa	-0.100570634
3	0x3bf323cd	0.0074200393
4	0x3d973e62	0.073849455
5	0x3d895af5	0.06706802
6	0xbc200d24	-0.009768758
7	0x3e3dc241	0.18531133
8	0xbd58a65d	-0.05289303
9	0xbd43be53	-0.04778893
10	0x3db27682	0.0871401
11	0x3de66f85	0.112517394
12	0xbe2afda3	-0.16698317
13	0x3e2a0be9	0.16606106
14	0x3c6c5466	0.014424419
15	0x3dcabc7c	0.09899232
16	0x3e27c140	0.16382313
17	0x3e25a33f	0.16175555
18	0xbdb54275	-0.08850566
19	0x3dd9ac8b	0.10628613
20	0xbd25b676	-0.04045721
21	0x3e383127	0.179875
22	0x3d192df0	0.037397325
23	0x3d8d2369	0.068915196
24	0xbdb3ed9f	-0.08785557
25	0xbdeacaf9	-0.11464495
26	0x3e3412f4	0.17585355
27	0x3e35749a	0.17720261
28	0x3e3f5f16	0.18688616
29	0x3c39d788	0.011342891
30	0x3c262b71	0.010142193
31	0x3de02956	0.10945384
32	0xbc32bdf8	-0.01090955
33	0x3b5d1569	0.0033734685
34	0xbc515d9e	-0.012778668
35	0xbbc7dc61	-0.0060992693
36	0xbd8e786d	-0.06956563
37	0xbdfe333a	-0.124121144
38	0x3dc05d5f	0.09392809
39	0xbdf8d1b1	-0.121493705
40	0xbe0fb72d	-0.1403472
41	0x3dfcfccb	0.12352904
42	0xbd0fee3e	-0.035139315
43	0x3cc3988b	0.02387645
44	0x3e315937	0.17319189
45	0x3d7f9666	0.06239929
46	0x3df0f6b2	0.117658034
47	0x3dc34c68	0.09536058
48	0xbe1eb326	-0.15498027
49	0x3d9cc89e	0.07655452
50	0x3cf41590	0.029795438
51	0xbd13f33b	-0.036120635
52	0xbbcd8150	-0.0062715188
53	0xbd84e0fe	-0.06488226
54	0x3db67802	0.089096084
55	0xbdb0a409	-0.08625037
56	0xbda0fc93	-0.07860675
57	0x3d4707a2	0.048591264
58	0xbde5609e	-0.11200069
59	0x3d2ffa66	0.042963408
60	0xbcd95e41	-0.026534202
61	0x3d37b60e	0.044851355
62	0x3cab4161	0.020905199
63	0xbe631d20	-0.22179079
64	0x3d2a34c4	0.041554227
65	0x3d8b4cbc	0.06801745
66	0xbdec0e56	-0.11526172
67	0x3ded841e	0.11597465
68	0xbe005428	-0.12532103
69	0x3e805324	0.2506343
70	0x3d6ab8f5	0.057305295
71	0x3d9c2e7c	0.07626054
72	0x3e5e8b39	0.21732797
73	0x3e715d5d	0.23570772
74	0xbdab5ec8	-0.083676875
75	0x3de776a6	0.11301927
76	0x3e0a88bc	0.13528723
77	0xbde9a04b	-0.114075266
78	0xbd7914ee	-0.060810976
79	0xbe24c907	-0.16092311
80	0xbaaca413	-0.0013171457
81	0x3d7dd342	0.06196905
82	0xbda772c0	-0.08176184
83	0xbd46bccf	-0.048519906
84	0xbdbc4750	-0.09193289
85	0x3ce55b00	0.027997494
86	0x3d82e0c5	0.06390528
87	0xbbff5ea0	-0.0077932626
88	0x3e4e8437	0.20167623
89	0xbe476675	-0.19472678
90	0xbd579fb8	-0.052642554
91	0xbd7d9dbf	-0.061918017
92	0x3ce783b4	0.028261043
93	0x3e00d01c	0.12579387
94	0xbe3306d8	-0.1748308
95	0xbdffe9a4	-0.12495735
96	0xbe0d115a	-0.1377615
97	0x3e1f788b	0.15573327
98	0x3e08ef8f	0.13372634
99	0xbdff44bf	-0.12464284
100	0x3e12027e	0.14258763
101	0x3e01f367	0.12690507
102	0x3dee48eb	0.11635002
103	0xbcba09ca	-0.022709746
104	0xbdc7a14b	-0.09747561
105	0x3e08787f	0.13327216
106	0x3c8451bc	0.016152255
107	0xbe316c5c	-0.17326492
108	0x3e3fec48	0.18742478
109	0x3dab9f59	0.083800025
110	0xbe05c22b	-0.1306235
111	0xb9d335cc	-0.00040285138
112	0xbc397d63	-0.011321398
113	0xbcd54eb9	-0.026038514
114	0xbc96f13c	-0.018425576
115	0xbdfffc24	-0.12499264
116	0xbe03d88e	-0.12875578
117	0x3d91222d	0.07086597
118	0x3c71752e	0.0147374105
119	0xbe328ce4	-0.17436558
120	0x3e1ddaf1	0.15415551
121	0x3e2c766b	0.16842048
122	0x3dc5988a	0.09648235
123	0x3d014fe5	0.031570334
124	0xbd37f552	-0.04491169
125	0x3e2db027	0.16961728
126	0xbe16e37e	-0.14735219
127	0xbd834832	-0.064102545
128	0xbda9829d	-0.08276866
129	0xbb8aafcd	-0.004232383
130	0x3e275e88	0.16344655
131	0xbdbf1c68	-0.0933159
132	0xbcc6e846	-0.024280678
133	0xbd837433	-0.064186476
134	0xbdba261b	-0.09089299
135	0xbdcb29d5	-0.09920088
136	0xbde54975	-0.111956514
137	0xbe272207	-0.16321574
138	0x3b54297b	0.0032373357
139	0x3c48bd9e	0.0122522395
140	0x3d9cfd53	0.07665505
141	0xbdeb83a4	-0.11499718
142	0xbdf28f67	-0.11843758
143	0xbe16f6c1	-0.14742567
144	0x3d9bb52a	0.07602914
145	0xbdc18a3f	-0.094501965
146	0x3d52cc5a	0.051464416
147	0xbd5b3f8f	-0.05352741
148	0xbc1e60ab	-0.009666602
149	0xbe3962e4	-0.1810413
150	0xbd5ee999	-0.054421995
151	0xbdf22c72	-0.118248835
152	0xbe1e51b8	-0.1546086
153	0x3cfc3772	0.030788157
154	0x3ddebfc4	0.1087642
155	0x3d8631ea	0.06552489
156	0x3be2d6f6	0.006922598
157	0x3dde87d2	0.108657494
158	0x3d69955c	0.057027206
159	0x3d818f62	0.06326176
160	0xbd245e53	-0.040129017
161	0xbd424ea9	-0.047438297
162	0xbdff39f6	-0.12462227
163	0x3dcb8b31	0.09938658
164	0x3c40f736	0.01177769
165	0xbc969dff	-0.018385885
166	0xbdd54c27	-0.104149155
167	0x3dca78b5	0.09886304
168	0x3d328175	0.04358049
169	0xbd6d36ce	-0.057913594
170	0xbc970708	-0.01843597
171	0xbd9cc5e9	-0.07654936
172	0x3e03cb68	0.12870562
173	0xbdbe0836	-0.0927891
174	0xbd9f9fd6	-0.07794158
175	0x3dc3b09a	0.095551684
176	0xbd5e7814	-0.054313734
177	0xbd38ae90	-0.04508835
178	0x3e06a5c7	0.13149177
179	0x3cb58d4e	0.022162106
180	0x3dbac0eb	0.091188274
181	0xbd4651b2	-0.048417754
182	0x3de354d9	0.11100168
183	0x3d3383c8	0.04382685
184	0xbb732f35	-0.0037106995
185	0x3e05945b	0.13044874
186	0xbceecac2	-0.029149417
187	0x399bf543	0.00029746638
188	0xbe0a5029	-0.13507141
189	0xbe1f545c	-0.15559524
190	0xbe182ae9	-0.14860119
191	0xbe30564a	-0.17220417
192	0x3e0f8e72	0.14019182
193	0x3c06c1c7	0.008224911
194	0xbe27a578	-0.16371715
195	0x3c0213ce	0.007939292
196	0xbdecdd36	-0.1156563
197	0x3e4e0d2b	0.2012221
198	0xbc2fa7b4	-0.010721136
199	0x3e027e6e	0.12743542
200	0x3dd8f740	0.10594034
201	0x3de71f46	0.11285262
202	0xbe27c549	-0.16383852
203	0xbd39b769	-0.04534093
204	0xbe5a4708	-0.21316159
205	0x3e0bf876	0.13668999
206	0x3e069ef3	0.13146572
207	0x3e042191	0.1290343
208	0xbe20e62b	-0.15712802
209	0x3cbfd278	0.023415789
210	0x3d9966ca	0.074903086
211	0xbdf908af	-0.121598594
212	0x3c12600f	0.008934035
213	0x3b52aa2a	0.0032144883
214	0xbd1a3379	-0.037646744
215	0x3e08587d	0.13315006
216	0xbdad172c	-0.08451685
217	0xbddd8b70	-0.10817611
218	0xbdde7299	-0.108617015
219	0xbe0a5b81	-0.13511468
220	0xbd821aaf	-0.06352746
221	0xbe1614f0	-0.14656425
222	0xbdcfecbb	-0.10152575
223	0x3db93267	0.090428166
224	0x3e150a40	0.14554691
225	0xbdfc53a9	-0.123206444
226	0x3d9a814b	0.07544192
227	0x3d2a1f2e	0.04153364
228	0x3d19e120	0.03756821
229	0xbdd6e29d	-0.10492442
230	0x3d3ca21d	0.04605304
231	0xbdcbf743	-0.09959271
232	0xbe29d51a	-0.16585198
233	0xbd1e8e88	-0.038710147
234	0xbe29ee5b	-0.16594832
235	0xbdf97206	-0.12179951
236	0x3c72ac32	0.014811562
237	0xbe1f6538	-0.15565956
238	0x3df6bc06	0.120475814
239	0x3e04098c	0.12894267
240	0x3e1e0d44	0.15434748
241	0x3b9c4915	0.0047694542
242	0xbdf4ae26	-0.11947279
243	0xba536e76	-0.0008065471
244	0xbca58035	-0.020202735
245	0xbd170123	-0.03686632
246	0xbdc1121c	-0.09427282
247	0xbe2c7bf4	-0.1684416
248	0xbe325275	-0.17414267
249	0xbdcf7068	-0.10128862
250	0x3e322a2d	0.17398901
251	0x3dbed5b9	0.09318108
252	0xbd9dfb30	-0.07713926
253	0x3dd023c1	0.101630695
254	0x3c05539c	0.00813761
255	0x3d8dd9bb	0.069262944

_backbone.transformer_blocks.mha_block_0.pos_wise_ff.ffn.layer2.weight f4 [32, 128]
0	0x3dfc69d4	0.123248726
1	0x3cf7f888	0.030269876
2	0x3d27ae78	0.04093787
3	0xbd163f28	-0.036681324
4	0x3c802536	0.015642744
5	0xbcbce704	-0.023059376
6	0x3d2ac18c	0.041688487
7	0xbc40dfc4	-0.0117721
8	0x3db7845e	0.08960794
9	0xbd4359c3	-0.047693025
10	0xbd71e870	-0.05905956
11	0xbd8153eb	-0.06314834
12	0xbdf16720	-0.11787248
13	0xbd4becdc	-0.049786434
14	0x3c3c6846	0.01149947
15	0xbd29c0b3	-0.041443538
16	0xbd4c1a35	-0.04982968
17	0x3d4022eb	0.0469083
18	0xbd32ca75	-0.04365011
19	0xbd9c02f1	-0.076177485
20	0xbd622056	-0.05520662
21	0xbd288a14	-0.041147307
22	0x3c98c878	0.018650278
23	0x3db4ea6b	0.08833774
24	0xbddc6fbc	-0.10763499
25	0x3d9e6408	0.07733923
26	0x3c9b0439	0.018922912
27	0xbd92d3c1	-0.07169295
28	0x3dd47be5	0.103751935
29	0xbc7eca0d	-0.015551102
30	0xbd3e7c2e	-0.046505146
31	0xbc758bbd	-0.0149869295
32	0xbcdcde1f	-0.026961384
33	0x3d6ec628	0.058294445
34	0x3d9ae2b8	0.075627744
35	0x3d81df06	0.063413665
36	0x3d867eee	0.06567179
37	0x3deb175f	0.11479067
38	0xbd86faa2	-0.06590773
39	0xbd6c8c19	-0.057750795
40	0xbd5e8705	-0.054327983
41	0xbd83ec30	-0.064415336
42	0x3c34d085	0.011036043
43	0x3d26e1e9	0.04074279
44	0x3d537f15	0.051634867
45	0x3d6b0681	0.05737925
46	0xbc9ab4f0	-0.018885106
47	0x3d72cb88	0.059276134
48	0x3cac63a6	0.02104361
49	0x3d6f88f4	0.058480218
50	0xbd9ba032	-0.07598914
51	0x3d713f98	0.05889854
52	0xbd6a8b12	-0.057261534
53	0xbdcf20ad	-0.10113654
54	0xbd4e174a	-0.05031518
55	0x3c4d6dd1	0.012538389
56	0xbc00a911	-0.007852809
57	0xbc7ba6db	-0.015359606
58	0x3c6eb92d	0.0145705165
59	0xbd6abbea	-0.057308115
60	0xbd215d4b	-0.03939561
61	0x3d33f48e	0.043934397
62	0x3c38ebc8	0.011286683
63	0x3ccd3319	0.02504878
64	0x3be0d826	0.0068617044
65	0x3a22721b	0.00061968126
66	0xbbae166e	-0.0053127324
67	0x3d4ac324	0.049502507
68	0x3c4210ec	0.011844855
69	0xbd4ce810	-0.050026
70	0x3ddb0786	0.10694794
71	0xbd6f3878	-0.058403462
72	0x3d75c108	0.059998542
73	0xbc0a5849	-0.0084439
74	0x3b2a0589	0.002594324
75	0xbd459c74	-0.04824491
76	0xbdb4047b	-0.08789917
77	0x3b357f58	0.002769431
78	0xbd913fa0	-0.07092214
79	0x3d4e9b7b	0.050441246
80	0x3d9d362f	0.0767635
81	0xbd496cfd	-0.049176205
82	0x3c757966	0.014982557
83	0xbd168914	-0.03675182
84	0x3bca451c	0.0061727893
85	0xbdc66e16	-0.09688966
86	0x3d2d52a8	0.042315155
87	0xbe0a39b9	-0.13498582
88	0x3d565bb0	0.052333534
89	0x3d9e7435	0.077370085
90	0x3d22c76d	0.03974097
91	0xbd635ac3	-0.05550648
92	0xbcac16d3	-0.021006977
93	0xbd10e9ab	-0.035379093
94	0xbc8bb465	-0.017053792
95	0xbc4f3205	-0.012646203
96	0x3db953b8	0.09049171
97	0x3d81fad3	0.06346669
98	0xbe049e56	-0.12951025
99	0xbe1dac46	-0.15397748
100	0xbd03fc63	-0.032223117
101	0x3baeb4df	0.00533162
102	0x3cff2ca6	0.03114922
103	0x3da0a0a2	0.07843138
104	0x3e04ad5d	0.12956758
105	0x3d437114	0.04771526
106	0x3d99adfb	0.07503887
107	0x3dfa8a5b	0.122334205
108	0xbd5ea58a	-0.05435709
109	0x3c9942ac	0.01870855
110	0x3d20f95a	0.0393003
111	0xbdc2803d	-0.09497116
112	0xbd6025ea	-0.054723658
113	0xbd8f3d28	-0.069940865
114	0xbd025887	-0.031822708
115	0xbd61ab66	-0.0550951
116	0xbd84d5e2	-0.064861074
117	0x3d8a915f	0.067660086
118	0xbb6509c2	-0.0034948443
119	0xbd954c0d	-0.07289896
120	0xbd45cc20	-0.048290372
121	0xbd4a10cf	-0.049332436
122	0xbc063b22	-0.008192809
123	0xbc43963f	-0.011937677
124	0x3d35da33	0.044397544
125	0xbd155edf	-0.03646743
126	0xbcf387f5	-0.029727915
127	0x3cd0f15f	0.02550572
128	0x3c711ae7	0.014715887
129	0x3d3f200c	0.04666142
130	0xbda81099	-0.08206291
131	0x3d27e82d	0.040992904
132	0x3da4b933	0.080431364
133	0x3d2a5fb8	0.04159519
134	0xbc027cde	-0.007964341
135	0x3d6edfcf	0.05831891
136	0xbb5c03e1	-0.0033571648
137	0xbc8ea6b6	-0.017413478
138	0x3d4be73b	0.049781065
139	0xbd438b02	-0.04773999
140	0x3cb9be23	0.022673672
141	0x3b84362b	0.0040347776
142	0xbd74491b	-0.05964003
143	0x3d87af96	0.06625287
144	0xbc763782	-0.0150278825
145	0xbdb93b3d	-0.09044502
146	0xbd1e2048	-0.038605005
147	0xbcfaa338	-0.030595407
148	0x3c8e532b	0.017373642
149	0x3d66db44	0.05636145
150	0xbd5451e6	-0.051835917
151	0xbd345617	-0.044027414
152	0x3c813c7a	0.015775908
153	0x3d81cd51	0.06337989
154	0x3d6f88c5	0.058480043
155	0xbd67c069	-0.05657998
156	0x3cbb65e9	0.022875743
157	0xbdc652c5	-0.09683756
158	0x3cedd307	0.02903129
159	0xbcbaa970	-0.022785872
160	0xbd401c1c	-0.046901807
161	0xbb591ecf	-0.0033129936
162	0xbbf43237	-0.007452275
163	0x3d3b0844	0.04566218
164	0xbbe02309	-0.006840114
165	0x3d984865	0.07435683
166	0xbc4a06e7	-0.012330747
167	0x3d5b58c1	0.05355144
168	0xbda4f49a	-0.080544665
169	0x3ced6ea4	0.028983422
170	0xbbc6e0e5	-0.00606929
171	0x3d91ddda	0.07122393
172	0x3d8d6def	0.06905734
173	0xbdba6c44	-0.09102681
174	0xbdd3facd	-0.10350571
175	0xbd7d088e	-0.061775737
176	0xbd1349c7	-0.03595903
177	0xbc42f7c7	-0.011899895
178	0x3d1445dd	0.03619944
179	0xbdaf97ed	-0.085738994
180	0x3db0ea1d	0.086384036
181	0x3d5c809b	0.053833585
182	0x3c97217b	0.018448582
183	0xbdc41f0b	-0.095762335
184	0x3c95f0b9	0.018303262
185	0x3d5adf53	0.053435635
186	0x3cb66492	0.022264753
187	0x3ac546a8	0.0015050964
188	0x3d15d408	0.036579162
189	0xbd8b08b4	-0.06788769
190	0xbc73d974	-0.014883388
191	0x3cfc9121	0.030830922
192	0xbd9d99b0	-0.07695329
193	0xbd58c9de	-0.05292689
194	0xbca3adaf	-0.01998028
195	0xbd939fc2	-0.07208206
196	0x3d6f8ad2	0.058482
197	0xbca013ec	-0.01954075
198	0x3d858f26	0.06521444
199	0xbd39fd50	-0.045407593
200	0x3dcb1567	0.099161915
201	0xbd266862	-0.04062689
202	0x3c2b5046	0.01045615
203	0x3d3aa502	0.04556752
204	0x3d6359b1	0.05550546
205	0xbd8374b0	-0.06418741
206	0xbb290c31	-0.002579462
207	0x3db8cf0f	0.09023868
208	0x3ce0b79c	0.027431302
209	0x383e8388	4.5422028e-05
210	0xbc8d929d	-0.017281825
211	0x3c465545	0.012105291
212	0x3d2bd823	0.04195417
213	0x3c8159c9	0.015789883
214	0x3d98c89b	0.074601375
215	0x3d308953	0.043099713
216	0xbd0cbaba	-0.034357764
217	0x3db03edf	0.08605742
218	0x3d6bd1e6	0.05757322
219	0x3d139ee4	0.0360402
220	0x3d6ddd35	0.058072288
221	0x3cb8f3e2	0.02257723
222	0x3c1e2900	0.00965333
223	0xbde11f7d	-0.10992334
224	0x3cc22e84	0.023703821
225	0x3d8398bc	0.06425616
226	0xbd13ecae	-0.036114387
227	0x3d0e3c18	0.03472528
228	0x3c9f4931	0.01944408
229	0x3d1fa862	0.03897894
230	0xbd23802f	-0.039917167
231	0x3d830f2b	0.063993774
232	0x3d9f4dfc	0.07778546
233	0x3db04092	0.08606066
234	0xbd816d68	-0.06319696
235	0xbd465917	-0.048424806
236	0x3ce1b9ef	0.02755448
237	0x3c00c569	0.007859566
238	0xbd27c495	-0.04095896
239	0x3db6c1aa	0.08923657
240	0xbd9b32ad	-0.07578025
241	0xbd1270be	-0.03575205
242	0x3d4a19c5	0.049340982
243	0x3c62353c	0.013806637
244	0x3c22e67b	0.009942646
245	0xbce4c423	-0.027925557
246	0x3d23178e	0.039817385
247	0xbbde2919	-0.0067798016
248	0x3d315577	0.043294396
249	0x3dfc2939	0.1231255
250	0x3ce83a36	0.02834807
251	0x3ca3aec1	0.01998079
252	0xbdcdc21f	-0.10046791
253	0x3d30d8ad	0.043175388
254	0xbd76ae1f	-0.06022465
255	0x3d950aaf	0.07277428

_backbone.transformer_blocks.mha_block_0.pos_wise_ff.ffn.linear_v.weight f4 [128, 32]
0	0x3dc6f07b	0.09713837
1	0x3a75bf1e	0.0009374487
2	0xbe1cff58	-0.15331781
3	0xbe51a183	-0.20471768
4	0xbbc5da6f	-0.006038002
5	0x3d79bff6	0.060974084
6	0x3e353b57	0.17698418
7	0x3c5814b6	0.013188532
8	0x3dd5fa16	0.10448091
9	0x3e24ac3f	0.16081332
10	0xbe61fcfa	-0.22069159
11	0x3e0ea77e	0.1393108
12	0xbdeb3864	-0.11485365
13	0x3e489c66	0.19590911
14	0x3dd23c68	0.10265428
15	0xbd928297	-0.07153814
16	0xbe33a550	-0.1754353
17	0x3e3c3ab3	0.18381767
18	0x3db6a464	0.08918074
19	0xbdb18616	-0.08668153
20	0xbdcbeb60	-0.099570036
21	0x3d8757a6	0.066085145
22	0xbd308938	-0.043099612
23	0x3da343e5	0.07971934
24	0xbd790df9	-0.06080434
25	0xbe59a4a0	-0.21254206
26	0x3dd82441	0.1055379
27	0x3cddcb83	0.027074581
28	0xbdbe1b69	-0.09282572
29	0x3d2065cd	0.039159585
30	0xbdcf41ae	-0.10119949
31	0x3bd1d54d	0.0064036013
32	0x3de9cc79	0.11415953
33	0xbda4a500	-0.08039284
34	0x3df1d74b	0.11808642
35	0x3cc4e8ff	0.024036882
36	0x3da25084	0.079255134
37	0x3e6e698b	0.23282449
38	0x3dc19001	0.09451295
39	0xbe0f75fc	-0.14009851
40	0x3da4321a	0.080173686
41	0xbdc3644d	-0.09540615
42	0x3d517fc5	0.05114724
43	0x3e0e44c7	0.13893424
44	0x3dcc6d58	0.09981793
45	0x3dd6ae30	0.104824424
46	0xbe291325	-0.1651121
47	0xbd72bcd2	-0.059262104
48	0xbd162951	-0.036660496
49	0x3b89296a	0.004185845
50	0x3dadef34	0.0849289
51	0x3d09d1a1	0.033647183
52	0x3db843f9	0.0899734
53	0x3d91d25e	0.071202025
54	0xbc28b5cf	-0.010297253
55	0x3d7ac9cf	0.061227616
56	0x3e5b63b5	0.21424754
57	0x3e0e76d5	0.13912518
58	0x3cf17e75	0.029479245
59	0x3d830b03	0.06398585
60	0xbce5037f	-0.027955769
61	0x3dcf2800	0.10115051
62	0x3ca4e55e	0.020128902
63	0x3dfe0274	0.12402812
64	0x3e64ac06	0.22331247
65	0x3d31b532	0.043385692
66	0x3e3c5396	0.1839126
67	0x3cb24734	0.021762468
68	0xbe58144b	-0.21101491
69	0xbd8515e5	-0.06498317
70	0x3d949543	0.07255032
71	0xbe4e5845	-0.2015086
72	0x3e0e4e5f	0.13897084
73	0xbbe0c316	-0.0068591936
74	0x3d29dd9f	0.04147112
75	0x3e1de261	0.15418388
76	0x3e434014	0.19067413
77	0xbda73a90	-0.08165467
78	0x3e28c582	0.16481593
79	0xbd82c18b	-0.06384572
80	0x3df81831	0.12113989
81	0x3dad8a0f	0.08473598
82	0x3e61302b	0.21991031
83	0x3b8537ab	0.004065474
84	0xbdd090f3	-0.10183897
85	0xbe1055a6	-0.14095172
86	0x3d8d9ee5	0.06915072
87	0x3e1a5c57	0.15074287
88	0xbdf6d28a	-0.12051876
89	0xbd984700	-0.07435417
90	0xbe64c684	-0.22341353
91	0xbd0ca172	-0.034333654
92	0xbe39b84e	-0.18136713
93	0x3d256da8	0.04038778
94	0xbe0412e1	-0.12897827
95	0xbd0b8baa	-0.03406874
96	0xb9213055	-0.00015372162
97	0x3df1f5de	0.118144736
98	0xbd6a6f4f	-0.05723506
99	0x3daaabc6	0.083335444
100	0xbdd29304	-0.10281947
101	0x3dda72a4	0.10666397
102	0xbe3308ff	-0.174839
103	0x3dfe40cc	0.12414703
104	0x3e1c1a8c	0.15244502
105	0xbd8a273a	-0.06745763
106	0x3d9a2a6f	0.07527625
107	0xbcb6b23b	-0.022301784
108	0xbe02bccf	-0.12767337
109	0x3db3f9ff	0.08787917
110	0xbda98caf	-0.082787864
111	0x3cfbc36d	0.030732835
112	0x3e2d2d83	0.16911893
113	0x3e025e6b	0.1273133
114	0x3e3cbec0	0.1843214
115	0xbd4bd0a5	-0.049759526
116	0xbd865349	-0.06558854
117	0xbe41ac71	-0.18913437
118	0x3d8aa35c	0.067694396
119	0xbddaa14d	-0.10675297
120	0xbdb9e979	-0.090777345
121	0xbdd3b95a	-0.103380874
122	0xbda18328	-0.07886344
123	0xbcc56876	-0.024097662
124	0x3d9cfe19	0.07665653
125	0x3d8e3237	0.069431715
126	0x3e1d4029	0.15356506
127	0xbe28285b	-0.16421644
128	0xbae00ff0	-0.0017094593
129	0xbdc62688	-0.09675318
130	0xbdee910f	-0.116487615
131	0x3e095672	0.13411883
132	0xbe10ad84	-0.14128691
133	0x3d9a97a5	0.07548455
134	0xbdd3b954	-0.10338083
135	0xbe2ab218	-0.166695
136	0xbd9099c3	-0.07060578
137	0xbe165a36	-0.1468285
138	0x3d049028	0.03236404
139	0x3c62f184	0.013851527
140	0x3e06b10a	0.13153473
141	0xbd8445ca	-0.06458624
142	0x3d485a77	0.0489144
143	0x3daec950	0.08534491
144	0xbdbb1bf1	-0.09136189
145	0x3e313315	0.17304642
146	0xbc653622	-0.013989957
147	0xbcf7c736	-0.030246358
148	0xbd3457ea	-0.044029154
149	0x3e320bf1	0.17387368
150	0x3e0d9fc9	0.13830484
151	0xbde5e770	-0.11225784
152	0xbe016854	-0.12637454
153	0x3da71934	0.08159104
154	0x3d13bd59	0.036069248
155	0xbe5332a6	-0.2062479
156	0xbbe04b8c	-0.0068449434
157	0xbe3a7355	-0.18208058
158	0xbdeb5ea8	-0.114926636
159	0x3df8107b	0.121125184
160	0x3cdabb8a	0.026700754
161	0x3c30e897	0.010797641
162	0xbcb667cb	-0.02226629
163	0x3e368e47	0.17827712
164	0xbddfa319	-0.1091978
165	0x3d9955f0	0.074870944
166	0x3c956854	0.018238224
167	0xbd347172	-0.044053502
168	0xbcde5533	-0.027140236
169	0x3e1e49b8	0.15457809
170	0xbcec528c	-0.028847955
171	0x3dbce64c	0.09223613
172	0xbdbeb47c	-0.093117684
173	0x3ce2b3e3	0.027673667
174	0xbddc9bc6	-0.10771899
175	0x3caa7b45	0.020810733
176	0x3c88add7	0.016684456
177	0xbdc47f32	-0.09594573
178	0xbc35a456	-0.011086544
179	0x3d9a2c86	0.075280234
180	0x3dc8d255	0.09805743
181	0xbc433acf	-0.0119158765
182	0x3d614845	0.055000562
183	0x3e021c4e	0.1270611
184	0xbe1a894c	-0.15091437
185	0xbe2f8e4e	-0.17144129
186	0xbd2ae2eb	-0.041720312
187	0x3e42daa0	0.19028711
188	0xbdd6b83b	-0.10484358
189	0x3dd7d465	0.10538558
190	0xbc27b14a	-0.01023514
191	0xbb991fe0	-0.0046729892
192	0xbe344302	-0.17603686
193	0x3dcd4d22	0.100244775
194	0x3e2044ab	0.15651195
195	0xbd5f3e2e	-0.05450266
196	0x3e130c2d	0.14360113
197	0xbb3d435d	-0.0028879263
198	0x3acd4cea	0.0015663181
199	0xbe77a638	-0.24184501
200	0x3df899eb	0.121387325
201	0xbe3959a3	-0.181006
202	0x3e145039	0.14483728
203	0x3b8645f2	0.0040976936
204	0x3dfd7d91	0.123774655
205	0xbe1daa3b	-0.15396969
206	0x3e037fb3	0.12841682
207	0x3db93845	0.09043936
208	0xbe05092b	-0.12991779
209	0x3e184a96	0.14872202
210	0x3e1ea2ee	0.1549184
211	0xbd78235f	-0.060580608
212	0xbda91204	-0.08255389
213	0xbe4a34ba	-0.19746676
214	0x3d86a8ee	0.065751895
215	0x3e0222c5	0.12708576
216	0xbde25a64	-0.11052397
217	0xbcc80857	-0.02441804
218	0x3ddb89e6	0.107196614
219	0x3e55118b	0.20807473
220	0xbe19d799	-0.1502365
221	0x3c3de5e4	0.011590455
222	0xbd9941db	-0.07483264
223	0xbe083c9e	-0.13304374
224	0x3ca25381	0.019815208
225	0x3e41d00d	0.18927021
226	0xbe58772a	-0.21139207
227	0x3e288a4a	0.16459003
228	0x3bfa9049	0.0076465947
229	0xbdbe0467	-0.092781834
230	0xbe18b5ce	-0.14913103
231	0x3d13ffdf	0.03613269
232	0x3c1fc457	0.009751401
233	0xbc8727d0	-0.016498476
234	0x3dde4a7d	0.10854051
235	0xbe25afdc	-0.16180366
236	0xbdafd843	-0.085861705
237	0x3e3253a4	0.17414719
238	0xbd87e4d5	-0.06635443
239	0x3da3c14c	0.07995853
240	0x3d158940	0.036507845
241	0x3dd6ef73	0.1049489
242	0xbd4f2ac2	-0.050577886
243	0x3dfe4852	0.12416138
244	0xbdebbb3c	-0.115103215
245	0xbe10b8a2	-0.14132932
246	0x3bf3954b	0.0074335686
247	0xbdcc681f	-0.09980797
248	0x3e0fc65e	0.14040515
249	0x3de446f8	0.11146349
250	0x3d993dcf	0.07482492
251	0x3da96e8c	0.08273038
252	0xbe31eb1f	-0.17374848
253	0xbc88a84b	-0.01668181
254	0xbd5c4a17	-0.053781595
255	0xbe147da6	-0.14501056

_backbone.transformer_blocks.mha_block_0.attn_add_norm.ln.weight f4 [32]
0	0x3f8d3a89	1.1033489
1	0x3f8247e5	1.017819
2	0x3f83b2f4	1.0288987
3	0x3f7d3367	0.9890656
4	0x3f809b79	1.0047446
5	0x3f7bc6a8	0.9835
6	0x3f83b9e0	1.02911
7	0x3f7eb5e4	0.99496293
8	0x3f86db14	1.0535607
9	0x3f79549b	0.9739472
10	0x3f823723	1.0173076
11	0x3f79d97f	0.975975
12	0x3f7005de	0.9375895
13	0x3f7f59a4	0.99746156
14	0x3f861fd9	1.0478469
15	0x3f844ace	1.0335329
16	0x3f7cdd67	0.98775333
17	0x3f7e014a	0.99220717
18	0x3f878e2c	1.0590262
19	0x3f7f533b	0.99736375
20	0x3f7ccf5d	0.9875391
21	0x3f7dfba6	0.9921211
22	0x3f805385	1.0025488
23	0x3f810058	1.007823
24	0x3f80fc46	1.0076988
25	0x3f7e6099	0.99366146
26	0x3f8815de	1.0631673
27	0x3f7c18cf	0.98475355
28	0x3f7f300c	0.9968269
29	0x3f82183a	1.0163643
30	0x3f7bb260	0.98319054
31	0x3f7e75af	0.9939832

_backbone.transformer_blocks.mha_block_0.attn_add_norm.ln.bias f4 [32]
0	0x3cd631fa	0.026146878
1	0xbb36c0a0	-0.002788581
2	0xbc182a5b	-0.009287442
3	0x378e8134	1.6987884e-05
4	0xbb42747d	-0.0029671483
5	0xbc316a81	-0.010828615
6	0x3ca2d61f	0.019877492
7	0xb9298df7	-0.00016169982
8	0x3c089e6d	0.008338553
9	0xbb86de77	-0.0041158753
10	0xbc2d4b6e	-0.010577066
11	0xbbba5a99	-0.0056870696
12	0x3c006035	0.007835438
13	0xbbc4afb4	-0.0060023908
14	0xbc6f4e5e	-0.014606087
15	0xbb006a5f	-0.0019594652
16	0x3c332f2c	0.01093654
17	0x3b8a5547	0.0042215916
18	0x3cbbdd99	0.022932814
19	0xbc88a74d	-0.016681338
20	0xbb271c5e	-0.0025499086
21	0x3bd51c5f	0.0065036262
22	0x3b5b9f87	0.0033511834
23	0x3c476baf	0.01217167
24	0x3cd3a360	0.02583474
25	0xbbb56189	-0.0055353087
26	0xbc588b35	-0.013216783
27	0x3a55d411	0.00081569055
28	0xbc0fc2c0	-0.008774459
29	0x3c8fcb65	0.01755304
30	0xbb0b7ebe	-0.002128526
31	0xbc470076	-0.012146106

_backbone.transformer_blocks.mha_block_0.ff_add_norm.ln.weight f4 [32]
0	0x3f8e1c5a	1.1102402
1	0x3f80c41d	1.0059849
2	0x3f85473b	1.0412363
3	0x3f7a9b57	0.9789328
4	0x3f8178fa	1.0115044
5	0x3f7e467e	0.9932631
6	0x3f841377	1.031844
7	0x3f7f45b7	0.9971575
8	0x3f86256b	1.0480169
9	0x3f7dd320	0.99150276
10	0x3f8535c2	1.040703
11	0x3f7efcb5	0.9960435
12	0x3f7a60fd	0.9780424
13	0x3f802474	1.0011125
14	0x3f84f2a1	1.0386544
15	0x3f867ad7	1.0506238
16	0x3f803f3c	1.0019298
17	0x3f7fcec6	0.99924886
18	0x3f88faf2	1.0701582
19	0x3f80af9a	1.0053589
20	0x3f7ee4f9	0.99568135
21	0x3f7e62c0	0.9936943
22	0x3f81ba97	1.0135068
23	0x3f812844	1.0090413
24	0x3f839c73	1.028212
25	0x3f7fafa0	0.9987736
26	0x3f8dc1d5	1.1074778
27	0x3f80a8fd	1.0051571
28	0x3f806f57	1.0033978
29	0x3f84d1af	1.037649
30	0x3f7c58d0	0.9857302
31	0x3f814846	1.0100181

_backbone.transformer_blocks.mha_block_0.ff_add_norm.ln.bias f4 [32]
0	0x3d212fbd	0.039352167
1	0xbaf66265	-0.0018797634
2	0xbc86e60e	-0.01646712
3	0xbacbdcf2	-0.0015553518
4	0xbbeae5c1	-0.007168502
5	0xbc079912	-0.008276241
6	0x3c9eda07	0.019391073
7	0x3b0dcd69	0.0021637327
8	0x3b8676cb	0.0041035167
9	0xbb8ac7ae	-0.0042352295
10	0xbc276d61	-0.010218949
11	0xbba7b4e9	-0.0051180017
12	0x3b984d95	0.0046479204
13	0xb912ad17	-0.00013988126
14	0xbc365275	-0.011128058
15	0xbacc8bb4	-0.00156056
16	0x3c57597d	0.013143894
17	0x3c377272	0.0111967195
18	0x3c9b008b	0.018921157
19	0xbc80350b	-0.015650293
20	0xbb8fb5c4	-0.004385682
21	0x3b8fbfac	0.0043868627
22	0x3a6ca43a	0.0009027157
23	0x3c993bee	0.018705335
24	0x3d20d463	0.039265048
25	0xbba3b438	-0.004995849
26	0xbc61b80a	-0.0137767885
27	0xbb010277	-0.0019685307
28	0xbc3a3b1a	-0.01136663
29	0x3c8cb7f7	0.017177565
30	0xb9bd2a4d	-0.00036080406
31	0xbcc5f2d9	-0.02416365

_backbone.transformer_blocks.mha_block_1.mha.to_qkv.weight f4 [384, 32]
0	0x3dcdfb47	0.10057693
1	0x3e4f6f9a	0.20257416
2	0xbdcb2d18	-0.0992071
3	0xbcbbc87c	-0.022922747
4	0xbdec6c29	-0.115440674
5	0xbd73457d	-0.05939244
6	0xbe4296cf	-0.19002841
7	0xbd95a800	-0.07307434
8	0x3cfbcb24	0.030736513
9	0x3d2ac446	0.041691087
10	0x3e5cb0b2	0.21551779
11	0xbe82ea6d	-0.25569478
12	0x3d1a8fc6	0.03773477
13	0x3dc72ff9	0.09725947
14	0x3c10416d	0.008804661
15	0x3e3d4ddd	0.18486734
16	0xbd919f0e	-0.071104154
17	0xbd65e228	-0.056123883
18	0xbdb281e8	-0.08716184
19	0xbe1d3c72	-0.1535509
20	0xbdbfd457	-0.093666725
21	0xbb94e6a9	-0.0045440984
22	0xbe09b694	-0.13448554
23	0xbd9015a1	-0.070353754
24	0x3e0d5230	0.13800883
25	0xbe0d27aa	-0.13784662
26	0xbc389ea8	-0.011268295
27	0x3d2817e4	0.04103841
28	0x3e33a926	0.17544994
29	0x3d79d402	0.060993202
30	0x3e0a7f8e	0.13525221
31	0xbcb61028	-0.0222245
32	0x3e04e4f5	0.12977965
33	0xbdee8aca	-0.11647566
34	0xbd74446e	-0.059635572
35	0x3dee1efd	0.11627004
36	0xbdfd72f5	-0.12375442
37	0x3e001d3e	0.12511155
38	0x3c8e637e	0.017381426
39	0x3dbadd4b	0.091242395
40	0x3e0030e2	0.12518647
41	0x3d9c11be	0.076205716
42	0xbdbc1eaa	-0.09185536
43	0x3e1f1b04	0.1553765
44	0x3dc8e1d9	0.09808702
45	0xbd1b9f25	-0.03799357
46	0xbd656798	-0.056006998
47	0x3dcba8f2	0.09944333
48	0xbdc2e437	-0.09516185
49	0xbdbf8b1d	-0.09352706
50	0x3c5647a8	0.013078608
51	0xbd913bd6	-0.07091491
52	0x3dd53a4f	0.10411512
53	0x3cadbe6e	0.021208968
54	0x3dba2427	0.09088927
55	0x3e2d2825	0.16909845
56	0x3d1ae1d7	0.037813034
57	0x3dcafa7e	0.09911059
58	0xbdb48c7b	-0.08815857
59	0xbe490862	-0.19632104
60	0xbe6eaaf8	-0.23307407
61	0x3db34413	0.087532185
62	0xbe228219	-0.15869941
63	0x3da597b3	0.08085575
64	0x3d80e4a6	0.06293611
65	0x3df1093f	0.11769342
66	0x3ddc995f	0.10771441
67	0xbb51a848	-0.0031991173
68	0xbdbea87c	-0.093094796
69	0x3d092c79	0.033489678
70	0xbe0dba59	-0.13840617
71	0x3dd951e0	0.106113195
72	0x3b5c583d	0.003362193
73	0x3e097347	0.13422881
74	0xbdc8281c	-0.09773275
75	0x3ac44995	0.0014975542
76	0xbb8beca8	-0.004270155
77	0x3d35ec00	0.04441452
78	0x3da0d1b6	0.07852499
79	0xbdd9a81e	-0.10627769
80	0x3c6f57b5	0.014608313
81	0x3db2e28e	0.08734618
82	0x3d994fea	0.074859455
83	0xbe13483b	-0.14383022
84	0xbbdba8a2	-0.006703452
85	0xbde70fcc	-0.1128231
86	0x3d5c33ac	0.053760216
87	0x3d8d0170	0.0688504
88	0x3a185b0c	0.0005811907
89	0x3dd3256c	0.10309872
90	0x3d983e0d	0.0743371
91	0xba3ea2c8	-0.0007272181
92	0xbd0b2128	-0.033967167
93	0x3e1652b5	0.14679988
94	0x3e2674a8	0.16255438
95	0x3d9d2e15	0.07674805
96	0xbe05f8e7	-0.1308323
97	0x3e2fdd8a	0.17174354
98	0x3d4020d5	0.04690631
99	0xbda4b2e2	-0.08041932
100	0x3cd026ce	0.025409129
101	0xbd92ac24	-0.071617395
102	0x3dfdbaec	0.12389168
103	0x3d9c2efa	0.076261476
104	0xbd18afbd	-0.037276972
105	0x3e073a58	0.1320585
106	0xbd4de88f	-0.050270613
107	0xbe4f776e	-0.20260403
108	0x3e60f573	0.21968631
109	0x3c150884	0.009096269
110	0xbd5f1299	-0.054461095
111	0x3da07d03	0.07836344
112	0x3d9a9368	0.07547647
113	0xbbf1a548	-0.0073744394
114	0xbd2c3b31	-0.042048637
115	0x3e07dc07	0.13267528
116	0xbdca5442	-0.09879352
117	0x3d338d15	0.04383572
118	0xbcb33871	-0.0218775
119	0x3dbba3f0	0.09162128
120	0xbe075631	-0.13216473
121	0x3d98995d	0.07451127
122	0xbb7631a1	-0.0037566202
123	0xbe1421a3	-0.14465956
124	0x3dcb57ab	0.09928831
125	0xbc09130e	-0.008366359
126	0x3ddd9e16	0.10821168
127	0xbb8e3d74	-0.004340822
128	0x3decd65c	0.11564323
129	0x3cdb7572	0.0267894
130	0x3d89800f	0.06713878
131	0xbe1748db	-0.14773886
132	0xbe3ebc98	-0.1862663
133	0x3dccf7a7	0.100081734
134	0x39f7c859	0.00047260782
135	0x3cdfe6d5	0.027331749
136	0xbe571a39	-0.21006097
137	0xbdb260a7	-0.08709841
138	0xbe2b3d69	-0.16722645
139	0xbe0dec3a	-0.13859645
140	0x3d123840	0.035698175
141	0xbc85510f	-0.016274003
142	0xbe15cc36	-0.14628682
143	0xbd3a3275	-0.045458276
144	0x3bbc4c6e	0.005746416
145	0x3e049e6d	0.1295106
146	0x3c89adb8	0.016806468
147	0xbdd69254	-0.104771286
148	0x3de058e3	0.10954454
149	0xbd59cc97	-0.053173628
150	0x3dd0295a	0.10164137
151	0x3dee61ab	0.116397224
152	0x3d4ddcc9	0.050259385
153	0x3bfbe2df	0.0076869573
154	0xbc1fc435	-0.009751369
155	0xbd88d0c0	-0.06680441
156	0xbd21e78d	-0.039527465
157	0x3d3c9d55	0.04604848
158	0x3b189ea1	0.002328791
159	0xbdecfec0	-0.11572027
160	0x3e2daf88	0.16961491
161	0x3d0d7eaa	0.034544624
162	0x3e062da2	0.13103345
163	0xbe287ab9	-0.16453065
164	0x3e1efdbe	0.15526482
165	0xbdcd75c0	-0.10032225
166	0x3ceef104	0.02916766
167	0xbe012db7	-0.12615095
168	0x3c57fb00	0.013182402
169	0x3da4e436	0.0805134
170	0xbddc2322	-0.107488886
171	0xbda800f7	-0.08203309
172	0xbb60a5c4	-0.0034278492
173	0xbdde3a79	-0.108509965
174	0x3d0ebf24	0.034850255
175	0xbdc3d5f8	-0.09562296
176	0x3d732509	0.05936149
177	0xbe0f03b0	-0.1396625
178	0xbd1ead61	-0.038739566
179	0xbbcc8bc2	-0.0062422464
180	0x3e41abd2	0.189132
181	0x3e08ba42	0.13352302
182	0xbde69d5e	-0.11260484
183	0xbd8c5300	-0.068517685
184	0x3cbe28bd	0.023212785
185	0xbe021f18	-0.12707174
186	0x3dd36c88	0.10323435
187	0x3d0b81db	0.034059387
188	0xbd0c69ef	-0.034280714
189	0xbe2e1a3d	-0.17002197
190	0x3dd21925	0.10258702
191	0x3e0b593c	0.13608259
192	0x3d812c92	0.06307329
193	0x3cb4160c	0.021983169
194	0xbcffb218	-0.031212851
195	0xbddbc56e	-0.10731016
196	0x3cf05e42	0.02934182
197	0xbdf3898e	-0.11891471
198	0x3da3b386	0.07993226
199	0x3dcce6d8	0.100049675
200	0x3d0ad9d5	0.033899147
201	0x3d9cc63f	0.07655
202	0x3d429493	0.047504973
203	0x3d57cd3d	0.052685965
204	0xbdc81475	-0.09769527
205	0xbd01f306	-0.031725906
206	0x3cb965e1	0.022631587
207	0xbde96537	-0.11396258
208	0xbe124f9b	-0.1428818
209	0x3d9827ce	0.07429467
210	0x3d430661	0.047613505
211	0xbda2b3f3	-0.07944479
212	0xbd6722ed	-0.056429792
213	0xbd138c0f	-0.036022242
214	0x3d542b16	0.051798902
215	0x3e07ecd5	0.13273938
216	0xbd177e66	-0.036985777
217	0x3d4e2c3a	0.050335146
218	0xbdead5fc	-0.114665955
219	0x3e0e6c01	0.13908388
220	0xbde9922d	-0.11404834
221	0x3df69cf5	0.12041656
222	0xbe015efa	-0.12633887
223	0xbce3f98b	-0.027828952
224	0x3d9d9003	0.07693484
225	0x3da50dfe	0.080593094
226	0x3ca2d87a	0.019878615
227	0xbe69b080	-0.22821236
228	0xbd88540c	-0.06656656
229	0x3d44c102	0.04803563
230	0x3d00ee5b	0.031477313
231	0x3d5039ac	0.05083625
232	0x3d749302	0.05971051
233	0x3d1c4f6c	0.03816168
234	0xbe07a3cb	-0.13246076
235	0xbd91ad9f	-0.07113194
236	0x3e066d27	0.13127576
237	0xbddc667d	-0.107617356
238	0xbd3058f3	-0.04305358
239	0x3dade4a2	0.08490874
240	0x3de20a80	0.11037159
241	0x3b93f342	0.0045150826
242	0xbc807fec	-0.015685998
243	0xbe2ad37e	-0.1668224
244	0x3e0a2089	0.13488974
245	0x3ddbe27c	0.10736558
246	0x3d88570e	0.06657229
247	0x3e078ac4	0.13236529
248	0xbb7458d8	-0.00372844
249	0x3dac4b4b	0.084127985
250	0x3dee81cc	0.116458505
251	0xbe0cc3b1	-0.13746525
252	0xbdd67e2f	-0.10473286
253	0x3df3127a	0.118687585
254	0x3e010bd3	0.12602167
255	0xbdb4c61a	-0.088268474
